param4_fully_trained.pth (torch, 3671 bytes, 6 tensors)

fc_layers.0.weight f4 [8, 37]
00000000: e879 7c3d e2c5 213e f2e1 683e 388c c43d
00000010: db69 2cbc 047a 073e 0875 92bd 9300 893e
00000020: 642d 23bf f6c2 f7bf 83f9 0c3d 4493 833e
00000030: fb03 3f3e 3b46 6e3d 8e5f 81bd f115 0fbc
00000040: 234a 733e ba2b 043d 2267 34bd e26e 9fbe
00000050: 3476 38bd d714 ab3d 1e6d 413e e490 50bd
00000060: b501 27be 7cee 57be a418 863e a150 193e
00000070: d6bf 7ebf 43c2 b0bf ff4f 9a3e 48fe 3e3e
00000080: c3eb c93d 58c9 9dbe 17ca 3cbf da69 5abd
00000090: 4a49 c8bc 8eee ca3e d04b 633e 5b04 8a3e
000000a0: 547a 823e f86f b3bc 4083 a53e bfdc ab3e
000000b0: d811 b83e 924b c23e 3902 123d 2151 973e
000000c0: 852a 643e cc6b 793e 2cc0 723e ce56 40bd
000000d0: 91c8 ba3e fe41 5c3e d736 a33e d2ec a63e
000000e0: b89e 663d 9fb1 9a3e 2c2f 723e 5ee2 8d3e
000000f0: 4d2d 963e 0b0b 14be 7f7d 1f3e 1575 9a3e
00000100: 2ea0 a83e d99d fb3e 1980 a73e 6ed8 703e
00000110: fb69 5b3e 7ecc 5f3e 2798 333e c89b 0fbd
00000120: ff09 823c 12a0 a33c 9b49 5bbd 0bd7 40bd
00000130: 4c5f 8dbd 8bb9 3a3d 5af9 933d 8dbb bd3d
00000140: 79de 0e3e 1a7b 173e 4b94 3f3e 5a90 1e3d
00000150: 8394 873d a511 1d3e b2fc c03d 7906 de3d
00000160: bd19 4f3b d943 293f 8b8c 4fbf 6c6a 7dbe
00000170: aa91 d4be b2a6 19c0 b94e 7c3c 7128 393d
00000180: 0b95 d03c dc30 113d a7b4 833d dc46 963d
00000190: 0d68 d2bb 4c50 f6bd 9ce8 8fbe b062 cfbe
000001a0: 31bb 133d c6dd 0b3b 6e84 493c 1bf7 4a3d
000001b0: 4b8e 1c3d 69bb 03bd c49e 4e3c 980b d43d
000001c0: 01d8 7b3d ad26 773d aad7 d23d 6e23 a739
000001d0: a463 b63c 1eb0 333c 7406 ea3c 8e4a aa3d
000001e0: 9efa 553d 0016 053d 14d5 a03c 3bfe 663d
000001f0: 547e 7a3d 44da 1b3c 6dc9 bb3d 25a0 663d
00000200: f7f5 8d3d 2abd fc3d a08e 45bd 0cc6 183e
00000210: 9e46 103e 3934 083e 7274 0f3e 0333 a9bc
00000220: 6ae9 50be 9fab 193e 05b7 0e3e 6239 953e
00000230: 573c 133f f387 083f ee17 27bf 0d64 38bf
00000240: c770 9bbf 70e8 45c0 a245 64bc 18e6 0a3b
00000250: 351b 1e3e 2506 753e e2ae 5e3e 3633 603e
00000260: c7ae 6d3d 4d87 403e a70b 2d3e 05ab 373e
00000270: ffb7 543e a4e7 0f3e c3c9 873e 733d 853e
00000280: 0f81 843e a624 833e 20f1 0b3b 4078 173e
00000290: b72d 493e 0ecb 173e 5d82 053e d1d6 253d
000002a0: dda2 c83e 0af8 b83d 66b9 2d3d 961c 9f3c
000002b0: 6b05 5dbf 3815 193f 6318 0fbd c743 cbba
000002c0: b23f a2be f038 86bf e95e 8c3e 09cc 9a3e
000002d0: 2180 8e3e dacf 6e3e 024c 3dbc bd78 8d3c
000002e0: ef6f dd3a 9de6 863d 15f7 173e 0dc3 053e
000002f0: 35aa 0d3e 11f5 3bbd 8a6d 333f 2c7f 65bf
00000300: 6242 62bf d6c5 6abf d549 29c0 b2b3 4c3d
00000310: 9805 b83d 8df5 bb3d f85b cd3d 5388 043d
00000320: f6fe 7f3d 0a37 043e 70fe b43d ea29 ed3d
00000330: 37fc 44bc d1ee 8abc 2c0f dfbc 40a8 3cbd
00000340: 55d5 17bd 9373 74bc 64ad c73c d717 333e
00000350: 1846 083e bbbe 3f3e a8b8 603e 3d33 123e
00000360: b65f d43d bc4a 0d3e c6b3 453e ee67 b33d
00000370: abc3 f7bb 48c0 d0ba 6466 a2bc 4777 b9be
00000380: b1f2 acbd 012b a8be e835 543e af32 43bf
00000390: dd23 8cbe 0726 5b3e 621f 8abf 3595 1cc0
000003a0: d8ce 98bd d51f db3c 5947 b13d cacd d8bd
000003b0: ee3a 79be d6ae 80bc 3297 9ebe af5d 9abe
000003c0: b75a 35be 64a8 85bd 21f5 95bc febc 6f3e
000003d0: 7447 ef3d 5d99 36bf 798f d3bf 43a1 493e
000003e0: 750f 96be 0ffb 81be 5dad bfbd 4bbe 14be
000003f0: 9099 13bf cf4d c33d 9c83 793e 31c4 2fbf
0.061639696 0.15798143 0.22742441 0.09597057 -0.010523285 0.13230139 -0.07151228 0.2675825
-0.63741136 -1.9356372 0.03441764 0.25698292 0.18653862 0.058172446 -0.06317054 -0.008733259
0.2375875 0.032268263 -0.044043668 -0.31139284 -0.045034602 0.08353584 0.18889281 -0.05091943
-0.16309245 -0.21087068 0.26190674 0.14972164 -0.9951147 -1.3809284 0.30139157 0.18651688
0.09859421 -0.30817676 -0.73745865 -0.053323604 -0.02444901 0.39635128 0.22196889 0.26956448
0.25483954 -0.021903977 0.32326698 0.33566853 0.35951114 0.3794828 0.03564665 0.29554084
0.22281845 0.24357527 0.2370612 -0.046957783 0.36481145 0.21509549 0.31877777 0.32602555
0.05630371 0.3021364 0.23650807 0.27711767 0.29331437 -0.14457338 0.15575217 0.30167452
0.32934707 0.49143866 0.32714918 0.23520061 0.21427147 0.21855351 0.1753851 -0.035060674
0.015873907 0.019973788 -0.053536993 -0.04708008 -0.06902942 0.045587104 0.072252944 0.09264288
0.13952054 0.14793053 0.18708913 0.038711883 0.06620123 0.15338762 0.09423198 0.10841078
0.0031601035 0.6611915 -0.81073827 -0.24747628 -0.41517383 -2.4007993 0.015399628 0.045204584
0.025461694 0.035446987 0.06430941 0.07337734 -0.006421095 -0.12027034 -0.28107154 -0.4050498
0.03606719 0.0021341904 0.01229964 0.049552064 0.03822164 -0.03216115 0.012611095 0.10353774
0.061485294 0.06033962 0.10295041 0.0003187912 0.02226431 0.010967283 0.02856753 0.083150014
0.05224096 0.032491684 0.019632854 0.056394797 0.061155632 0.009512488 0.09169278 0.05630507
0.0693168 0.12340768 -0.04823172 0.14919299 0.14089438 0.13301171 0.14009264 -0.020654207
-0.2040154 0.15006875 0.13937004 0.29145342 0.57513946 0.5333244 -0.6527089 -0.72027665
-1.2143792 -3.0923119 -0.013932617 0.0021194275 0.15440066 0.23928125 0.217464 0.21894535
0.05802801 0.18801613 0.16898976 0.17936333 0.20773314 0.14053208 0.2652112 0.26023445
0.25879714 0.25613898 0.0021353438 0.14791965 0.19646345 0.14823553 0.13038011 0.040488068
0.39186755 0.09031685 0.042413138 0.01942281 -0.8633639 0.59798 -0.034935366 -0.001550787
-0.3168922 -1.0486126 0.2741616 0.3023379 0.2783213 0.23321477 -0.011553766 0.017269487
0.0016894321 0.06586955 0.14840348 0.13062687 0.1383446 -0.04588801 0.7008902 -0.89647174
-0.8838254 -0.91708124 -2.6451313 0.04997606 0.08985442 0.091776945 0.10027307 0.03235657
0.06249901 0.1291162 0.088375926 0.1158026 -0.012023023 -0.01695958 -0.027228914 -0.046058893
-0.037068684 -0.014920133 0.024374671 0.17489563 0.13307989 0.18725102 0.21945441 0.14277358
0.10369818 0.1379804 0.1930686 0.087600574 -0.0075611672 -0.0015926445 -0.019824214 -0.36223814
-0.08444727 -0.3284531 0.20723689 -0.7624921 -0.27371112 0.21401225 -1.0790827 -2.4466069
-0.07461327 0.026748577 0.086561866 -0.10586126 -0.24338886 -0.015708368 -0.30974728 -0.301496
-0.17710386 -0.065262586 -0.018305363 0.23411939 0.116835505 -0.71327764 -1.6528159 0.19690423
-0.29308668 -0.25386855 -0.09359238 -0.14525716 -0.5765619 0.09536325 0.24366611 -0.6865874

fc_layers.0.bias f4 [8]
00000000: a08b f33d 2cc4 d53e 9de0 143c 22b2 873d
00000010: e77f c23e f0e7 003e 9e09 323d adc0 363e
0.11891866 0.4175123 0.009086755 0.06625773 0.37988207 0.12588477 0.043466203 0.17846937

fc_layers.1.weight f4 [8, 8]
00000000: a8d7 623e ff94 773e 98ed bd3c cddf 7bbf
00000010: 3a9b 93be 5a52 3d3f 0d4b b13e d73f cabd
00000020: 73fd 0dbe 4f64 ef3e d2d9 893e 73a1 313f
00000030: 52ab 283f 0e79 0d3f 9664 6dbe 2f57 bc3e
00000040: 6e4d e3be 7a41 cc3d c138 413d 4508 183f
00000050: f426 9a3e 6aba 7ebe 6398 6bbf 6417 413d
00000060: 482d eabe fa76 193e 2724 383f cdf9 2fbf
00000070: b0e8 b9be c784 90bf 23ac ff3e ce1e 0fbe
00000080: 7453 4bbd a94f 173e 1087 7fbe c3f8 cebe
00000090: 1110 b83e 1c97 7bbe 67f7 6dbe 6499 95bf
000000a0: 2fac bd3e 3ae2 593e 79f1 09bc 263c 81be
000000b0: f3a6 24be eb12 2cc0 1548 87be ab7f 71bd
000000c0: 7c2a 1d3e 22fb 783b 7a09 debe a83b 113f
000000d0: 49f2 91bc 8910 f73e 1502 f43d 05d3 4e3e
000000e0: 9c69 07be ee1f 4ebe eb32 a3be 905f 813c
000000f0: 6a6e 203e a848 a03d a42f 8f3d 6548 89be
0.22152579 0.24177931 0.023184583 -0.9838837 -0.28829366 0.73953784 0.34627572 -0.09875458
-0.13866214 0.46756217 0.26923996 0.69386977 0.65886414 0.5526284 -0.23182902 0.36785266
-0.44395012 0.09973426 0.047173265 0.5938762 0.30107844 -0.24875799 -0.920294 0.047141448
-0.45737672 0.14986792 0.71930164 -0.6874054 -0.3631034 -1.129052 0.49936017 -0.13976595
-0.049640134 0.14776482 -0.24953866 -0.40424165 0.35949758 -0.24569362 -0.23238908 -1.1687436
0.37045428 0.21277705 -0.008419388 -0.25241202 -0.16079311 -2.6886547 -0.26422182 -0.058959644
0.15348238 0.0037991484 -0.43366605 0.56731653 -0.017815726 0.48254803 0.119144596 0.20197685
-0.1322388 -0.20129368 -0.31874785 0.015792638 0.1566712 0.07826358 0.069915086 -0.26813045

fc_layers.1.bias f4 [8]
00000000: 9b13 b3bd 1f6f 1a3f 0729 6e3f cda9 953e
00000010: 559a ba3d 488b 8fbd 20bb 5abe eba7 2ebe
-0.08743974 0.6032581 0.9303135 0.2923111 0.09111468 -0.07008988 -0.21360445 -0.17056243

fc_layers.2.weight f4 [4, 8]
00000000: 68e9 3f3f b98e cb3e 5da8 2c3f 62a4 393f
00000010: e7dd b93d 7454 efbe af00 7d3e cf2f 993e
00000020: 19fd 033f 65e9 ef3e 66e3 a53e c6ea 973e
00000030: d2f8 b73e ea08 c9be bf00 3c3e 0be5 16be
00000040: 0d14 b33e 2884 fe3e 42ed e13e 15ce 173e
00000050: c48f 903f 0700 bc3e 9bf4 393e 5528 27be
00000060: 23d7 103f a050 183f 0aa6 db3e a827 813f
00000070: 1c02 2cbd 9be4 443c fd58 f1bd 580f 2dbe
0.74965525 0.39757326 0.674444 0.72516453 0.09075528 -0.4674412 0.24707292 0.29919288
0.5155807 0.46857753 0.32400054 0.29671305 0.35932022 -0.39264613 0.1835966 -0.1473581
0.34976235 0.49710202 0.44126326 0.14824708 1.1293874 0.3671877 0.18159716 -0.16323979
0.5657827 0.59498024 0.42900115 1.0090227 -0.0419942 0.012017394 -0.11784551 -0.16900384

fc_layers.2.bias f4 [4]
00000000: 2aca dd3e 83c6 393f e87d be3e 32fd 8c3d
0.433183 0.7256853 0.37205434 0.06884231
