param1_ddqn_fully_trained.pth (torch, 29335 bytes, 6 tensors)

fc_layers.0.weight f4 [64, 37]
00000000: 5ac5 173e 0aee 3b3e 2a32 df3c eaf8 193e
00000010: 5de1 b13d 9d83 aebc 50c6 ba3d da00 8a3d
00000020: 84ef f53d 0bb6 0c3e b24b 983d c2d6 a23d
00000030: 0e1c eb3d 05bb 9d3d aca0 a03d e1ed 3bbd
00000040: 1e82 7a3d e5fa 76bc 7fb0 6c3e 7d41 4c3e
00000050: c76f 5bbd 2f53 df3c 7c03 923d 943e 39bd
00000060: c65c cdbb 1d67 593e e8b4 b6be 985f 2bbf
00000070: d65b 44bf 3b5c 1cc0 05b3 95bc 2948 d93d
00000080: f788 1e3e ce4f 313e 89fd 4a3e cf0d 0fbd
00000090: 7226 44bb 18e8 5d3b 8bba bc3b 74a5 3d3d
000000a0: 70fc ea3d b2a7 b1bd b549 b63d bf66 6ebc
000000b0: 309f 203e 9556 a73d d577 2d3c 8e7b c93e
000000c0: 9829 44bf da56 51be e7a6 0fbf e793 cabf
000000d0: 93b0 d13a 56c3 803d 9b20 85bc dcf4 113d
000000e0: 46b2 d73c ffee 453d 2708 733d 72fe e1bc
000000f0: a4b7 55bc 6aab 1c3c e0d8 303e 2b07 cdbd
00000100: 627d ecbd 0917 c83d e88a 8e3e e69c 713d
00000110: 914e adbd 7193 8cbe b4c3 163e 370a 453e
00000120: 078c 4a3c 2956 75bc f83a 71be 2e43 abbd
00000130: 568d 05be 79d6 58be 0070 0abe 4b03 bdbd
00000140: 0801 423e 4a59 95bc ad94 2fbe 9aad 6fbe
00000150: 4822 4bbb 20d9 a5bd 1a52 d83d 414d 06bd
00000160: 84a3 23bf 0ff8 25bf e2d8 173e b83a 903e
00000170: 50c8 70be b9c7 b5be ea49 a2be 1f6a ab3c
00000180: 737d 653e b70a bfbe 8986 37bf e30c c1be
00000190: b432 75be 81a4 3b3e 0927 50bd 2a1d 07bf
000001a0: 36c1 a8be 67ca 05be 514c 2c3e 420e fbbe
000001b0: 95d8 85bf c887 81bd 7626 a53d 3b00 0bbe
000001c0: a99a cb3d 9138 b7bc e141 45bd 2157 b3be
000001d0: 55c5 4f3d a3f4 0ebf 98e9 613e ec4b 28bf
000001e0: 0e6d 2cc0 6d03 30bd f0e4 c13b 6acd fbbd
000001f0: 3826 18be 8886 273d 35f5 ff3d fde4 03bd
00000200: ed36 2bbd a142 6dbd 2c6e 1f3e b6fb 833c
00000210: 541c f6bd 2c59 913d 77d9 373e c183 89be
00000220: a76d e1bd b8c6 3abe be1a fa3d 3083 eabe
00000230: 38e5 23be 9fb8 68be e759 243e 8857 db3d
00000240: 1df3 f9bd 4f31 5dbf d837 05be bfa0 213d
00000250: fcb3 a63c 8172 a4bd cfc9 763d 6cb9 c43d
00000260: f244 dfbc 6582 0fbd 9c1a 91bb 61ec d43d
00000270: c58b 663c ee52 033e 5e7b 903d 0e31 193e
00000280: 84d3 0b3d f7d6 dbbd 8da7 013e 0354 1ebe
00000290: f471 b1bd aa5f 7dbc 0a14 df3d a54f 96bd
000002a0: 44e0 1ebd 84cd 04be 0d2d 053d 2ca3 8a3c
000002b0: fbb7 e5bc 3ced f6bd 15a1 cb3d f3c4 adbe
000002c0: 1f5a aabd d3be b4bc d11d 063e d8d8 cc3d
000002d0: 18dd 93bc 5dfe 7bbe 0d6d ddbe b67f c0be
000002e0: 6b78 4c3d 9c6c 003e 96b5 873d f37e 2bbe
000002f0: 611e 283e 2466 58bd 6dc3 2a3e 1027 65bf
00000300: 4ca1 333e b743 babe a78f 16c0 6774 c43d
00000310: d27e 34bd 5cc9 9cbd 73eb 4dbd 695a 343d
00000320: 7537 a4be be18 a83e e27a 4c3e fa6f 9dbe
00000330: b365 65bf 8b10 a4bc 7dee 40bd 9880 80be
00000340: 99dd 77bd e237 a43e a4e6 45bd 2a0b bf3e
00000350: 8d2b 133e de89 75be d72c 24bf 1122 3d3d
00000360: 35ec b53e ddf5 10bd aec5 3dbd e564 dabd
00000370: b177 653d 5902 4f3a 432b ad3b 4144 a8bd
00000380: bf6b cf3d 957f 563c 4f06 9ebd 4ff0 a03e
00000390: 4dc1 a1be 58be 4cbf 95f6 28bf 0cdd 13c0
000003a0: efd2 053e 09c8 0b3e 0c30 b33d ec31 6b3e
000003b0: 100d a9bb 8296 98bd b831 353c 91f2 f3bc
000003c0: 8266 98bd 506a a3bd 2748 6c3d 1617 77bd
000003d0: 35c1 dfbd 0640 893d 2808 823c 4bd9 1f3d
000003e0: a605 993e 4665 953d 806a a93d 36ad 1a3b
000003f0: 63ec cdbc c113 0f3c 8a3a efbd acd8 793e
0.14821377 0.18352523 0.0272456 0.1503636 0.08685563 -0.021302992 0.09119856 0.06738444
0.120085746 0.13741319 0.07436313 0.07951118 0.114799604 0.07701687 0.07843146 -0.045881156
0.061159246 -0.015074466 0.23114203 0.19946857 -0.053573396 0.027261345 0.07129571 -0.045225695
-0.006267163 0.21230741 -0.35684896 -0.6694274 -0.7670263 -2.4431293 -0.01827384 0.106094666
0.15481935 0.173156 0.19823278 -0.03492528 -0.0029930142 0.0033860262 0.0057595423 0.046300367
0.1147393 -0.086745635 0.08900777 -0.014550864 0.15685725 0.08170811 0.010587652 0.39352077
-0.7662597 -0.20443287 -0.5611405 -1.5826386 0.0015998058 0.062872574 -0.016250899 0.035633907
0.026330125 0.048323628 0.059333947 -0.02758715 -0.013044272 0.009562353 0.17270231 -0.10011133
-0.115473524 0.097700186 0.27840352 0.05898752 -0.08462251 -0.2745624 0.14723092 0.19242178
0.012362487 -0.014974155 -0.23557651 -0.08362423 -0.13042197 -0.21175565 -0.13519287 -0.09229144
0.18945706 -0.018231053 -0.17146559 -0.23406067 -0.0030995775 -0.08098054 0.10562535 -0.03278852
-0.6392138 -0.6483163 0.14828828 0.281698 -0.23513913 -0.3550394 -0.31697017 0.020924626
0.22411136 -0.37312862 -0.7168966 -0.37705144 -0.23945123 0.18324472 -0.050818477 -0.52778876
-0.32959908 -0.13065492 0.16825987 -0.49034315 -1.045672 -0.06324726 0.080639765 -0.13574307
0.099416085 -0.02236584 -0.04815853 -0.35027412 0.0507253 -0.55842036 0.22061765 -0.6574085
-2.6941562 -0.042972017 0.005917184 -0.12295039 -0.1485833 0.040899783 0.124979414 -0.032200802
-0.04180043 -0.05792487 0.15569371 0.016111236 -0.12017122 0.07097086 0.1795405 -0.26858333
-0.11007243 -0.18239868 0.12212132 -0.45803213 -0.16005409 -0.22726677 0.1604992 0.10710055
-0.12204573 -0.86403364 -0.13009584 0.03945994 0.020349495 -0.080296524 0.060251053 0.09605679
-0.027254555 -0.035036463 -0.004428221 0.10396648 0.01407141 0.12824604 0.070547804 0.14960119
0.034137264 -0.10734361 0.12661572 -0.15461735 -0.08664313 -0.015464703 0.10892494 -0.0733941
-0.038788095 -0.12969023 0.032513667 0.01692351 -0.02804183 -0.120569676 0.09942833 -0.33939323
-0.083179705 -0.022063648 0.13097312 0.10002297 -0.018049762 -0.2460875 -0.43247262 -0.37597436
0.049919527 0.12541431 0.06626432 -0.16747646 0.16417839 -0.052831784 0.16676112 -0.8951273
0.17541999 -0.36379787 -2.3525178 0.095925145 -0.044066258 -0.07655594 -0.05027337 0.044031534
-0.3207356 0.32831377 0.19968751 -0.30749494 -0.89608306 -0.02002742 -0.04710244 -0.2509811
-0.060514066 0.32073885 -0.04831566 0.37313205 0.14372082 -0.23978373 -0.6413092 0.046175066
0.35531774 -0.035390723 -0.0463311 -0.10663775 0.05602235 0.0007896773 0.005284698 -0.082161434
0.10127973 0.013091941 -0.07716047 0.3143334 -0.3159279 -0.7997794 -0.66001254 -2.3103666
0.13068746 0.13650526 0.087493986 0.22968262 -0.005159028 -0.07450582 0.011059217 -0.02977875
-0.07441427 -0.07979262 0.057685997 -0.06032475 -0.10925523 0.067016646 0.01587303 0.039025586
0.29887122 0.07294707 0.082722664 0.0023601777 -0.025137132 0.008732737 -0.11681087 0.2439906

fc_layers.0.bias f4 [64]
00000000: 2b6c 0dbe fee8 6f3d 0ec1 e23d acc7 1a3e
00000010: 7c52 1fbe d2e2 113d d2c9 a23c f443 b2bc
00000020: 4d0e 82be 4406 2b3e 8a3b c3bc 5c91 5fbc
00000030: 14aa afbc 9924 41be 9ef7 62be dba4 a8bd
00000040: a607 a7bd 885f 053d d167 e73d ee3b 15be
00000050: 5e32 d53d 0878 aabc 5f21 5a3b 2da5 4d3e
00000060: 535e afbd ec42 41be 6eb9 e1bd 00ea a0bd
00000070: d000 403e 711a 383e c429 7cbd dc6d 0dbe
00000080: 5e26 58be ac35 d8bd 2428 14bd 5208 8bb9
00000090: e511 c4bd 76ac 823c d75c 833e baa5 d8bd
000000a0: e8f8 4fbe 0cfb 08bd 167b d0bd 7aa1 81bd
000000b0: b301 2a3e 3a1e 82bd 7909 e3bd 0a25 893d
000000c0: c414 81be 8be8 e53d 9f44 d6bc bdf9 e83d
000000d0: a6c0 38bd b799 523c bc76 5b3c 22b9 5f3e
000000e0: cd5c 443e 05ff c83e 9939 13be 6858 0d3d
000000f0: 230a 953c 2fc1 37bd 2016 34bc 3923 cebe
-0.13810794 0.058571808 0.110719785 0.15115231 -0.15558809 0.035616703 0.019871626 -0.021760918
-0.25401536 0.16701609 -0.023832101 -0.013645496 -0.021443404 -0.18861617 -0.22164771 -0.08234569
-0.08155756 0.03256181 0.11299098 -0.14573643 0.104099974 -0.020809188 0.003328405 0.20082541
-0.08562913 -0.18873185 -0.11021696 -0.07857132 0.1875031 0.17978837 -0.06156327 -0.1381144
-0.21108386 -0.10557112 -0.036171094 -0.00026518345 -0.095737256 0.015951376 0.2565677 -0.10578485
-0.20309794 -0.033442542 -0.10179727 -0.06329627 0.1660221 -0.063534215 -0.11085791 0.06696518
-0.25211155 0.11225995 -0.026155768 0.11375759 -0.0451056 0.012854031 0.013395008 0.21847966
0.19176026 0.39257064 -0.1437744 0.03450814 0.01819331 -0.04486197 -0.010991603 -0.40261248

fc_layers.1.weight f4 [64, 64]
00000000: 242d a0bd 7800 493e 7a3b 0fbd 4cdf a13d
00000010: 82ba 743d eca6 dd3c 77e5 443e ae25 c8bd
00000020: 652e 38be 053f bf3d 97d3 463e 662b d5bd
00000030: 39e6 773c 2004 76bd fb3b 843d 9d64 a53d
00000040: d980 723c b33e 7bbd 1a52 8b3d f30f 423a
00000050: 9ec9 de3d 7c60 543e 2caf ebbb 4009 4d3e
00000060: 9553 b33d 0417 dcbc c77a e83c 57d2 1cbd
00000070: 2edb 3a3e 7b60 b2bd c6f6 c3bd f9a0 af3c
00000080: 1e24 a5bd 6085 21bd adae 9c3e c0a2 c0bb
00000090: 815e c6bb 6abf e5be f5f9 0d3e 234c 253d
000000a0: 6998 63bc 2f7e 863d 9d8b ae3c c9d0 0abe
000000b0: d9f4 ab3d 05f6 df3d c5b4 fd3d 52ad af3d
000000c0: dbe9 cdbc c8a4 f4bc b65a 023e 8b3c 29bb
000000d0: 6212 753d 42c9 493c 9672 e5bd ca43 9c3e
000000e0: 1ce8 803e b20f 883e fb76 2dbe 8be7 7a3e
000000f0: b116 d7bd 2369 c4bc de2a 243d 9b77 bdbd
00000100: 72f0 023e 354a 5d3d cc20 a6bc 0536 4abe
00000110: 55e2 073d 3797 bdbe be75 3dbe ef8f a23d
00000120: f54f 9f3c 0d0d 5ebe adba 293e 9c08 5ebe
00000130: 99aa 8abe 05d2 2abe 1cab 7ebd ec75 49be
00000140: f28f d13e 78d2 903d ed58 d23d 5414 59be
00000150: cad8 66be 56ca 093f 74f5 cc3b 05a6 e3bd
00000160: c0b1 8dbc 8253 6dbc 751b 053e c4fb 473e
00000170: c3d0 29be 2e91 153d b689 c9bd 96b8 cdbc
00000180: 1887 cabd 4c6d 343e 2a2c 37bd eac1 61be
00000190: fe1c 1ebd 4a07 bbbe 7747 a93c f0ec 9dbe
000001a0: 8a55 babd 93ea 3abd 0bd9 eb3c 4767 9f3e
000001b0: 783c 743e a627 adbe bdab 3abe b414 233e
000001c0: b04c 033e 8f15 03be 98c2 ba3d 745d 0c3d
000001d0: 12b8 65be f328 40bd e516 823e 66b2 92be
000001e0: 4b3a 8f3e 0089 883d ab4a 743e 3aaf 823d
000001f0: bb1c 613e c38a 323e 1d4b 30bc 74a0 f7bd
00000200: 47ca 26bf 96d5 ea3d 92a6 f03d 5a97 dd3c
00000210: 705e e2bd 0e3b f13d 474d a63c b6d1 963e
00000220: 896b fe3d 7290 273e fc9f 3d3e ee29 3e3e
00000230: 97e5 4ebd 6c8d 903e 4ae0 21bd d774 013d
00000240: d7f2 653e 03d3 6a3e e416 833e 08a3 6f3d
00000250: 6261 d4bd 5821 ba3d f979 c0bd 4793 94be
00000260: 03c3 113d 28d0 4c3e 6429 49be d2ad fb3d
00000270: a49f 9239 fd87 733d 34ba e8bd 24be f93d
00000280: 5694 ec3d ce0b 45be c9d0 05be faa7 2e3e
00000290: 96aa e23d 745c f5be a575 3e3e bd19 94bd
000002a0: 875f 05be 0a85 01be 5b64 74be a070 abbd
000002b0: 9c50 27be 5bb3 053c e8bf 213d 8133 04bc
000002c0: d0d2 83bd 9fe7 543d 85ce e6bc c9be 003e
000002d0: 55b2 f9bd effd 18bf be1e c5be a2c6 953e
000002e0: 7e99 93bd ea88 a2bd b6e4 f73d be3e bbbe
000002f0: d06b e93c 8854 563e cd24 133d 6d87 1ebe
00000300: ee08 643d ec28 533e 5d4b 563a ce62 dd3e
00000310: 3942 243e 5dee 1e3e 103f 78bc 1a23 a53e
00000320: 0962 183e cb1e 13be 9036 493e 82e7 57bd
00000330: abf6 843e 21c4 043e 7432 cd3e 8b2f 3e3e
00000340: ce7b 40bd f6b8 6ebc 9e66 8b3e bda3 1ebf
00000350: 7408 c93d 9b68 1bbe 0b72 3f3e d1c0 07be
00000360: 3a7d 97be 0ca6 e03d b264 2abd 2a24 453e
00000370: 9a47 b9bd 2f84 a0be 3d23 373d 5e76 6abe
00000380: 404f 3b3e 100b b4bd 4f3b 863e 93c5 dc3e
00000390: 7118 9fbe 2fa1 8fbd 7c3b 00bf 3bf2 ddbd
000003a0: ff03 21be b6a8 19be 2b7a bf3d 9784 e73e
000003b0: 7f5f ca3d 2ebb 49be 8b9d 2ebd 27de 6fbe
000003c0: 38a3 ddbd 8454 c43d 2eed bdbe 00e9 ea3d
000003d0: d634 313d 842b f9bd a755 f33d 4058 ddbd
000003e0: bc56 473e befc 9cbd 791d 823e 8c3f df3c
000003f0: 8a0a 79be 6acd c83d 82bc 4bbf cfb4 7ebe
-0.0782111 0.19629085 -0.03496883 0.079039186 0.05974818 0.027057134 0.19228159 -0.09772812
-0.17986448 0.09338192 0.19416653 -0.10408668 0.015130573 -0.060062528 0.06456753 0.08075831
0.0148012275 -0.06133909 0.06802769 0.00074028893 0.10878299 0.20739931 -0.007192513 0.2002306
0.087561764 -0.026866443 0.028378857 -0.038286533 0.18247673 -0.087098084 -0.09568553 0.021439062
-0.080635294 -0.039433837 0.30602017 -0.0058787763 -0.006053746 -0.448726 0.13864882 0.040355813
-0.013891318 0.06567036 0.021306807 -0.13556208 0.0839631 0.109355964 0.12387995 0.0857798
-0.025135925 -0.02986373 0.12729916 -0.002582344 0.059831984 0.01231605 -0.11203496 0.3052047
0.25177085 0.26574475 -0.16939919 0.24502389 -0.10502375 -0.023975914 0.040079944 -0.092513286
0.12787035 0.054025847 -0.02027931 -0.1974717 0.03317483 -0.3702943 -0.18501946 0.079376094
0.019447306 -0.21684666 0.16575117 -0.21682972 -0.2708328 -0.16681679 -0.0621749 -0.1967389
0.40930134 0.07071394 0.102708675 -0.21199161 -0.22543636 0.53824365 0.006254846 -0.1111565
-0.017296672 -0.014485242 0.12998755 0.19529635 -0.16583543 0.036515407 -0.098407194 -0.025112431
-0.09889048 0.17619818 -0.044719853 -0.22046629 -0.038601868 -0.36529 0.02066396 -0.3084483
-0.090983465 -0.045633864 0.028790018 0.31133482 0.23851192 -0.33819312 -0.18229575 0.15925866
0.12822223 -0.12801193 0.09119147 0.03426881 -0.22433499 -0.046914052 0.25408092 -0.28651732
0.27974162 0.06666756 0.23856609 0.06381078 0.21983616 0.17435746 -0.010760096 -0.12091151
-0.651524 0.114665195 0.11750521 0.02704971 -0.11053169 0.11778842 0.02030052 0.29456872
0.124228545 0.16363695 0.1851806 0.18570682 -0.050511923 0.28232896 -0.03952054 0.031605568
0.22455917 0.22932057 0.25603402 0.058505088 -0.10370137 0.09088391 -0.093982644 -0.29018614
0.03558637 0.2000128 -0.19644696 0.12289013 0.00027966232 0.05945586 -0.113636404 0.121944696
0.1155173 -0.19242784 -0.13067926 0.17056265 0.11067693 -0.479221 0.18599565 -0.07231472
-0.13024722 -0.12648407 -0.23866408 -0.08371091 -0.16339344 0.008160437 0.039489657 -0.00806892
-0.06436694 0.051978704 -0.028174648 0.12572779 -0.12192217 -0.5976247 -0.38500017 0.29253107
-0.07207011 -0.079362705 0.1210417 -0.36571306 0.028493792 0.20930684 0.035923768 -0.15481348
0.05567258 0.20621079 0.0008174682 0.43239444 0.16040887 0.15520616 -0.015151754 0.32253343
0.14881147 -0.14367215 0.1964972 -0.052711017 0.25969443 0.12965442 0.40077555 0.18572824
-0.04699307 -0.014570465 0.27226728 -0.61968595 0.098160654 -0.15176623 0.18695848 -0.13257147
-0.29587728 0.10969171 -0.041599937 0.19252077 -0.0904686 -0.31350848 0.04471134 -0.22896716
0.1829195 -0.087911725 0.26217124 0.43119487 -0.31073335 -0.07013165 -0.50090766 -0.108372174
-0.1572418 -0.15005764 0.093494736 0.45218346 0.09881496 -0.1970031 -0.042630713 -0.23424588
-0.10822147 0.095864326 -0.37095016 0.114702225 0.04326328 -0.12166503 0.11881571 -0.10807848
0.1946668 -0.07665394 0.2541311 0.027251981 -0.24320427 0.098048046 -0.79584515 -0.2487366

fc_layers.1.bias f4 [64]
00000000: e743 643f ad0d 723e 146e 083e e37e ad3c
00000010: 4026 7dbe 5cdb 153f eb2d 823d 34f8 eeba
00000020: 98f8 9d3e 2a67 8f3c a8e8 b1be c4be be3c
00000030: 45a9 6d3d 89cb f7bc 3c03 17be f361 893c
00000040: b370 33bd ef0a 463f b32c a73d 033e 213e
00000050: 771f acbe 571c af3d d5a2 35be 171c 693f
00000060: 14ad 603f fd07 973d 4b94 8d3d 020a 5a3e
00000070: 7f74 26be 1d80 a3be aeae 79bd a43e 483e
00000080: 2f9e 3bbd d0d7 6e3e 1ee0 963d af01 1abe
00000090: a5d0 443f b079 473d 4033 0c3e 5dfa d1bd
000000a0: 8e50 3f3e a8c6 113e 79a0 b7ba dc14 993e
000000b0: b076 51bc 58d2 f83d e718 ae3d 6643 7a3e
000000c0: 8697 5ebe 3885 ad3c 012b 1cbe b96d 31bd
000000d0: 52bc 16be fc90 a7bc 1a87 463c b474 b53d
000000e0: d70f 643d ab2e a8bd e1a9 be3e 8d8a 993d
000000f0: 313c c03d bb1d 77bd 7a09 6a3b e650 533e
0.8916611 0.2363803 0.13323241 0.021178668 -0.24721622 0.5853784 0.063564144 -0.0018231929
0.30853724 0.017505247 -0.34747815 0.023284324 0.058022756 -0.03024842 -0.14747328 0.016770339
-0.04380865 0.77360433 0.081628226 0.15746312 -0.33617756 0.08550327 -0.17737897 0.91058487
0.87764096 0.073745705 0.0691305 0.2129288 -0.16255377 -0.3193368 -0.060957603 0.19555146
-0.045805153 0.23324513 0.07366966 -0.15039705 0.76880866 0.048700035 0.13691425 -0.10252831
0.18683073 0.14235938 -0.0014009617 0.29898727 -0.012784645 0.12149495 0.085008435 0.24439773
-0.21737489 0.021181688 -0.1525078 -0.04331753 -0.14720276 -0.020454876 0.012117172 0.0886015
0.05567917 -0.08212026 0.37238982 0.074971296 0.093864806 -0.060331088 0.0035711215 0.20636329

fc_layers.2.weight f4 [4, 64]
00000000: 53e6 b13e e655 cd3d dbc6 bf3d 691a 1f3e
00000010: 00fa dbbe 7460 3a3e cf10 043d 5bdd 91bd
00000020: 0158 193e 71f0 8dbe a22a f1bd c22d 363d
00000030: b6dd 3a3e 7c3c f43e f4ea c3bd 5f9e 083f
00000040: 7e7c 85bd df8d 763e 579a 183e 34bf d13e
00000050: 7505 acbd a324 b33e cdab 84be f45d 8c3e
00000060: 943a 723e 39ca 193e 38fc 463e 8924 153e
00000070: b64a a2be f519 63be 498c 973d 6838 913e
00000080: 16b5 2a3e 9f7d fe3c 0f0d 283e 30ec ecbe
00000090: ec06 803e b110 90bc 8c97 693e b42e 1abe
000000a0: 40b9 d63d b657 a5b9 c41b 35be a9a0 193e
000000b0: 8135 983e 9444 363d 5a4a 923d 6084 933e
000000c0: ff52 95bd 239c a7be 75b3 08be e232 283e
000000d0: 255b acbc 062b cb3e 5ae9 45bf 23ab 21bd
000000e0: 98b9 4e3e 32ad 93be a9d4 273e f5b1 7a3e
000000f0: 7df3 d23e 372e 9d3e 743d 1dbc 3f59 6f3e
00000100: ec45 a03e 8a65 f73c f0d2 903d 399f a83d
00000110: e03e a3be 3e6f 713e 143a dbbd 95e7 16be
00000120: 6516 093e 71a8 8ebe 02a0 80be f55b cd3d
00000130: 17c3 f0bc 4412 283e ed79 67bd 0825 343d
00000140: 1030 71bd 5150 7e3e b8c7 2c3e 005f 663e
00000150: adc3 c3bd 54c9 583e 70d3 75bc 3d50 593e
00000160: 9e24 9a3e 2ac4 2b3e eecc 0f3e 1b50 893e
00000170: f910 29bc 5af8 bfbe e4e8 f4be 195f 4c3e
00000180: 2883 e23e 704b 963c 9fe0 d1bc 3a73 6fbb
00000190: 03bf 6d3e 5389 903e 87d3 f33d 0eda bbbd
000001a0: ba82 eb3b ad93 093e 716d 113e f8a9 963d
000001b0: 9503 603e cbe7 313e a571 8d3d 7540 813e
000001c0: d9c9 4bbe 5d4c 1dbd 40dd fe3c d42b 4d3e
000001d0: fab9 e7bd 3c9c 22be 764d b5bd b7b0 29bd
000001e0: 1380 a73e 0495 d53e 8948 313e 1f41 0b3e
000001f0: da02 a03e 9d12 353e eb8b 823e 9778 773e
00000200: 1a3b 673e 5228 dd3d 6ffc de3d d3be 9c3e
00000210: 702b 89be ba9e 983e e96d 81be a911 633d
00000220: e0ce 833d c2fe cdbd 3af3 253e 35df eabe
00000230: d3ed d0be 6148 413f b29f 2b3e 4bc2 42be
00000240: 3105 4a3e 5856 8d3e 7e84 403d d1e1 6f3d
00000250: eff5 92bd e29b b6bd 6187 44be 5356 a83e
00000260: 7ceb 713e 9802 eabd 6e00 3b3e fd43 be3e
00000270: ab9d 603c 3776 52be 6770 8ebc 93e2 623e
00000280: 3dd6 a53d 04e7 153e 1347 f23e df26 c4bd
00000290: ddb0 7d3e e993 a8be 6f79 1b3f e9cd cabd
000002a0: fc75 08be 57e4 9f3e 5766 333e 4c07 9bbd
000002b0: 2671 5c3e 5ca0 a7bc 6e48 5e3e 1a8a ee3c
000002c0: cf57 e3be 1b3d 52be 8b89 74b9 6cef df3d
000002d0: c6b8 edbe 5e7a 9c3e f21d 1cbe a0ac 10bf
000002e0: 5baf 343f 8884 27bf 5915 563e 66f7 ad3e
000002f0: 8cb5 943e 5deb 793e 709a a43d 1f4b 973d
00000300: 1751 743e 7959 e03d e2e8 52bc 3f8d eb3d
00000310: 953f 91be de2b a43e 85ef acbe e428 843e
00000320: cfdf d9bc d9b5 e3be dd66 36be 20b3 b53d
00000330: a8e7 f93d 725c 3f3f a703 243e 6305 053f
00000340: 6cd8 8ebe ca61 6f3e aee9 d6bc 624f 863d
00000350: 3f61 ae3d a422 0d3e bb8c 29be 483d 9a3e
00000360: e489 873e 1ac4 563e 5fbc e53c c999 a53d
00000370: f850 12be 364c bdbc 144d f7be 9d56 cfbd
00000380: df40 c43e c77d 173e 4bdb a03e e9e8 a13e
00000390: afdb 853e cc34 b73c b241 e9bd 74b8 72be
000003a0: e960 283e 900f af3d bd93 ecbb 216f 0e3d
000003b0: 2b24 d43e 3204 c63e e127 493e 77ec 183e
000003c0: 6e07 99be 655a 07be 1bc5 08be c2a8 0d3f
000003d0: 2760 a6be 8bf6 7ebf 3c89 09be 9c0b ee3d
000003e0: 035b c93d 1b38 31bd 9d7b e23d a3f1 4c3e
000003f0: cb68 8dbe 9d4b 9b3e 0cec 5f3e a244 7b3e
0.34746036 0.100261495 0.093641005 0.15537418 -0.42964172 0.18200856 0.032242592 -0.07122298
0.14974977 -0.27722505 -0.1177571 0.04447723 0.18248639 0.47702396 -0.09566298 0.53366655
-0.065178856 0.24077557 0.14902626 0.4096619 -0.08399478 0.3498889 -0.25912324 0.2741543
0.23655158 0.15018548 0.19432151 0.14564718 -0.31697625 -0.2217787 0.07399804 0.28363347
0.16670641 0.03106576 0.16411231 -0.46273947 0.2500528 -0.017586084 0.22811717 -0.15056878
0.104845524 -0.00031536602 -0.17686373 0.15002693 0.2972832 0.044498995 0.07143088 0.28811932
-0.07291221 -0.3273631 -0.13349707 0.1642566 -0.021039555 0.39681262 -0.7730919 -0.03946985
0.20187986 -0.28843075 0.16389717 0.24481948 0.41201392 0.30699322 -0.009597171 0.23373888
0.31303346 0.030199785 0.07071483 0.08233494 -0.31883907 0.23577592 -0.10704437 -0.14736779
0.13387449 -0.27862886 -0.25122076 0.10027305 -0.029389901 0.16413218 -0.05651276 0.04398063
-0.058883727 0.24835326 0.16873062 0.22497177 -0.095588066 0.2117055 -0.015004024 0.21222015
0.30106062 0.1677405 0.14043018 0.26818928 -0.010318988 -0.37494165 -0.4783393 0.19958152
0.4424069 0.018346518 -0.025619803 -0.0036537186 0.23217396 0.2822977 0.1190558 -0.0917245
0.0071872147 0.1343524 0.14201905 0.07356638 0.21876366 0.17373578 0.069064416 0.2524449
-0.19901218 -0.038402904 0.03111136 0.2003625 -0.11314769 -0.15879911 -0.08852665 -0.041428294
0.327149 0.41715252 0.17312826 0.1359906 0.31252176 0.17682882 0.25497374 0.24167095
0.22581139 0.10798706 0.10887992 0.30614337 -0.26790953 0.298086 -0.25279167 0.055436764
0.06435943 -0.10058357 0.16206065 -0.45873418 -0.40806445 0.75501066 0.16760138 -0.1901943
0.19728543 0.27604938 0.047001354 0.058564965 -0.07175814 -0.08916451 -0.19192268 0.3287836
0.23624986 -0.11426276 0.18261883 0.37161246 0.013709466 -0.20552908 -0.017387582 0.22156744
0.08097503 0.14638907 0.4731985 -0.095777266 0.24774499 -0.32925346 0.6073217 -0.099025555
-0.13326257 0.31228897 0.17519508 -0.07569751 0.21527538 -0.020462207 0.21707317 0.029118586
-0.4440293 -0.20531122 -0.00023320892 0.10934338 -0.46430033 0.3056211 -0.15245798 -0.56513405
0.7058007 -0.654366 0.20906581 0.33977813 0.2904476 0.2440619 0.08037269 0.07387375
0.23859058 0.109545656 -0.012872906 0.1150155 -0.28368822 0.32064718 -0.3377649 0.25812447
-0.026595978 -0.44474676 -0.17812677 0.08872056 0.12202388 0.74750435 0.16017018 0.51961344
-0.27899492 0.23377147 -0.026234474 0.0655811 0.08514642 0.13782746 -0.1655759 0.3012488
0.2647239 0.20973244 0.028043924 0.08085973 -0.142887 -0.02310763 -0.48300993 -0.10123942
0.38330743 0.14794074 0.31417307 0.3162301 0.26144168 0.022364043 -0.113894835 -0.23703176
0.16443218 0.0854789 -0.00721976 0.03477395 0.41433844 0.38675076 0.19644119 0.14933954
-0.2988848 -0.13218077 -0.1335644 0.5533563 -0.32495233 -0.99594945 -0.13431257 0.11623308
0.09831812 -0.043266397 0.110587336 0.20014052 -0.27619013 0.30331126 0.21867388 0.245379

fc_layers.2.bias f4 [4]
00000000: dfb2 163f 2c9f 073f 6f75 0e3f d1c4 093f
0.58866686 0.5297725 0.5564794 0.53815943
