param4_solved_817.pth (torch, 3671 bytes, 6 tensors)

fc_layers.0.weight f4 [8, 37]
0	0x3d3d3201	0.046190266
1	0x3dda8742	0.1067033
2	0x3e166e78	0.14690578
3	0x3e0c5953	0.1370595
4	0x3d210e12	0.03932006
5	0x3ce0d464	0.027445026
6	0x3e0edfb6	0.13952526
7	0x3e03e6d6	0.12881026
8	0xbea4096b	-0.32038435
9	0xbfc7b548	-1.5602198
10	0x3c830478	0.015993342
11	0x3e30ff0e	0.17284796
12	0x3e0e6949	0.1390735
13	0x3e0e749a	0.13911667
14	0xbdc8191b	-0.097704135
15	0xbcd0aea6	-0.025473904
16	0x3ddd63f3	0.108100794
17	0x3e072b16	0.1320003
18	0xbcedc5db	-0.029025009
19	0xbe8a263d	-0.26982298
20	0xbc4c9543	-0.012486759
21	0x3d854501	0.06507302
22	0x3d1635b2	0.0366723
23	0xbd57e087	-0.05270436
24	0xbe196c65	-0.14982755
25	0xbe6c99a1	-0.2310548
26	0x3dcb0c02	0.099144
27	0x3e3d858b	0.18507974
28	0xbec6d4bd	-0.3883418
29	0xbf6dd2b3	-0.92899626
30	0x3e3f6bf5	0.18693526
31	0x3e1b6936	0.15176854
32	0x3e2d1bb7	0.16905104
33	0xbd9b9231	-0.07596243
34	0xbef205c7	-0.47270033
35	0x3d0a4660	0.03375852
36	0x3bbe2512	0.005802759
37	0x3ea8c842	0.32965285
38	0x3e19a615	0.15004762
39	0x3e6f80cd	0.23388977
40	0x3e80cc3a	0.25155813
41	0xbd31da1c	-0.043420896
42	0x3e9f2041	0.31079295
43	0x3e8c2f98	0.2738006
44	0x3e9ec03c	0.31006038
45	0x3e86fa51	0.2636285
46	0xbceee8a6	-0.02916367
47	0x3e4ea6aa	0.20180765
48	0x3e49141e	0.1963658
49	0x3e58c68d	0.21169491
50	0x3e597076	0.21234307
51	0x3d4c97f0	0.049949586
52	0x3ecb48df	0.39704034
53	0x3e39fd91	0.18163134
54	0x3e4060ee	0.18786976
55	0x3e64418a	0.22290626
56	0xbe1435a7	-0.14473592
57	0x3e84234f	0.25808188
58	0x3e535143	0.20636468
59	0x3e74c24f	0.23902248
60	0x3e4c79ec	0.19968385
61	0xbdceccc1	-0.100976475
62	0x3e03e335	0.12879641
63	0x3ea2c8fc	0.31793964
64	0x3e950790	0.29107332
65	0x3e813a39	0.25239733
66	0x3dfe650b	0.12421616
67	0x3e277204	0.16352087
68	0x3e2ae135	0.16687472
69	0x3e242115	0.16028245
70	0x3e4c25db	0.19936316
71	0x3c86274e	0.016376164
72	0xbc0a2c81	-0.008433462
73	0x3cfa9ea5	0.030593226
74	0xbcaf439c	-0.021394543
75	0xbda6420b	-0.081180654
76	0xbd60513e	-0.05476498
77	0xbd59b3fd	-0.053150166
78	0xbcce009f	-0.02514678
79	0x3d9e5830	0.07731664
80	0x3dbfcf62	0.09365727
81	0x3ddc14be	0.10746144
82	0x3e6ccde9	0.23125423
83	0x3e3a0582	0.18166164
84	0x3d42d30e	0.04756456
85	0x3e0b4cc8	0.13603508
86	0x3da8d40a	0.08243568
87	0x3da8430e	0.08215915
88	0xbd454981	-0.048165802
89	0x3f15261f	0.58261293
90	0xbf4f8c8b	-0.81073827
91	0xbe30a1ed	-0.1724927
92	0xbe61009c	-0.21972889
93	0xc0018280	-2.02359
94	0xbc8fa265	-0.01753349
95	0x3d01b2ea	0.031664766
96	0x3cbd0793	0.0230749
97	0x3d5f80c0	0.054566145
98	0x3e5ae862	0.2137771
99	0x3e4eb8ea	0.20187727
100	0xbca0fd23	-0.019651955
101	0xbe79f7b3	-0.24410896
102	0xbed3e9b0	-0.41389227
103	0xbf526891	-0.82190806
104	0x3c26830e	0.010163082
105	0x3c12b0d8	0.008953296
106	0xbc36d665	-0.011159514
107	0x3b3e6db8	0.0029057097
108	0xbc1a63b7	-0.009423188
109	0xbd1c9874	-0.038231328
110	0x3c975a1e	0.018475588
111	0x3d931509	0.071817465
112	0x3d7f2b07	0.062296893
113	0x3d6842c2	0.05670429
114	0x3d1f2f28	0.03886333
115	0xbc9a4109	-0.01882984
116	0xbcd7e4ad	-0.026354158
117	0xbbdfd98b	-0.006831353
118	0xbc2df14e	-0.010616614
119	0x3e0e3a90	0.13889527
120	0x3e2643c7	0.16236793
121	0xbc68a56d	-0.014199597
122	0x3ca37857	0.019954843
123	0x3cb82855	0.02248017
124	0x3d83a43b	0.06427809
125	0x3d89f924	0.06736973
126	0x3d737ebf	0.059447046
127	0x3d82acd3	0.0638062
128	0x3d781445	0.060566206
129	0x3d42b12d	0.04753225
130	0xbca6da41	-0.020367743
131	0x3ddd2a54	0.10799089
132	0x3e0aafd9	0.13543643
133	0x3df1d613	0.118084095
134	0x3dc453e1	0.09586311
135	0xbd5b3e34	-0.05352612
136	0xbd832177	-0.06402867
137	0x3d0bab3d	0.034098852
138	0x3d2845b9	0.041082118
139	0x3dd1bee1	0.102414854
140	0x3e483703	0.19552235
141	0x3ef0f4b5	0.47061697
142	0xbf3352d8	-0.70048285
143	0xbf295e08	-0.66159105
144	0xbf0cd71a	-0.5501572
145	0xc02a5a6f	-2.6617696
146	0x3920403c	0.00015282718
147	0xbaff48bd	-0.0019476634
148	0x3dfdf359	0.123999305
149	0x3e41afa8	0.18914664
150	0x3e235987	0.1595212
151	0x3e48f060	0.19622946
152	0x3d71bc28	0.05901733
153	0x3da62b6a	0.08113749
154	0x3e299967	0.16562425
155	0x3e0ad281	0.13556863
156	0x3e529df0	0.20568061
157	0x3df2256c	0.11823544
158	0x3ea11a1b	0.3146523
159	0x3e464e69	0.19365849
160	0x3e360a06	0.17777261
161	0x3e09e0d1	0.13464667
162	0xbe16c1ef	-0.14722417
163	0xbbb4d569	-0.0055186045
164	0x3e208a82	0.15677837
165	0x3e2bb257	0.1676725
166	0x3e1bafd0	0.15203786
167	0x3e3c7488	0.18403828
168	0x3eae0a8b	0.3399242
169	0xbd14cd7a	-0.03632877
170	0x3ac96d44	0.0015367647
171	0x3dceb479	0.10093016
172	0xbf3f5f88	-0.74755144
173	0x3eb7c780	0.35894394
174	0xbc9775a5	-0.018488714
175	0x3a45c656	0.0007544508
176	0xbd2b2702	-0.041785248
177	0xbea8dcc1	-0.32980922
178	0x3e8828b3	0.2659355
179	0x3e5fcfd7	0.21856628
180	0x3e515574	0.20442754
181	0x3e3739ff	0.17893218
182	0xbd12e975	-0.035867173
183	0x3b47d8de	0.0030494253
184	0xba7e47ae	-0.0009700012
185	0x3da6d731	0.08146513
186	0x3de60e21	0.112331636
187	0x3dea5b1a	0.114431575
188	0x3dd4cb12	0.10390295
189	0x3c445044	0.011982027
190	0x3f21cf7b	0.63207215
191	0xbf504637	-0.8135714
192	0xbf21c65b	-0.6319329
193	0xbf39dc63	-0.7260191
194	0xc01ea024	-2.4785242
195	0x3d34098d	0.04395442
196	0x3d8fd9e7	0.070239834
197	0x3d9eff34	0.0776352
198	0x3d79797c	0.060906872
199	0x3ba97f80	0.00517267
200	0x3d436b4f	0.04770976
201	0x3d98d1ca	0.07461889
202	0x3de1fa9e	0.110341296
203	0x3dd5c488	0.10437876
204	0x3d7255b6	0.05916377
205	0xbd306a0c	-0.043069884
206	0xbd496bbc	-0.04917501
207	0xbd5492ad	-0.051897693
208	0xbd3ecb1b	-0.046580415
209	0xbd1e66ee	-0.03867238
210	0x3daabf7d	0.08337305
211	0x3db0071b	0.08595105
212	0x3d70dcba	0.05880425
213	0x3dbcd01b	0.092193805
214	0xbc8405ee	-0.016116109
215	0x3dd711ff	0.10501479
216	0x3ddc24a6	0.10749178
217	0x3df7c7d1	0.12098659
218	0x3e55b720	0.20870638
219	0x3dde604c	0.10858211
220	0xbb965919	-0.004588258
221	0xbb8e5f08	-0.0043448247
222	0xbe8e80f5	-0.2783276
223	0xbea96aed	-0.3308939
224	0xbd0269f9	-0.031839345
225	0xbeb73e7b	-0.35789856
226	0xbdef3c85	-0.11681465
227	0xbf154aaa	-0.58317053
228	0xbe9706f7	-0.294975
229	0x3dddb43a	0.10825391
230	0xbf69700c	-0.91186595
231	0xbfc34626	-1.5255783
232	0xbe2f3e2b	-0.17113559
233	0xbd836100	-0.06414986
234	0x3e602767	0.21890031
235	0xbece3b7d	-0.4027976
236	0xbf4cb8d2	-0.79969513
237	0xbea2b0a9	-0.31775406
238	0xbe2494ea	-0.16072431
239	0x3c3cefb0	0.011531755
240	0xbf05e257	-0.5229849
241	0xbe0633b0	-0.13105655
242	0xbe69c424	-0.22828728
243	0xbe977d72	-0.29587895
244	0x3ddad604	0.106853515
245	0xbf297b64	-0.66203904
246	0xbfe4914a	-1.7856839
247	0xbdd00a1b	-0.101581775
248	0xbebcafef	-0.36852977
249	0x3e1fdf2e	0.1561248
250	0xbe805737	-0.2506654
251	0xbf0fe7db	-0.5621316
252	0xbe9e0cac	-0.30869043
253	0xbea884b3	-0.3291374
254	0x3e064451	0.13111998
255	0xbf2beac8	-0.6715512

fc_layers.0.bias f4 [8]
0	0x3ca8eae7	0.020619823
1	0x3eadea23	0.33967695
2	0x3d203d12	0.03912074
3	0x3d85b2b4	0.065282255
4	0x3ea02cc1	0.31284145
5	0x3e03a0ec	0.12854356
6	0xbd476cfd	-0.048687924
7	0x3dd89477	0.105751924

fc_layers.1.weight f4 [8, 8]
0	0xbdaeddf8	-0.08538431
1	0x3e4b5ec4	0.19860369
2	0xbd1ed46d	-0.038776804
3	0xbf6eebf7	-0.93328804
4	0xbe0863ec	-0.13319367
5	0x3f279448	0.65460634
6	0x3de713f2	0.11283101
7	0xbd5963a2	-0.053073533
8	0xbe1e2cdd	-0.15446801
9	0x3ed97ab0	0.42476416
10	0x3ed7c7f7	0.4214475
11	0x3f39a00c	0.7250984
12	0x3f116079	0.5678783
13	0x3f50f437	0.8162264
14	0xbf25d763	-0.6478178
15	0x3e7f2d0f	0.24919532
16	0xbedfec53	-0.4373499
17	0x3e0249dd	0.12723489
18	0x3e58dbde	0.21177623
19	0x3f0ef656	0.5584463
20	0x3e3c05a8	0.18361533
21	0xbe34be33	-0.1765068
22	0xbf817138	-1.0112677
23	0xbd10617c	-0.03524922
24	0xbe1bfd1c	-0.15233272
25	0x3e0e07f7	0.13870226
26	0x3f245e75	0.6420663
27	0xbf0e69c4	-0.55630136
28	0xbea4c446	-0.32180995
29	0xbf637899	-0.8885589
30	0x3e3716b1	0.1787975
31	0xbe3ae592	-0.18251637
32	0x3b18209f	0.0023212803
33	0x3dd672c5	0.10471109
34	0xbe0b3503	-0.13594441
35	0xbea40af3	-0.32039604
36	0x3ecdc512	0.40189415
37	0xbefa091e	-0.4883508
38	0xbe9a4331	-0.30129388
39	0xbf8fdbe2	-1.1238978
40	0x3e37f694	0.17965156
41	0x3e0c2d13	0.1368907
42	0xbedb2a4b	-0.42805704
43	0xbeafbebe	-0.34325212
44	0xbd894b5c	-0.06703827
45	0xbfff8ebe	-1.9965436
46	0xbd9ecb84	-0.07753661
47	0x3c47addb	0.0121874465
48	0x3d95436f	0.072882526
49	0x3d93422b	0.07190355
50	0xbf1f7af7	-0.62297004
51	0x3ebb32c2	0.36562163
52	0xbd3c328e	-0.04594665
53	0x3edfe706	0.43730944
54	0x3da0860d	0.07838068
55	0x3e92edfd	0.28697196
56	0xbe07699c	-0.1322388
57	0xbe4e1fee	-0.20129368
58	0xbea332eb	-0.31874785
59	0x3c815f90	0.015792638
60	0x3e206e6a	0.1566712
61	0x3da048a8	0.07826358
62	0x3d8f2fa4	0.069915086
63	0xbe894865	-0.26813045

fc_layers.1.bias f4 [8]
0	0xbe6522ba	-0.22376528
1	0x3ee7ca32	0.4527145
2	0x3f4bcd9f	0.7961063
3	0x3e6a3fcd	0.228759
4	0x3d1208c3	0.035652887
5	0x3c93bfc7	0.018035783
6	0xbe917e9e	-0.28416914
7	0xbe2ea7eb	-0.17056243

fc_layers.2.weight f4 [4, 8]
0	0x3f19dd15	0.6010297
1	0x3ebbf6fd	0.36711875
2	0x3f1f8248	0.6230817
3	0x3ed172af	0.4090781
4	0x3eb25f84	0.34838498
5	0xbf1460e6	-0.57960355
6	0x3ec135b3	0.37736282
7	0x3e992fcf	0.29919288
8	0x3ebaa023	0.364503
9	0x3ef4e1c9	0.4782851
10	0x3e5db56e	0.21651241
11	0x3dd7054b	0.104990564
12	0x3f0ec173	0.5576393
13	0xbed840e3	-0.42237005
14	0x3e836896	0.2566573
15	0xbe16e50b	-0.1473581
16	0xbba8d836	-0.0051527275
17	0x3f00ab80	0.5026169
18	0x3eafb028	0.34314084
19	0xbcb260ed	-0.021774733
20	0x3f956b58	1.1673384
21	0x3e5bd3ac	0.21467465
22	0x3e6248fa	0.22098151
23	0xbe272855	-0.16323979
24	0x3eb2aa8b	0.3489574
25	0x3f06d694	0.5267117
26	0x3ebf864a	0.37407142
27	0x3f7b8a05	0.98257476
28	0xbdeee3c3	-0.11664536
29	0x3e5549a0	0.20828867
30	0x3e68a0c6	0.2271758
31	0xbe2d0f58	-0.16900384

fc_layers.2.bias f4 [4]
0	0x3ea2a385	0.3176538
1	0x3ef549b7	0.47907802
2	0x3e4b66b3	0.19863395
3	0x3d767af9	0.06017587
