param3_solved_403.pth (torch, 29335 bytes, 6 tensors)

fc_layers.0.weight f4 [64, 37]
00000000: 0a5b d03d 21e1 9c3c 023f e33d b640 043e
00000010: e7a1 a5bc 5d3a d63d d88d f73d 5ed0 c3bb
00000020: 526d 98bc 038d 39be 0f73 023e 811d 9f3d
00000030: 1eb9 0f3e cc1c c43d a16b 403d 4869 8e3d
00000040: 94aa 923d 5f50 893d e239 3b3d 2979 873d
00000050: de21 0dbd b791 b4bb b2f0 85bd e471 78bd
00000060: 0d38 38bc de41 9cba 70fe 28bd 75e2 b9bc
00000070: fc75 2b3d 8fed 08bd ce69 dc3e d858 30bf
00000080: 723e c6be d7f0 a3be 5c5a 02c0 351c ad3c
00000090: 74ed 3dba 527d 843d 32ed eb3c 3a11 403d
000000a0: 021d 463c 9956 7abe 7df8 5f3c 2607 a9ba
000000b0: 7680 923e b0e8 9f3d a3bd 12be 40c1 b4bd
000000c0: e8ee dbba 378a 8b3d 554e ccbd 3ba0 60be
000000d0: b793 8cbc a7a1 5d3e a5db 6abd 1ed5 0dbe
000000e0: 34c4 bbbe a8f6 68bd dfbb 233e 6f34 c2bd
000000f0: 945c 2a3e dfd1 4b3d bfb7 253d fea6 a6bd
00000100: 7f1a a83c 4654 8d3e b946 8b3e 8a44 aebd
00000110: d8cc b4bd dad1 25be aa6b 2e3e 1813 2f3e
00000120: 841a d13d 62a6 11bc d46e b8bd ba81 07be
00000130: 383b e6bd 1873 d13d 4969 753e f974 a33e
00000140: ef44 06bf 6440 84be b257 19be 9d81 92bf
00000150: 7e30 013e 8bda 103d 9abf d73d ae40 fabd
00000160: c361 d1be ea3a 813d 75c0 b93d 1b7f 39bd
00000170: 24fe 933d f8b9 6b3d e1ed 823c 321e 313d
00000180: caec d1bb e392 f0bd 18f4 c6bd e089 1abe
00000190: 79ed 72bd 5035 943b 7692 f83d ad45 1f3b
000001a0: 9868 41bd 6c86 3e3c e9cc 78bd 2a73 90bc
000001b0: 6232 3abd 0eba 85bd b44b 0e3c 1968 9bbd
000001c0: e4b3 4bbb d7dc d9bc 1a83 403d 649b 08bd
000001d0: ddf4 843e 760b b1be 2575 87be e9a6 0dbf
000001e0: 1427 88bf 7193 abbc 15cb 90bd e172 a6bd
000001f0: 239d d5bd aa07 fb3b 1a40 8fbd 4527 75be
00000200: cb94 413e cd19 103e bbd8 fa3c 8f86 243d
00000210: b4fa 5f39 85e3 893d ba16 1abd 841b a9bd
00000220: 1148 20be 0d43 4fbd 667c 4c3d ad08 5d3d
00000230: 0146 873d c0b9 1cbd 0895 ee3c 84ea 84bd
00000240: 818e 75bd 67f5 9b3d 07ac a43d 56b6 3c3d
00000250: dc87 a6bd da1b 2a3d 5f02 873d 94ce 2d3e
00000260: b12c aebb 9326 a5bd 239e e53d ee97 c8bc
00000270: 461b b23d 9430 333e d925 413d aef9 04bc
00000280: 5f09 0e3e 1105 a23d e90e 91bd eb5a 86be
00000290: ccef 103e b757 31bc a539 563e 2c2e 273f
000002a0: 1bfd 4c3d eb90 5ebd 690d 19bd 947f 47bc
000002b0: e204 ba3d 0973 6d3d 69e1 f7bd 2719 6abd
000002c0: 77c9 43be b328 54be 7ca9 c13d ac4d 9b3c
000002d0: adc0 903d 9ac1 ff3d c610 f13d 168d e1bc
000002e0: a0b0 183d 1559 18bd 9103 ce3d 929b dd3c
000002f0: d960 cd3d 409a b13d 0488 923e 0540 34bf
00000300: a044 2fbe 7724 d8be 011d a9bf fdda 033d
00000310: 5c0c fb3d b5af ff3c a2d6 a1bd ac12 8cbd
00000320: 76d6 45bd 2641 703d a729 393d 2061 933d
00000330: 7f30 f43d c239 41bd e44c 3ebe 1c4c a3bd
00000340: c4ab 37bd b724 053d 8afa 943d cdef 523e
00000350: 888f e5bd 4577 cd3c b437 95bd 0aa2 103e
00000360: 1a28 653e 3694 1b3d 0027 263e c00c a83d
00000370: a5e4 253a 0fee fdbb 6247 86bd 3c12 d73d
00000380: 5c2f a1bd b0e6 b33c 83d6 c33c e938 33bd
00000390: b452 57bc cc7d 013c 18bb 713e 3e5b 943e
000003a0: 531a e03d 0696 4e3e 21ba 263e 908d 603e
000003b0: 693a 8a3d 31bc 79bd 74e6 97bd e739 bcbc
000003c0: bda1 373d 92f5 d3b8 cdce 053b 3698 713c
000003d0: bca5 0dbd af83 9bbd 6286 fbbd addb 1c3d
000003e0: 6b08 b63d 10a7 eb3d 5b98 283e 3878 513e
000003f0: e0cf 793e f60e 41bf 8d6c 2abf a877 42bf
0.10173614 0.019150319 0.11096002 0.1291531 -0.020218803 0.10460351 0.120876014 -0.005975767
-0.018606815 -0.18120198 0.12739204 0.07769299 0.1403546 0.09575805 0.046977643 0.069536746
0.071614414 0.06704783 0.0457095 0.06614906 -0.034456126 -0.0055105346 -0.065400496 -0.06065549
-0.011243832 -0.0011921485 -0.041258276 -0.022690991 0.041860566 -0.03342968 0.43049473 -0.68885565
-0.38719517 -0.32019684 -2.036765 0.021131614 -0.0007245161 0.064692155 0.028799627 0.04689143
0.012091877 -0.24447097 0.013670084 -0.0012895807 0.28613633 0.078080535 -0.14330153 -0.08825922
-0.0016779574 0.06813472 -0.09975878 -0.21936123 -0.01716028 0.21643697 -0.057338376 -0.13850829
-0.3667313 -0.056875855 0.15989636 -0.09482657 0.16636878 0.049760696 0.040458437 -0.0813732
0.020520447 0.27603358 0.27202395 -0.085091665 -0.08828133 -0.16193333 0.17033258 0.17097127
0.102101356 -0.008889766 -0.09005514 -0.1323308 -0.11241764 0.102270305 0.23965944 0.3192518
-0.52448934 -0.25830376 -0.1497486 -1.1445805 0.12616155 0.03536467 0.10534592 -0.12219368
-0.408949 0.06310065 0.090699114 -0.045287233 0.07226208 0.0575504 0.01598257 0.043241687
-0.0064064013 -0.117467664 -0.09714526 -0.15091658 -0.059308503 0.004522957 0.1213731 0.0024303005
-0.04721889 0.011628728 -0.060742293 -0.01763304 -0.045458205 -0.06529628 0.008685041 -0.075882144
-0.0031082565 -0.026594562 0.04700003 -0.033351317 0.25968066 -0.34579057 -0.26456562 -0.5533281
-1.0636926 -0.020944329 -0.07069985 -0.0812738 -0.10430362 0.0076608257 -0.06994648 -0.23940761
0.18904416 0.14072342 0.030620923 0.040167388 0.00021360331 0.06732849 -0.03761933 -0.08257201
-0.15652491 -0.050601054 0.049923323 0.053963352 0.06605149 -0.038263083 0.029123798 -0.06490043
-0.059950355 0.07615166 0.08040624 0.046072327 -0.08131382 0.041530468 0.06592249 0.16973335
-0.005315386 -0.08063998 0.11211803 -0.024486508 0.08696608 0.17499 0.047155235 -0.008116169
0.13870762 0.079111226 -0.07082922 -0.2624124 0.14153975 -0.0108241355 0.20920427 0.6530483
0.050046068 -0.054337423 -0.037366305 -0.012176413 0.090829626 0.057971034 -0.121035405 -0.057152893
-0.19119821 -0.2071865 0.09456155 0.018957935 0.07068 0.124880984 0.117707774 -0.027533095
0.037277818 -0.03719433 0.10059274 0.02705172 0.10028238 0.08671999 0.28619397 -0.70410186
-0.17116022 -0.4221532 -1.3211976 0.032191265 0.12258217 0.031211713 -0.07902266 -0.06839499
-0.04830023 0.05865588 0.04520574 0.071962595 0.119233124 -0.047174223 -0.18584019 -0.07973501
-0.044841543 0.032505717 0.07274349 0.20599289 -0.11209017 0.025081286 -0.07286015 0.14124313
0.22378579 0.03798314 0.16225815 0.08205557 0.0006328321 -0.007749326 -0.06556584 0.10501525
-0.07870361 0.021960586 0.023905998 -0.043755446 -0.013142277 0.0079035275 0.23606527 0.28975862
0.10942521 0.20174417 0.1628194 0.21929002 0.06749422 -0.06097049 -0.07417002 -0.022976829
0.04483198 -0.00010107005 0.0020417452 0.014745763 -0.034581885 -0.07593476 -0.12281491 0.038295437
0.08888324 0.11506474 0.16464369 0.20456016 0.24395704 -0.75413454 -0.66571885 -0.7596383

fc_layers.0.bias f4 [64]
00000000: 1f98 24bc 28d5 ef3d fd46 293e 5928 453c
00000010: 54c1 c2bd c155 36bc 0a0a 133d eab1 8c3b
00000020: 0fa3 0bbe 3d4e af3d 7c1c a9bd ef7d ecbd
00000030: dd62 dabb 14db a0bd 37c6 c7bd cc0d 703c
00000040: bb7b 9c3b 2adc c53d 1416 3b3e 2a67 39be
00000050: bc52 b63d 6d37 39be 168c b9bd 9fbc 993d
00000060: 30c5 76bd a863 82bd 2a3b f2bd b87e f6bd
00000070: 074a 0b3e 54d1 a83d 0a32 aebd 4399 0bbe
00000080: 4cc3 0fbe 50fd cdbd 8e29 4bbc ed10 0d3e
00000090: 1dbe 813d 7eb4 d1bc 0d78 013e 1390 eabd
000000a0: cb7e 01be f4e4 e03d 5d83 6ebd c95c 903d
000000b0: 077a ef3d 4af7 34be b29b 4abe bac6 a03d
000000c0: 5896 34be 6d06 ad3d 9baf 87bc d046 033d
000000d0: 1939 c4bd b600 c2bd ef2a 333d e988 7d3c
000000e0: f540 e43d 5189 473d df9e a83c ad67 273d
000000f0: f401 8f3d 340a 7ebd 3e0c bcbc 0ab8 57be
-0.010046034 0.11710578 0.16530986 0.012033545 -0.09509531 -0.011128844 0.035898246 0.00429367
-0.1363642 0.08559845 -0.08257386 -0.115474574 -0.0066646175 -0.07854286 -0.09754603 0.014651727
0.004775492 0.096611336 0.18270141 -0.1810576 0.08902499 -0.1808755 -0.090599224 0.0750668
-0.060246646 -0.06366664 -0.11827691 -0.120358884 0.13602458 0.08243051 -0.08505638 -0.13632683
-0.14039344 -0.10058081 -0.012400044 0.13775988 0.06335089 -0.02559876 0.12643452 -0.11453261
-0.12646024 0.10981169 -0.058230747 0.07048947 0.11693197 -0.17672458 -0.19785956 0.07850404
-0.17635477 0.08448491 -0.016563227 0.032049954 -0.09581203 -0.09472792 0.043742117 0.015474536
0.11145202 0.04871494 0.020583568 0.040870357 0.069827944 -0.06202145 -0.022955056 -0.21066299

fc_layers.1.weight f4 [64, 64]
00000000: b645 f53d aa0f 063e 9216 b4bd 4fbb 933d
00000010: 19c5 a23d 01da 4e3d 68bd 363e f2c4 62be
00000020: 70af 68bd b237 0f3e 8b7f 0ebc e953 fcbd
00000030: efb1 993d 4c0b c9bd 4ce6 e03d 7b12 153e
00000040: 2ed2 7d3c a91e 7a3d 0264 f73c 3a92 723d
00000050: 0090 e53d a11b 72bb cf8a 63be f680 153d
00000060: 9729 303c 096b 1b3e 676f 103f 4533 3bbd
00000070: fc60 8d3e d30c 753d b0a5 833d 30d7 0a3e
00000080: ed91 2aba 80de 0ebd 0314 2b3e ed64 74bc
00000090: 6128 e83d b723 a0bd 676d e7bc 94fd ff3c
000000a0: 5b4c 97bb ec7b 1b3e cb1e 393c c2a6 85bd
000000b0: e67e 8f3d 6e91 ac3d 0727 1ebd 3bb1 2ebd
000000c0: 0cb7 07bd aa82 f33c bb70 093e f1a0 ab3b
000000d0: 5666 8cbd ca0c 50bd e467 97bd 90eb 073d
000000e0: 20ee 9e3d 4d99 813d ba0b 1ebd 1640 2a3e
000000f0: 42ad 23be 32e9 c03d 25d4 7abe b195 58bd
00000100: ab15 d23b f84f d23c deb4 053e babf 51be
00000110: e0b1 b8bc f84a 2abe 7c58 02be c93d 28be
00000120: c1fb 81be e77d 3dbe 507c 033d a652 3f3d
00000130: 0f9d d0bb 9e2a 553c 1133 1dbd 901f 47bd
00000140: 1f71 693a a853 b63b 0330 9c3c 7c02 323e
00000150: 19b8 2d3d 9fc9 9dbe f199 0e3d a5c8 15be
00000160: f008 4e3e 8fa8 29be 4091 c8bd 4101 16be
00000170: 5e19 ccbd a5fa c33d 5cd0 c8bd a6c9 16bf
00000180: 4b54 173e c7b8 893d f948 873d f617 453d
00000190: e63d f3bd 3d34 113d a495 d0bc 82e4 e23d
000001a0: fb67 c9bd 510e 03bc 7c1a 443f 3bfb 723e
000001b0: 6a70 b83e 07c6 febd 0311 213d 270f 8d3d
000001c0: 4755 283e 489f b5bc 01cb 083e 8532 523b
000001d0: a98f 923d cfef f6bd 8587 833c a892 d2bd
000001e0: f97a 3ebd 82d1 9bbd 13a9 a03d 08df 73be
000001f0: f777 c13e ae9f 05be 326e 8f3e ebea 903c
00000200: 8b0a ea3d e845 bd3d 479d f73d ce67 fabc
00000210: c7b3 24bd 1572 263d 3b91 7b3c 0372 ed3d
00000220: e81a 13bd 5bd4 7f3d ab4d 28bd ccb8 7f3c
00000230: 27c0 083c 0670 e63d d723 b53d ec59 1d3d
00000240: e6bc 3abc cf7a 843c 9260 44bd ceba a2bc
00000250: 2ef9 a03d bf0b e33d c792 f23d 932c 673c
00000260: bc9d 2abe edfd df3d 88f9 d53e 8358 ac3c
00000270: 5f6d bc3e 2811 f2bc 9db3 0cbe b75f fd3d
00000280: 4883 dd3d f05b 243d 58ee a43d 8309 c03d
00000290: 205a f03d 8782 103e e53b 123e b1d3 d53d
000002a0: 4222 adbd 3425 873d 0e8e b43e 8dfa 7d3e
000002b0: d006 ac3c 1a43 003e 64d7 d0bc 7313 0a3c
000002c0: 5f36 76bd c0f0 703d 6fa3 2e3e f109 8eba
000002d0: 9bd8 983d 655a f7bd 54bd 5fbd 1973 1cbd
000002e0: 848e 893d a8e8 543d 3157 7c3d 3605 f8bd
000002f0: ae32 d0be bb66 3fbd 6676 2abd c757 82bc
00000300: b57f 4cbd b427 843d 753c c5bd 14e2 4c3e
00000310: 58bc 823d 9d28 20be b90e 013e 64d6 543c
00000320: 81ad 533d 1927 1c3c bae8 ac3c b730 bcbe
00000330: 1e80 8c3d d604 e13c 425d ae3d 3733 af3d
00000340: 63c3 54bc cba4 08bd 095d 833c 887e 993b
00000350: 5db6 88be d35e 8d3e b16d 583c 2da6 b4bd
00000360: 1872 673e 04af 783e 9b31 60be 7ac7 69be
00000370: 4045 443d 7776 673e 2f68 2f3e 40c5 c4bd
00000380: 72a3 afbe 23ed 8ebe 3bd7 2a3e 2194 debd
00000390: ba2e 04be de55 02bb 76c6 423d 7901 86be
000003a0: 4a73 d1bd 806a d4bd 5da7 8a3d 981a a83d
000003b0: a7fc f5bd a913 8abe cea5 e33d ef92 523e
000003c0: 67e7 51be 1617 48bd d4ed 14bd cfd9 1dbe
000003d0: 6c7d 163e 41e5 c3be 3075 ab3d 831f 66bd
000003e0: 2008 453e c40e 58be 2534 54be 89e5 5a3d
000003f0: 78f5 a03e c22d 643e 74a2 0c3e e271 b5bc
0.11976187 0.13091913 -0.087933674 0.07213461 0.0794775 0.050500873 0.1784569 -0.22145441
-0.056807935 0.1398609 -0.008697401 -0.12320692 0.07504641 -0.09816608 0.10981426 0.14557831
0.015492005 0.061064396 0.030199055 0.059221484 0.112091064 -0.0036942738 -0.2222092 0.03649994
0.010752103 0.1517755 0.56419986 -0.04570319 0.27613056 0.059826683 0.06428087 0.1355865
-0.000650673 -0.03488016 0.16706853 -0.014916641 0.11335827 -0.07819312 -0.02825041 0.031248845
-0.0046172566 0.15183991 0.0112988455 -0.06525947 0.07006626 0.08426176 -0.038611438 -0.04264949
-0.03313355 0.029725391 0.1342191 0.0052376916 -0.068554565 -0.050793447 -0.073928624 0.033183634
0.077602625 0.06328068 -0.038585402 0.1662601 -0.15984061 0.094194785 -0.24494989 -0.05287713
0.0064112744 0.025672898 0.13057277 -0.20483294 -0.022545755 -0.16630161 -0.12729067 -0.16429819
-0.25387385 -0.18505059 0.032100976 0.04670968 -0.006366379 0.013010649 -0.03837878 -0.048614085
0.0008905101 0.005564172 0.019065863 0.1738376 0.042411897 -0.30817887 0.03481478 -0.14627321
0.20120597 -0.16568206 -0.09793329 -0.14648916 -0.09965776 0.09569291 -0.098053664 -0.5890144
0.14778249 0.067246966 0.06605715 0.048118554 -0.118770406 0.03545021 -0.02546198 0.11078741
-0.09834286 -0.007999019 0.7660291 0.2372865 0.36023265 -0.124401145 0.039322864 0.06887656
0.1643878 -0.022170678 0.1335869 0.003207357 0.07156307 -0.120574586 0.016055832 -0.10281879
-0.046503995 -0.0760832 0.07844748 -0.23815548 0.37786838 -0.13049194 0.2801376 0.017690143
0.11427792 0.09241849 0.12090545 -0.030567076 -0.04021051 0.04063614 0.01535445 0.11594012
-0.03591433 0.062458377 -0.041089695 0.015608024 0.008346594 0.112518355 0.088447265 0.038415834
-0.011397576 0.016171841 -0.04794366 -0.019864466 0.07860027 0.11086225 0.11844402 0.014109748
-0.16661733 0.109371044 0.4179194 0.0210383 0.36802194 -0.029549196 -0.13740392 0.12371772
0.108160555 0.04012674 0.08053273 0.09376814 0.1173594 0.14112292 0.1428066 0.104407676
-0.084538 0.06598893 0.3526463 0.24802609 0.020999342 0.12525597 -0.025493331 0.008427489
-0.060110446 0.058823347 0.17054532 -0.0010836703 0.07463189 -0.12077788 -0.054623917 -0.038195703
0.06716636 0.05197969 0.06160659 -0.12110369 -0.40663666 -0.04672883 -0.04161682 -0.015910996
-0.04992648 0.06452885 -0.09630672 0.20008117 0.0638358 -0.15640493 0.12603272 0.012990568
0.051679138 0.009530806 0.021107066 -0.36755916 0.06860374 0.027468126 0.08513881 0.0855469
-0.012986037 -0.033360284 0.016035574 0.004684273 -0.26701632 0.27611408 0.013209746 -0.08820758
0.22602117 0.24285513 -0.21893923 -0.2283 0.047917604 0.22603785 0.17129587 -0.09607935
-0.34304386 -0.27915296 0.16683666 -0.10868097 -0.1290845 -0.0019887607 0.04755255 -0.26173
-0.10227068 -0.10371876 0.06770203 0.08208197 -0.1201108 -0.26968125 0.11115609 0.20563863
-0.20498429 -0.04885014 -0.036359623 -0.15415119 0.14696282 -0.38260844 0.08371961 -0.056182396
0.1924138 -0.21099383 -0.20723017 0.053441558 0.31437278 0.2228308 0.13733846 -0.02214903

fc_layers.1.bias f4 [64]
00000000: c56e c53e 66fc 30bd 29f9 963e 09d9 74bd
00000010: 2433 49be 821a 623e 03d2 5ebd 3353 f83c
00000020: b133 743e 9fd2 883d ceb0 07be d90e 973b
00000030: 0c16 103e 8a4c 7f3d 1552 02bd a750 473c
00000040: fd70 28bd c4b8 103e cfe2 553d 2132 4b3e
00000050: bd82 e3bd 8720 54be 9889 233d dfec d63e
00000060: cf39 c03e 8af7 fcbd 08df 9e3d 6b9f 683e
00000070: cf27 e5bd 0769 0ebe 7722 9dbd f449 01be
00000080: 6ae2 ee3c 5ac1 e43d 09e7 813d 4318 3ebe
00000090: 46c5 8c3e eede 543e 18f1 483e 835e ad3d
000000a0: 2bf9 5e3e ddb5 35be ca2a d4bd 2e06 2e3e
000000b0: c3bf 853e 4fb5 d63e 754b 1a3e ae3e b13e
000000c0: 700f df3c f731 c13d c3bd 7abe 4184 513b
000000d0: fe39 75be 43fb 5b3d 48f2 253c 4da0 be3d
000000e0: 3041 903d 8ace 1e3b 8ca4 9a3d afd8 c0bd
000000f0: 8334 71bd 740e c9bd 1e75 52bc 2a1d 093e
0.38561073 -0.043209456 0.2948697 -0.059777293 -0.19648415 0.22080424 -0.0543995 0.03031311
0.23847844 0.06680798 -0.1325104 0.0046099243 0.1407091 0.062328853 -0.03181656 0.012165225
-0.04112338 0.14132982 0.052218255 0.19843341 -0.11108921 -0.20715533 0.03992614 0.41977593
0.37544104 -0.12351902 0.077573836 0.22717063 -0.111892335 -0.13907252 -0.07672589 -0.12625867
0.029160697 0.111696914 0.063428946 -0.18563943 0.27494258 0.20788166 0.1962322 0.08465292
0.21774738 -0.17745157 -0.10359724 0.16994545 0.26122865 0.41935202 0.15067847 0.34618133
0.02722904 0.09433358 -0.24486451 0.0031969699 -0.23947904 0.05370642 0.010128565 0.09307919
0.070436835 0.0024231994 0.07550916 -0.09416329 -0.05888797 -0.0981721 -0.012845306 0.13390031

fc_layers.2.weight f4 [4, 64]
00000000: 890e 4a3e 8440 8c3c 974d 343e e221 b53e
00000010: 1b4f 47be 53a6 f13d 842b 0c3f 51c0 3cbe
00000020: 3697 ef3d db1c 153f 55d9 d6bd 4308 2abe
00000030: 2e2f a63d bb30 bcbd 5ce1 62be cbbd ee3e
00000040: 2a07 983e 561b 3b3e 868c be3e 5cf4 7e3e
00000050: f329 75bd 4da3 82be d583 87be 90d9 423e
00000060: 11f6 bf3d 87b9 963d 4cf0 a83e da0a 0b3e
00000070: a6b4 a4be 0604 4bbe 9004 20be 8e7d 913c
00000080: bee2 aebe 872f cb3e 70c6 71bc d7d9 7bbe
00000090: 7482 0d3e 62ac fc3d 219e 7d3c b961 25be
000000a0: b57b 243e fd6a f2bd 3d21 763e bfd5 443e
000000b0: a1af 2c3e cdcc 183e 3301 6a3e 7497 093e
000000c0: b69d 38bc 5c73 ad3d 995f 80be 3369 e93d
000000d0: dc7e 8abe e8b7 2fbf 226a 943e 05a1 e0be
000000e0: 8018 1ebf d829 03bf 25a8 09bd b3f5 0f3d
000000f0: 36a9 e9bc 336b b2be 0c4d e13e 3093 503d
00000100: 7143 243e 6359 8a3e ec18 233e d046 063d
00000110: 2767 29bd 79c8 113e f5c9 f03e 6e88 9c3c
00000120: 55f5 2f3d 55db 473f c7cc 95bd 0cd7 33be
00000130: 39c5 0dbd b834 ccbe 7a25 bbbd 355d e43e
00000140: bc7c a93e 7175 063e 390b ba3e f50c 2e3e
00000150: 6f83 173d e734 8fbe 382d 1c3e f228 0e3e
00000160: 2618 103e 95a3 063e 2592 8a3e 136a 2e3e
00000170: d553 21be c839 53be 0f7b 80be e392 4f3c
00000180: ab0f 203e 82a9 ca3e 48cf 0ebc 1c89 34be
00000190: 2ba2 0c3e 84a1 3f3e 6b5f 3b3c d3b3 b33d
000001a0: a256 893d e122 523c 722e 4cbe 2455 733e
000001b0: 473e cb3d 53d6 093e ece4 993e 6d4d 0c3e
000001c0: 5627 7abd a8b7 973d c670 5dbe 2e44 283d
000001d0: c23a 43be 8d73 283e 8da3 843e d764 933e
000001e0: 6a99 b6bd ef33 b5bd 4d1f 2abd 74c5 b73c
000001f0: 9da5 8d3c cd88 41be 57bb b93e 1d6e 603d
00000200: 2818 483e 33a8 85be 2b25 af3d 44d1 3e3d
00000210: 2b21 cebd e949 0e3d 58ed 7a3e c2f2 85be
00000220: 87f0 1d3e c004 693f d7dd dfbb 27a6 50bd
00000230: f01a 773e 8bb4 72bf 5ca8 7b3e 5af9 a93e
00000240: e13c 1b3f 9948 ad3d 0276 073d e9c3 0d3e
00000250: 7f61 a23e 057e ccbd cc6b e8be 2d94 4a3e
00000260: 3c98 213e c87a 67be b988 9c3d cbe9 923e
00000270: 3cd1 bfbe 570c adbe 3a66 a4be 9fb7 3fbe
00000280: a276 ef3d 4cfc f83e b0cc 4bbe 1726 49be
00000290: 25fe 9b3d 40f5 bbbc a415 6e3e bc73 23bf
000002a0: 98d0 bb3c 583c 063d daa3 803e d670 bd3d
000002b0: 1c4d 553e 7bca 223e 6070 953e fbde 133e
000002c0: 0f8d fd3c 7fa1 28be 2410 91be 08e2 d9bd
000002d0: 03b4 5ebd 8206 15bf 5c83 563e adb5 cd3d
000002e0: 58bb 803e bbf7 e93e 1d2e 6a3e bc3a 153d
000002f0: a974 7abc f53e 1c3d d68d b53e 837a 083e
00000300: e751 a33d 3fec 6d3e bce1 713d 6fca e1bd
00000310: d37c 80bd 8142 8d3e 8c40 e63e 8f3a 223e
00000320: 7642 273d 4f82 5f3e 232b 93be 48fa 58be
00000330: b693 443e ba99 3ebf 6f6f 3d3c 6a56 2e3f
00000340: 000f e8bd 3070 ab3d bfe8 42bd 96a4 8b3e
00000350: 7447 5c3e 80a5 ccbe 02b2 b33e b4e4 723e
00000360: 10b6 0d3e 533d bfbd 2390 d23d c112 963d
00000370: 9b23 bcbc e0e0 cebc 434d 72be ba00 36be
00000380: ecb3 0e3e c2b6 b53e ebe8 963d 4204 023d
00000390: 8263 f93c 672e e63d 2db3 88bc 7563 a8be
000003a0: ac61 dc3d d302 01be cc1e e03e 81c0 b23d
000003b0: 2075 f63d 64d1 6e3e f8ec a73e bd8f 023e
000003c0: 968e 54be 7c42 3bbd f983 84be b178 7b3e
000003d0: 47bd febd 47f8 d9be df7e 093f e694 193f
000003e0: a711 6e3d e604 87bd d636 863e 609b 8d3d
000003f0: 0211 dfbe bccf 97be f97a f93e b7ac 563e
0.19732107 0.017120607 0.17607723 0.35377413 -0.1946377 0.11799302 0.547539 -0.18432738
0.11698763 0.58247155 -0.104906715 -0.16604714 0.081144676 -0.09188982 -0.2215628 0.46629176
0.29692966 0.18272147 0.37216586 0.24897903 -0.05985446 -0.25515214 -0.26467767 0.19028306
0.09373105 0.07359605 0.32995832 0.13578358 -0.32169074 -0.19825754 -0.1562674 0.017760064
-0.34157366 0.39684698 -0.014756784 -0.24594818 0.13819295 0.12337567 0.015479595 -0.1615056
0.16062815 -0.11836813 0.24036117 0.19222163 0.16863872 0.14921875 0.2285202 0.13436681
-0.01126807 0.08469269 -0.25072935 0.11397018 -0.2704991 -0.68639994 0.28987223 -0.43872848
-0.61756134 -0.51235723 -0.03360762 0.035146426 -0.028523069 -0.34847412 0.44004095 0.05092162
0.16041352 0.27021322 0.15927476 0.032782376 -0.04135814 0.1423663 0.4702908 0.019108023
0.042958576 0.7806905 -0.07314449 -0.17562503 -0.034611914 -0.3988397 -0.091380075 0.4460236
0.33102977 0.13130738 0.36336687 0.1699713 0.03699058 -0.2797005 0.15251625 0.13882807
0.14071712 0.13148339 0.27064624 0.17032652 -0.15754636 -0.2062751 -0.25093886 0.012669298
0.15630977 0.3958245 -0.008716412 -0.17630428 0.13733737 0.18713957 0.011436324 0.08774533
0.06705977 0.012825699 -0.19939592 0.23762947 0.09923988 0.13460664 0.30057466 0.1370141
-0.06107267 0.074080765 -0.21625051 0.041080646 -0.19065383 0.16450329 0.2590603 0.28787872
-0.0891598 -0.08847796 -0.041533757 0.02243302 0.017290885 -0.18899842 0.3627574 0.054792512
0.19540465 -0.26104888 0.08552011 0.04658629 -0.1006492 0.034738455 0.24504602 -0.26161772
0.15423785 0.9102287 -0.0068318653 -0.050939705 0.2413137 -0.94806737 0.24575943 0.33198053
0.6063977 0.084611125 0.033071525 0.13844265 0.3171501 -0.09984974 -0.45394742 0.19783087
0.15780729 -0.22605431 0.07643265 0.28693995 -0.3746432 -0.33798477 -0.32109243 -0.1872239
0.11692549 0.48629987 -0.19902301 -0.19643436 0.076168336 -0.022944093 0.23250443 -0.6384847
0.022926614 0.032772392 0.2512501 0.09250037 0.20830196 0.15897553 0.29187298 0.14440529
0.030951051 -0.16467856 -0.28332627 -0.10638815 -0.05437089 -0.58213055 0.20948547 0.100444175
0.25142932 0.45696816 0.22869153 0.036432967 -0.015286603 0.038145978 0.35459775 0.13327985
0.07974606 0.23234652 0.059053168 -0.11024939 -0.06273808 0.275898 0.4497112 0.15842651
0.040834866 0.21827053 -0.28743848 -0.21189225 0.19196972 -0.7445332 0.011562212 0.6810061
-0.11330986 0.083710074 -0.047585245 0.27274007 0.21511632 -0.39970016 0.35096747 0.23720056
0.13838983 -0.093378685 0.10281398 0.07327796 -0.022966197 -0.025253713 -0.23662286 -0.17773715
0.13935822 0.35490996 0.07368644 0.03174234 0.030442957 0.11239319 -0.016687 -0.3288838
0.10760817 -0.12598734 0.43773496 0.087281235 0.120340586 0.23322064 0.3279798 0.12750144
-0.20757517 -0.0457177 -0.25881937 0.24557759 -0.124384455 -0.42572233 0.53709215 0.59992826
0.058122303 -0.06592731 0.26213712 0.06914401 -0.43567663 -0.29650676 0.48726633 0.20964323

fc_layers.2.bias f4 [4]
00000000: bc30 523e 0190 893e 841a 643e 7cdd 623e
0.20526403 0.2686768 0.2227574 0.22154802
