param4_ddqn_fully_trained.pth (torch, 3671 bytes, 6 tensors)

fc_layers.0.weight f4 [8, 37]
0	0x3d6a4dfd	0.05720328
1	0x3ec0b8f9	0.37641123
2	0x3ebebb23	0.3725215
3	0x3e12d30e	0.14338323
4	0xbec4736b	-0.38369307
5	0x3d05157b	0.03249119
6	0x3e21415a	0.15747586
7	0x3e2c8372	0.16847017
8	0xbeedaa37	-0.46418926
9	0xbf981ff0	-1.1884747
10	0x3da71bb9	0.081595846
11	0x3e7fa45f	0.24965046
12	0x3e3bc420	0.18336535
13	0x3d1d9c34	0.038479045
14	0xbddb1eb9	-0.10699219
15	0xbde7418a	-0.112917975
16	0x3e8f8526	0.28031272
17	0x3e4fff59	0.20312251
18	0x3db97163	0.0905483
19	0xbec4c750	-0.38433313
20	0x3c4c501e	0.012470273
21	0x3cb401b1	0.021973463
22	0x3d5dc979	0.054147217
23	0xbda354b1	-0.07975138
24	0xbecbfeef	-0.39842936
25	0xbe6c0668	-0.23049319
26	0x3eaa366e	0.33244652
27	0x3e6c039d	0.23048253
28	0xbf1c6820	-0.6109638
29	0xbf813248	-1.009347
30	0x3e2505aa	0.16115442
31	0x3e370c06	0.1787568
32	0x3e9c16a4	0.30486023
33	0xbf13dd20	-0.57759285
34	0xbf03edf0	-0.5153494
35	0xbd118881	-0.03553057
36	0xb9b5667b	-0.00034599364
37	0x3ec31b70	0.3810687
38	0x3eb8968b	0.36052355
39	0x3eacd421	0.33755592
40	0x3ea3fba9	0.3202794
41	0xbe01098e	-0.12601301
42	0x3ee91a7e	0.45528024
43	0x3ed57ac7	0.41695234
44	0x3ee87fb8	0.45409942
45	0x3ec937ca	0.39300376
46	0x3c528c6a	0.01285086
47	0x3edea327	0.4348385
48	0x3e910460	0.2832365
49	0x3e7f95b5	0.24959452
50	0x3e980caf	0.29697177
51	0x3c3a56b0	0.011373207
52	0x3ec4db73	0.38448676
53	0x3ea9fc62	0.33200365
54	0x3ebf5b80	0.37374496
55	0x3ecd7f8b	0.4013637
56	0x3da96705	0.082716025
57	0x3ebf7b52	0.37398773
58	0x3ea3795c	0.31928527
59	0x3e9c48f7	0.30524418
60	0x3ecf8c54	0.4053675
61	0x3ddb2ca3	0.10701873
62	0x3ecab9a6	0.39594764
63	0x3eab4d22	0.33457285
64	0x3ebaf2d3	0.36513385
65	0x3e9aeb55	0.3025767
66	0x3cfde919	0.030994939
67	0x3ea0e20b	0.31422457
68	0x3ea8f65c	0.33000457
69	0x3e9a2720	0.30107975
70	0x3e910e76	0.28331345
71	0x3d9e61bc	0.07733485
72	0xbbc7eb6a	-0.0061010616
73	0x3c9f240a	0.019426364
74	0xbc533785	-0.012891655
75	0x3a78bf3d	0.0009488946
76	0x3cf4cd91	0.029883178
77	0x3b42d67b	0.002972989
78	0x3d1513c1	0.036395792
79	0x3d86a8fe	0.065752015
80	0x3df9e38e	0.12201606
81	0x3ddd5483	0.10807135
82	0x3e7454ec	0.2386052
83	0x3e140ec2	0.14458755
84	0x3d9efb11	0.07762731
85	0x3e030f10	0.12798715
86	0x3e2405e3	0.1601787
87	0x3e19ca41	0.1501856
88	0x3cd5797c	0.026058905
89	0x3e36f807	0.17868052
90	0x3e353d58	0.17699182
91	0x3df76131	0.12079085
92	0x3d9735bf	0.07383298
93	0xbde44ba7	-0.11147242
94	0x3d89afb5	0.067229666
95	0x3de984d8	0.11402291
96	0x3e1a949c	0.15095752
97	0x3e0e0091	0.13867404
98	0x3c9cc447	0.019136561
99	0x3ddd3cef	0.10802638
100	0x3d207085	0.039169807
101	0xbba189c4	-0.004929753
102	0xbc824cfc	-0.01590585
103	0xbe28fd03	-0.16502766
104	0x3f228c63	0.63495463
105	0xbf5c795f	-0.861227
106	0xbf506cf8	-0.81416273
107	0xbf3e27a2	-0.74279225
108	0xc03fa850	-2.994648
109	0xbc013967	-0.007887221
110	0xb98bbc92	-0.00026652642
111	0x3cf0c6e4	0.029391713
112	0x3da559c9	0.08073766
113	0x3d71ebbd	0.05906271
114	0x3dc9ec5b	0.09859534
115	0x3d98896b	0.074480854
116	0x3cc3f862	0.02392215
117	0x3d2b2c68	0.041790396
118	0x3d468549	0.048466954
119	0x3d9cee75	0.076626696
120	0x3ba95f22	0.0051688114
121	0x3c98f4f6	0.018671494
122	0x3c80389a	0.01565199
123	0x3d90a4b8	0.070626676
124	0x3d767276	0.060167752
125	0x3cdac3b1	0.026704641
126	0x3d17a61a	0.03702364
127	0x3d771e0b	0.060331386
128	0x3b916f59	0.0044383225
129	0x3cc5a0cd	0.024124527
130	0xbd65fef9	-0.056151364
131	0x3f2d5976	0.6771463
132	0xbf235e88	-0.6381612
133	0xbf158881	-0.58411413
134	0xbef2c261	-0.47413924
135	0xc03ae3f4	-2.9201632
136	0xbdc93998	-0.09825438
137	0xbc9f3152	-0.019432697
138	0xbd7c5b4a	-0.061610498
139	0xbae91c0f	-0.0017784851
140	0x3cad4929	0.02115305
141	0xbb836a45	-0.004010471
142	0xbc6093c1	-0.013707102
143	0x3caff32f	0.021478264
144	0x3e013317	0.12617145
145	0x3e0b56a4	0.1360727
146	0x3c6f3ab5	0.014601399
147	0x3b181c1c	0.0023210114
148	0x3ce7c5da	0.028292585
149	0x3d3e3107	0.046433475
150	0x3d6ce56c	0.05783598
151	0x3d2216b5	0.039572436
152	0x3d63d40b	0.05562214
153	0xbdde6d22	-0.10860659
154	0x3df8387c	0.121201485
155	0x3da02a70	0.07820594
156	0x3e612aaf	0.21988939
157	0x3e8111e9	0.25208977
158	0x3d81d284	0.06338981
159	0x3dd72a9a	0.105061725
160	0x3dd39650	0.10331404
161	0x3d62ec0d	0.055400897
162	0xbd8b5801	-0.06803895
163	0x3bf71f83	0.0075415983
164	0x3c6d99c7	0.014501995
165	0x3c1b0ba1	0.009463222
166	0xbd5dce3d	-0.054151762
167	0xbdd3fea9	-0.10351307
168	0x3c39c3b5	0.011338164
169	0xbbf26410	-0.0073971823
170	0x3cb46ee3	0.022025531
171	0xbcca7dd5	-0.024718205
172	0xbd6d1381	-0.05787993
173	0xbd8f2635	-0.06989709
174	0x3d0dd36a	0.03462545
175	0xbbd13942	-0.0063849995
176	0x3cea6f90	0.02861765
177	0x3dc3b809	0.09556586
178	0x3edf322a	0.4359296
179	0xbf13da6b	-0.57755154
180	0xbeea2950	-0.45734644
181	0xbf42d11f	-0.76100343
182	0xc051dc20	-3.2790604
183	0x3c750e51	0.014957027
184	0x3be48991	0.006974407
185	0x3dfe7958	0.12425488
186	0x3e24ca1d	0.16092725
187	0x3e3f2074	0.18664724
188	0x3e3bb321	0.18330051
189	0x3d658888	0.05603841
190	0x3f2e3805	0.6805423
191	0xbf83b463	-1.0289425
192	0xbf7bf5b9	-0.9842182
193	0xbf687a6e	-0.9081181
194	0xc00d0a89	-2.203768
195	0x3dc4e1c4	0.09613374
196	0x3e042de4	0.12908131
197	0x3e3621f6	0.17786393
198	0x3e1c77cd	0.15280075
199	0x3ada884a	0.0016672697
200	0x3d57f0de	0.052719943
201	0x3d92cf03	0.071683906
202	0x3d9f0ef9	0.07766528
203	0x3d881e79	0.06646437
204	0x3abc5e20	0.0014371313
205	0x3cc1c75e	0.023654636
206	0x3c683b12	0.01417424
207	0x3d74b4df	0.059742805
208	0x3cbe50c1	0.023231866
209	0xbc529627	-0.012853182
210	0x3d6ac9a1	0.057321195
211	0x3dbcff73	0.092284106
212	0x3dfdf17e	0.123995766
213	0x3e2ffe3a	0.17186823
214	0x3c9e2ea3	0.019309347
215	0x3e500548	0.20314515
216	0x3e483a45	0.19553478
217	0x3e5c1343	0.21491723
218	0x3e71a4d2	0.2359803
219	0xbc10cdf7	-0.008838168
220	0xbb2cac6c	-0.0026347889
221	0xb8ae2b9c	-8.3050894e-05
222	0x3ccebea1	0.025237383
223	0x3bf2e56c	0.007412603
224	0x3d402faa	0.046920456
225	0x3db0b18b	0.08627614
226	0x3d7e2fd1	0.06205732
227	0xbae2500e	-0.001726629
228	0x3e0d58fa	0.13803473
229	0xba6d6f51	-0.000905742
230	0x3e8d44b3	0.27591476
231	0x3e68f029	0.22747864
232	0x3e2caded	0.16863222
233	0x3e54da4b	0.20786397
234	0x3e4daf5d	0.20086427
235	0x3e504906	0.20340356
236	0xbb40af57	-0.0029401386
237	0xbb0179e3	-0.0019756488
238	0x3ca02199	0.01954727
239	0x3b8d21ef	0.0043070237
240	0x3cabd403	0.020975119
241	0x3c5563e0	0.0130243
242	0x3c1bcec4	0.009509746
243	0x3cfcab5c	0.03084343
244	0x3d17e610	0.03708464
245	0x3ce1988a	0.027538557
246	0xbd1e131e	-0.03859245
247	0x3f1219c7	0.57070583
248	0xbf382885	-0.7193683
249	0xbf5334fa	-0.8250271
250	0xbf3a11ca	-0.72683394
251	0xc04c8939	-3.1958754
252	0xbc28a5a1	-0.010293395
253	0xbb131671	-0.0022443796
254	0xbb100d7f	-0.00219807
255	0x3da142ff	0.078741066

fc_layers.0.bias f4 [8]
0	0x3e0b0b87	0.13578616
1	0x3f129b2c	0.57268023
2	0x3da23b66	0.079214856
3	0x3d3d3b5b	0.046199184
4	0x3d06096e	0.032723837
5	0x3e49ee49	0.19719805
6	0x3dbba233	0.091617964
7	0xbcc5fac2	-0.024167422

fc_layers.1.weight f4 [8, 8]
0	0x3e14a4c0	0.14515972
1	0x3dcd5903	0.10026743
2	0xbf04893f	-0.5177192
3	0x3dc3c832	0.095596686
4	0xbf8241d0	-1.0176334
5	0x3bb0e1be	0.0053980043
6	0x3f895ca1	1.0731393
7	0x3e69759a	0.22798768
8	0xbe676264	-0.22596127
9	0x3f348e2c	0.7052944
10	0x3ed58551	0.41703275
11	0x3de54f25	0.11196736
12	0x3e967767	0.29387972
13	0x3e8cc6e0	0.2749548
14	0x3d1c0167	0.038087275
15	0x3f883825	1.0642134
16	0xbe0f3119	-0.13983573
17	0x3dc19e9d	0.09454081
18	0x3f0e929f	0.55692476
19	0x3d25b58c	0.04045634
20	0x3ef4992f	0.4777312
21	0x3e285ab0	0.16440845
22	0xbd958ea9	-0.07302601
23	0xbf802f0e	-1.001436
24	0x3e3ac23f	0.18238162
25	0x3d4522d4	0.048128918
26	0xbdbc6ef7	-0.09200852
27	0x3f91a087	1.1377114
28	0xbf81845d	-1.0118519
29	0xbec9dfdf	-0.39428613
30	0xbee0c27e	-0.43898386
31	0xbe85380d	-0.26019326
32	0xbd872af0	-0.065999866
33	0x3d826d83	0.06368544
34	0xbe278e4d	-0.16362877
35	0xbd591f78	-0.053008527
36	0xbd6fa7af	-0.058509525
37	0xbd5d4ed6	-0.054030262
38	0xbe3790b4	-0.17926294
39	0xbea11c80	-0.31467056
40	0x3f309494	0.6897671
41	0xbe45344e	-0.19258234
42	0x3ec5505a	0.38537866
43	0xbfa8cb46	-1.3187034
44	0xbf8478f8	-1.0349417
45	0xbf48862b	-0.78329724
46	0xbe37a525	-0.17934091
47	0x3ec159ee	0.37763923
48	0x3dfbd567	0.12296563
49	0xbd5a3ab9	-0.05327866
50	0xbf031c38	-0.51214933
51	0xbda2aef7	-0.07943528
52	0xbed4738c	-0.41494405
53	0x3f34fb4f	0.70695966
54	0xbf45ce74	-0.7726815
55	0xbba95189	-0.0051671905
56	0xbe07699c	-0.1322388
57	0xbe4e1fee	-0.20129368
58	0xbea332eb	-0.31874785
59	0x3c815f90	0.015792638
60	0x3e206e6a	0.1566712
61	0x3da048a8	0.07826358
62	0x3d8f2fa4	0.069915086
63	0xbe894865	-0.26813045

fc_layers.1.bias f4 [8]
0	0xbeaca7b7	-0.33721706
1	0x3f5120e3	0.81690806
2	0x3f56b5e0	0.8387127
3	0x3dd91e2d	0.10601459
4	0xbe9346ad	-0.2876486
5	0xbd98ea68	-0.074665844
6	0xbe6ce090	-0.23132539
7	0xbe2ea7eb	-0.17056243

fc_layers.2.weight f4 [4, 8]
0	0x3f4ce8e5	0.8004287
1	0x3ef8fbe7	0.48629686
2	0x3f1f1c28	0.6215234
3	0xbd89c0da	-0.06726237
4	0x3e1f8898	0.1557945
5	0xbf26b742	-0.6512338
6	0x3f57e369	0.84331375
7	0x3e992fcf	0.29919288
8	0x3f387f3d	0.7206915
9	0x3f063aea	0.52433646
10	0x3f131c5b	0.5746514
11	0x3de2573a	0.110517934
12	0x3e299040	0.16558933
13	0xbf0d570f	-0.55210966
14	0x3f5ad0d6	0.8547491
15	0xbe16e50b	-0.1473581
16	0x3ec9bdf0	0.39402723
17	0x3f1e67e5	0.6187728
18	0x3f0dd60b	0.5540473
19	0x3f4e632a	0.8062006
20	0xbe95633f	-0.2917728
21	0xbf37fbfc	-0.7186887
22	0x3e9612c0	0.2931118
23	0xbe272855	-0.16323979
24	0x3e64f5f4	0.22359449
25	0x3f2fe829	0.68713623
26	0xbdab668c	-0.08369169
27	0xbda0e124	-0.07855442
28	0x3ce0e0dd	0.027450973
29	0x3af99f4f	0.001904467
30	0x3e0c1a91	0.1368201
31	0xbe2d0f58	-0.16900384

fc_layers.2.bias f4 [4]
0	0x3f0a235c	0.53960204
1	0x3ea86c6a	0.32895213
2	0xbcedcdfb	-0.029028883
3	0x3f330376	0.69927156
