param5_fully_trained.pth (torch, 6879 bytes, 4 tensors)

fc_layers.0.weight f4 [32, 37]
0	0x3e08cfce	0.13360521
1	0x3e295d08	0.16539395
2	0x3e1ad33a	0.15119639
3	0x3e27b937	0.16379248
4	0xbcedfd19	-0.02905135
5	0x3f0956be	0.53647983
6	0xbf7065f4	-0.9390557
7	0xbf751e04	-0.95748925
8	0xbf850a77	-1.0393819
9	0xc0344768	-2.8168583
10	0x3dbb1cc2	0.091363445
11	0x3e12a6ae	0.14321396
12	0x3dfb76c4	0.12278512
13	0x3e2fa07e	0.17151067
14	0x3d778599	0.060430143
15	0x3d001ccc	0.031277463
16	0x3d985245	0.07437567
17	0x3d9e4560	0.07728076
18	0x3e01c700	0.12673569
19	0x3b5e401f	0.003391273
20	0xbcbcaf70	-0.023032874
21	0x3ce8cb39	0.028417217
22	0x3d9560c8	0.0729385
23	0x3dfe05c6	0.12403445
24	0x3db60a44	0.08888677
25	0xbcf82fc1	-0.030296208
26	0x3cb4aa14	0.022053756
27	0x3d4e58d4	0.05037768
28	0x3dbc191b	0.09184476
29	0x3db32725	0.087477006
30	0x3dbbb50f	0.091653936
31	0x3ddec70c	0.10877809
32	0x3dfde134	0.1239647
33	0x3e6ea8a3	0.23306517
34	0x3e5e1ba6	0.21690235
35	0xbbde8be8	-0.0067915805
36	0x3bf4f997	0.0074760425
37	0x3d7eb894	0.062187746
38	0xbe3e5d88	-0.18590367
39	0xbcbb4c3e	-0.022863504
40	0x3d37ee72	0.044905134
41	0x3eb4db6f	0.35323665
42	0x3dd04386	0.10169129
43	0xbe09fe28	-0.13475859
44	0xbe54196e	-0.20712826
45	0x3e126d2d	0.1429946
46	0x3f2e04d8	0.6797614
47	0xbdc18628	-0.094494164
48	0x3bb102be	0.005401938
49	0xbdae4952	-0.085100785
50	0xbe408277	-0.18799768
51	0xbe048d17	-0.12944447
52	0x3d6352e9	0.05549899
53	0xbe8d3a2c	-0.27583444
54	0xbd472ef7	-0.048628774
55	0x3e0597fb	0.13046257
56	0x3ed0881f	0.40728852
57	0xbe3ddf25	-0.18542154
58	0x3d6a6963	0.05722941
59	0xbd3a036d	-0.045413423
60	0xbcceed38	-0.0252596
61	0x3d06e245	0.03293063
62	0x3d71a113	0.058991503
63	0xbebb8393	-0.3662382
64	0xbdcee910	-0.10103047
65	0x3e1c8fd2	0.15289238
66	0x3f5755fc	0.84115577
67	0xbe0b928d	-0.13630123
68	0xbdea16c6	-0.11430125
69	0xbe321889	-0.17392172
70	0x3d2e70a1	0.04258788
71	0x3e11f3c3	0.14253144
72	0xbd8ae737	-0.06782382
73	0x3cfecb67	0.03110285
74	0xbd44c07a	-0.048035122
75	0x3d9759e0	0.07390189
76	0xbd92dae6	-0.07170658
77	0xbe2ee1d5	-0.17078336
78	0xbe3f3299	-0.18671645
79	0x3e4f8dfe	0.2026901
80	0x3e036f23	0.12835364
81	0x3dc1634f	0.0944277
82	0x3d894a81	0.067036636
83	0xbeaa44d5	-0.3325564
84	0x3dc40347	0.095709376
85	0x3e2f8ed1	0.17144324
86	0x3dd42e08	0.10360342
87	0xbe420de0	-0.18950605
88	0xbeaa07de	-0.33209127
89	0x3e01f89a	0.1269249
90	0xbdccbdc9	-0.09997136
91	0x3d54af31	0.051924888
92	0x3dcaa0cc	0.09893951
93	0xbd8fd0db	-0.07022258
94	0x3de06984	0.109576255
95	0xbc8847c4	-0.016635783
96	0x3da1afd2	0.07894863
97	0xbe0ae02d	-0.13562079
98	0xbe441331	-0.19147946
99	0x3e89a340	0.26882362
100	0xbef2b290	-0.47401857
101	0xbc892d8f	-0.016745357
102	0xbddb7526	-0.10715704
103	0xbf05ed4a	-0.523152
104	0xbd1558b3	-0.036461543
105	0x3d4d1c23	0.05007566
106	0xbcf2b2d1	-0.029626282
107	0x3ddaafad	0.10678039
108	0xbe191fca	-0.14953533
109	0xbea0b30a	-0.31386596
110	0xbdb4409c	-0.08801386
111	0xbd8d7c1d	-0.06908438
112	0xbe35ac78	-0.17741573
113	0xbd1e4d5f	-0.038648006
114	0x3e13aa7f	0.14420508
115	0x3e8ab9a9	0.27094772
116	0xbe70c614	-0.23513061
117	0xbd3de0de	-0.04635703
118	0xbd969658	-0.073528945
119	0x3e338555	0.17531331
120	0x3f0c52f8	0.548141
121	0xbd1bb3bb	-0.0380132
122	0xbde20dc6	-0.11037783
123	0xbd58a341	-0.052890066
124	0xbde75f66	-0.11297493
125	0x3d26db0a	0.040736236
126	0xbd26501d	-0.040603746
127	0xbdab8371	-0.0837468
128	0xbe2bef00	-0.1679039
129	0x3e284859	0.16433848
130	0x3f2afbdd	0.6679056
131	0x3c4712b6	0.012150457
132	0x3d5ac4bc	0.053410277
133	0xbd1a5cf9	-0.037686322
134	0xbd87ac95	-0.06624714
135	0xbe3b320f	-0.18280815
136	0xbdf78e35	-0.12087671
137	0xbe81e54a	-0.25370246
138	0xbe37ac2d	-0.17936774
139	0x3e608f06	0.21929559
140	0x3f6473d3	0.89239234
141	0xbe1b06de	-0.15139338
142	0x3c8dcfe2	0.01731104
143	0xbe00905e	-0.12555072
144	0xbc82f78b	-0.015987178
145	0x3d202544	0.03909804
146	0x3daa9cf8	0.08330721
147	0xbc8055b1	-0.01566586
148	0xbc24b5e6	-0.010053134
149	0xbcd2051b	-0.0256372
150	0xbc0db887	-0.008649952
151	0x3e7d20d3	0.24719553
152	0x3de7ec62	0.11324383
153	0xbf6d364a	-0.92660964
154	0x3eb53845	0.35394493
155	0x3e3c405e	0.18383929
156	0xbe8e0a6b	-0.27742323
157	0xbf578a5d	-0.841955
158	0xbde5d4b8	-0.112222135
159	0x3e2c2f12	0.16814831
160	0x3e0b45fe	0.13600919
161	0x3d9458ff	0.07243537
162	0xbdc3bcff	-0.095575325
163	0x3d89b909	0.06724746
164	0xbdc27df3	-0.09496679
165	0xbd1cbce9	-0.038266096
166	0xbd075408	-0.033039123
167	0x3e235e55	0.15953954
168	0xbda3af0d	-0.07992373
169	0x3de2933c	0.11063239
170	0x3dec5175	0.11538974
171	0xbe282058	-0.16418588
172	0xbe9e021d	-0.30860987
173	0xbdac5a75	-0.08415691
174	0xbce97a36	-0.028500658
175	0xbd9341fe	-0.071903214
176	0xbdedcd90	-0.116114736
177	0xbe56c50b	-0.20973603
178	0xbf0053c7	-0.50127834
179	0x3ed28b8c	0.4112209
180	0x3ea6f45d	0.3260831
181	0xbea73f34	-0.32665408
182	0xbf969360	-1.1763725
183	0xbda269ad	-0.07930312
184	0x3b2db016	0.002650266
185	0x3e293382	0.16523555
186	0xbeb60bfe	-0.35556024
187	0x3e6c5034	0.2307747
188	0xbddcdb7d	-0.107840516
189	0xbec4269c	-0.38310707
190	0xbe972d45	-0.29526725
191	0xbcc7f2fd	-0.024407858
192	0x3e9d7255	0.3075129
193	0x3de216eb	0.110395275
194	0x3d2988ce	0.041390233
195	0x3dfbc3ab	0.1229318
196	0xbde191ad	-0.110141136
197	0x3dde0a06	0.108417556
198	0xbdedd0db	-0.11612102
199	0xbd9c78ba	-0.07640214
200	0x3d9b21cc	0.075748056
201	0x3dcbd202	0.09952165
202	0xbdc2eb3f	-0.09517526
203	0xbe293079	-0.16522397
204	0x3d12a10c	0.035798118
205	0x3bb0ddc9	0.0053975326
206	0xbe2d6eb7	-0.16936766
207	0xbe594c95	-0.2122062
208	0xbe3a14da	-0.18172017
209	0xbe61bf7c	-0.22045702
210	0x3e48ca77	0.19608484
211	0xbd87136e	-0.06595503
212	0xbe9147e1	-0.28375152
213	0xbdb384d1	-0.08765567
214	0xbea837ff	-0.32855222
215	0x3e25e123	0.16199164
216	0xbc905552	-0.017618809
217	0xbe83f547	-0.2577307
218	0x3dc9a8c0	0.0984664
219	0xbd3e9cb5	-0.046536166
220	0xbd76f057	-0.0602878
221	0xbb2122a4	-0.0024587298
222	0x3cc9b2de	0.024621423
223	0xbe960d97	-0.29307243
224	0xbd34d64e	-0.04414969
225	0x3d3e6a91	0.04648835
226	0x3f1cae6d	0.6120365
227	0xbdf44aa2	-0.119282976
228	0x3dcca2f6	0.0999202
229	0xbeef2145	-0.4670507
230	0xbe7ec1e5	-0.24878652
231	0xbd5f3fcc	-0.0545042
232	0x3dc51e66	0.09624939
233	0x3e81e43e	0.25369447
234	0xbe85e6b5	-0.26152578
235	0xbef42340	-0.47683144
236	0xbe099e10	-0.13439202
237	0x3e018351	0.1264775
238	0xbf09e92f	-0.53871435
239	0xbe52bd6a	-0.20580068
240	0xbedd0f95	-0.4317595
241	0x3e4760ef	0.19470571
242	0x3db5a068	0.08868486
243	0xbda29461	-0.07938457
244	0xbe966e5d	-0.29381076
245	0xbe6990eb	-0.22809188
246	0xbf5ee865	-0.87073356
247	0x3e233694	0.15938789
248	0x3c10196d	0.0087951245
249	0xbe6d5dd2	-0.23180321
250	0xbf0130d6	-0.5046514
251	0xbf5513c6	-0.83233297
252	0x3df9c629	0.12195999
253	0xbf1ba94e	-0.60805213
254	0xbebadd52	-0.3649698
255	0xbe16ace7	-0.14714395

fc_layers.0.bias f4 [32]
0	0x3da12ec6	0.078702495
1	0xbe2e138b	-0.16999643
2	0x3d3eee37	0.046613898
3	0xbd497b1a	-0.049189664
4	0x3e73f1d6	0.23822722
5	0x3b04964b	0.0020231183
6	0xbd2bc5a4	-0.04193653
7	0x3d2697c7	0.04067209
8	0xbc71fcb9	-0.014769726
9	0xbe198eb3	-0.14995842
10	0xbe6188fc	-0.22024912
11	0xbe17c86f	-0.14822553
12	0xbe2d097e	-0.16898152
13	0xbe888742	-0.26665694
14	0xbe107c18	-0.14109838
15	0xbb8f65cc	-0.004376149
16	0xbd8b8d02	-0.068140045
17	0x3daceb1e	0.084432825
18	0xbe39004b	-0.18066518
19	0x3dbccbe7	0.09218579
20	0xbe3685c7	-0.1782447
21	0xbe281c2c	-0.16416997
22	0x3d2b0baf	0.04175919
23	0x3f01a115	0.50636417
24	0x3db14b91	0.08656991
25	0x3e78ff9f	0.24316262
26	0x3abdabea	0.001447079
27	0xbbed93b0	-0.0072502717
28	0x3f0acfd8	0.54223394
29	0x3ed83c70	0.4223361
30	0x3e0d8be4	0.13822895
31	0x3f2dc694	0.6788113

fc_layers.1.weight f4 [4, 32]
0	0x3f252f37	0.6452517
1	0xbdcbf967	-0.09959679
2	0xbd84620b	-0.06464013
3	0xbd9a917a	-0.07547279
4	0xbe30ffcd	-0.1728508
5	0x3da5335a	0.08066435
6	0xbd9a37e1	-0.07530189
7	0x3d389187	0.04506066
8	0x3e09b0d4	0.13446361
9	0x3f09608b	0.5366294
10	0x3d3ff38a	0.046863116
11	0x3e9250fe	0.28577417
12	0x3c3e76dd	0.011625019
13	0x3d5232e4	0.051318064
14	0x3e105f14	0.1409877
15	0x3dc6a2b0	0.09698999
16	0xbe005fb0	-0.12536502
17	0x3ddc80b3	0.10766735
18	0x3c8dd93e	0.017315503
19	0x3d778fdc	0.06043993
20	0x3d0a2e57	0.0337356
21	0x3e8586cc	0.26079404
22	0x3e40416b	0.18774955
23	0x3ea7d6c7	0.3278105
24	0x3dcf3fb3	0.101195715
25	0x3e2146a0	0.15749598
26	0x3f710392	0.9414607
27	0xbe5fa481	-0.21840097
28	0x3e6465dd	0.22304483
29	0x3e135590	0.14388108
30	0x3dd2d61a	0.10294743
31	0x3e9e6ae5	0.3094093
32	0x3f0fe562	0.56209385
33	0xbd54cca2	-0.051952966
34	0xb984755f	-0.0002526445
35	0xbdf7a0e7	-0.120912366
36	0xbd4fb1a9	-0.05070654
37	0x3dfdccc0	0.123925686
38	0xbe659a1b	-0.22422068
39	0x3dab169e	0.08353923
40	0x3d8409dd	0.06447194
41	0x3f04f988	0.51943254
42	0x3dc65dbb	0.096858464
43	0x3e68d894	0.22738868
44	0x3df13021	0.11776758
45	0x3cb3f0a6	0.021965336
46	0x3ea0762d	0.3134016
47	0x3e30e317	0.17274128
48	0x3d755510	0.059895575
49	0x3d1384ea	0.03601543
50	0x3db48579	0.088145204
51	0x3dd25b3d	0.102713086
52	0xbcbb32a2	-0.022851292
53	0x3dbbcd6b	0.0917004
54	0x3e6014b1	0.21882893
55	0x3ea42672	0.3206058
56	0x3e4679ac	0.19382352
57	0x3e0074c0	0.12544537
58	0x3f566463	0.8374693
59	0xbe664acf	-0.22489475
60	0x3e6eb512	0.2331126
61	0x3e44b55d	0.1920981
62	0x3dff66f1	0.124708064
63	0x3ea031fc	0.31288135
64	0xbc04b07d	-0.008098719
65	0xbd9a44b8	-0.07532638
66	0x3dec579d	0.115401484
67	0xbd5d56e6	-0.05403795
68	0xbe4e910c	-0.20172518
69	0x3d9ee07a	0.07757659
70	0xbe392706	-0.18081293
71	0x3d21ef48	0.039534837
72	0xbe2c1f66	-0.16808853
73	0x3ef16f67	0.47155306
74	0x3f686b85	0.9078906
75	0x3f29a3d3	0.662656
76	0x3f01657a	0.50545466
77	0x3dcccb8c	0.09999761
78	0x3dfb50af	0.122712485
79	0x3e3bc4d5	0.18336804
80	0x3da85e41	0.082211025
81	0xbadae243	-0.0016699511
82	0x3e211810	0.15731835
83	0x3e80cf91	0.2515836
84	0x3e152649	0.14565386
85	0x3f1d490d	0.6143959
86	0x3f58b1a3	0.8464605
87	0x3e8248c9	0.25446156
88	0x3e0a2cf2	0.13493708
89	0x3e7c4ac3	0.24637894
90	0x3ec75a59	0.38936117
91	0xbe1f3d8c	-0.15550822
92	0x3ea6b557	0.32560226
93	0x3e3b6f5c	0.18304199
94	0xbb04ca53	-0.0020262196
95	0x3e8d0b49	0.27547672
96	0x3dc51fe3	0.096252225
97	0x3d203d6e	0.039121084
98	0x3da4c669	0.08045656
99	0xbe83ef62	-0.25768572
100	0x3ba0ab50	0.0049032345
101	0x3e3ad515	0.18245347
102	0xbea626a0	-0.32451344
103	0x3ee38c3f	0.44442937
104	0x3b7bb06e	0.003840472
105	0xbd212a8e	-0.039347224
106	0xbe1dc8c0	-0.15408611
107	0xbd1c34c9	-0.038136277
108	0x3e420cca	0.18950191
109	0x3e7aae2a	0.24480501
110	0x3eca2c26	0.39486808
111	0x3f555311	0.83329874
112	0xbf12b825	-0.5731223
113	0xbcef454c	-0.029207848
114	0x3ded727b	0.11594101
115	0x3e020526	0.12697276
116	0x3f1140cc	0.567395
117	0x3daed790	0.08537209
118	0x3e851a5f	0.25996682
119	0x3eacfb33	0.337854
120	0x3f37fde5	0.7187179
121	0x3dec6c72	0.11544122
122	0x3e486929	0.19571365
123	0xbea01cca	-0.31271964
124	0x3e5f665d	0.21816392
125	0x3e308492	0.17238072
126	0x3dccd0df	0.100007765
127	0x3e8a3c00	0.269989

fc_layers.1.bias f4 [4]
0	0x3ec90c61	0.39267257
1	0x3e51c75e	0.20486209
2	0x3e995473	0.29947242
3	0x3ec716f6	0.38884705
