param1_ddqn_solved_390.pth (torch, 29335 bytes, 6 tensors)

fc_layers.0.weight f4 [64, 37]
0.0073935036 0.14182085 0.109302714 0.14346139 -0.04582624 -0.045162395 -0.07218958 0.08815484
0.13060842 0.12604748 0.11918576 0.054416273 0.044506617 0.06892542 0.06410852 -0.04864892
-0.056261677 0.07206206 0.12776724 0.26195115 -0.116541415 -0.026914662 0.028894724 0.0025590283
0.0036639934 0.13417079 -0.13439971 -0.5494942 -0.37157527 -1.3883711 0.018794673 0.04140516
0.09368808 0.08076288 0.1637067 -0.012400752 0.0040291003 0.23658054 0.069267385 -0.14371322
-0.10520395 -0.08355541 0.0369216 0.054910224 0.13374756 -0.04384843 -0.012094271 0.28104708
-0.28191978 -0.28789604 -0.19222319 -0.9029826 -0.046745982 0.1187317 -0.048539326 0.032980934
0.09064607 -0.02258946 0.037891146 -0.018712347 -0.033704113 -0.1053331 0.008793719 0.018849708
-0.08590033 0.08609607 0.15762825 0.013115391 -0.17285906 -0.07341036 -0.013850514 0.29801965
0.042276986 -0.0076031443 -0.28791824 -0.11018307 -0.068046875 0.0077260463 -0.04870636 -0.15188324
0.09317453 0.17265648 -0.084375165 -0.5013796 -0.08923986 -0.084439754 0.22904304 -0.23368979
-0.33343434 -3.0110472e-05 -0.0725374 0.055924986 0.021060308 -0.2417009 -0.18841863 0.114562824
0.13690664 -0.28860307 -0.25059533 -0.30060676 -0.06831935 0.17989968 -0.12922843 -0.26582375
-0.121024266 -0.2781683 0.022843802 -0.13771842 -0.96997637 -0.16894445 0.056081317 -0.052454386
0.058317613 0.051166415 -0.093082026 -0.11609832 0.18642733 -0.51927906 -0.02712365 -0.62507284
-1.2068157 -0.027204948 -0.0002918347 -0.087408364 -0.07650183 0.041317694 -0.053096604 -0.0002870122
0.15883961 0.013178774 0.18530025 0.0012679104 -0.0033292426 0.12684356 -0.0005713525 0.07040116
-0.12230879 -0.13440654 0.058919292 0.0978615 0.34961373 -0.11782571 0.111722514 -0.043194912
-0.023188608 -0.1177495 -0.03215406 0.009725071 0.14097829 -0.09463864 0.07973897 -0.025286298
-0.05380166 -0.1074129 0.046837132 0.114950605 0.07993991 0.26564565 0.0071240715 0.09780208
0.15193419 0.020886106 0.17860036 -0.0033225773 -0.034199327 -0.02162041 -0.047352135 0.09022075
0.0690886 -0.09921168 0.021318782 -0.124535 0.039037302 0.011701959 0.07400103 -0.23108926
-0.30748048 -0.19519387 0.2405524 -0.034172967 -0.16055577 -0.06397381 -0.4715115 -0.123780474
0.0476083 0.07612269 -0.018867774 0.14928366 -0.055124026 -0.0078072664 0.16251716 -0.3231829
-0.031189447 -0.14141642 -1.2941104 0.02348852 -0.033304755 0.032272857 0.056029048 0.14449203
-0.16036816 0.03444508 0.16256468 0.0703584 -0.04732524 -0.038258985 -0.027361032 -0.11443453
-0.40756133 0.2238301 0.042956125 0.14108571 0.08310556 -0.20293769 -0.093627214 0.121263765
0.10695917 0.0498003 0.07857407 -0.49365178 0.0030528577 -0.0029621723 -0.0560742 -0.010917918
-0.027684703 0.03445513 0.044566825 0.24629918 -0.44492796 -0.43097383 -0.50458235 -1.3906451
0.07459541 0.11719558 0.0908469 0.18193778 0.013712234 -0.038551234 -0.060589008 -0.15688966
-0.058078676 -0.03430467 0.02446562 -0.007337507 -0.19571266 -0.041647866 0.006429518 0.10297946
0.025814874 0.09950862 0.034497086 -0.16687812 -0.09318147 0.11764126 -0.12425152 -0.077392705
00000000: 3445 f23b 7c39 113e 1ada df3d 8be7 123e
00000010: 4cb4 3bbd 34fc 38bd 21d8 93bd 868a b43d
00000020: 37be 053e 9712 013e aa17 f43d 99e3 5e3d
00000030: 924c 363d c528 8d3d 544b 833d 1744 47bd
00000040: a572 66bd 4695 933d 6ad5 023e 761e 863e
00000050: 44ad eebd 237c dcbc a1b4 ec3c 5fb5 273b
00000060: 9c1f 703b 1164 093e 14a0 09be a7ab 0cbf
00000070: 1d3f bebe 25b6 b1bf 49f7 993c 7598 293d
00000080: 89df bf3d 0267 a53d bba2 273e 862c 4bbc
00000090: 8b06 843b 2b42 723e 0fdc 8d3d 8f29 13be
000000a0: 2b75 d7bd 191f abbd 1b3b 173d 8be9 603d
000000b0: 1ff5 083e 699a 33bd 0d27 46bc 67e5 8f3e
000000c0: ca57 90be 1c67 93be 28d6 44be de29 67bf
000000d0: b778 3fbd 9b29 f33d 2cd1 46bd 0417 073d
000000e0: a6a4 b93d 880d b9bc bf33 1b3d a34a 99bc
000000f0: 530d 0abd e1b8 d7bd 8813 103c b46a 9a3c
00000100: 83ec afbd 2353 b03d 4d69 213e f0e1 563c
00000110: f701 31be 2c58 96bd 44ed 62bc 0896 983e
00000120: a22a 2d3d cc23 f9bb 056a 93be a9a7 e1bd
00000130: 295c 8bbd c62a fd3b 5280 47bd 4887 1bbe
00000140: 4ad2 be3d dccc 303e e3cc acbd 6a5a 00bf
00000150: 63c3 b6bd c0ee acbd 428a 6a3e 604c 6fbe
00000160: e8b7 aabe bf95 fcb7 7d8e 94bd 9911 653d
00000170: ab86 ac3c 7180 77be d0f0 40be ea9f ea3d
00000180: 4131 0c3e c8c3 93be 084e 80be 21e9 99be
00000190: 04eb 8bbd 9f37 383e 7554 04be 0d1a 88be
000001a0: 92db f7bd 136c 8ebe ed22 bb3c 0f06 0dbe
000001b0: 5f50 78bf c6ff 2cbe 86b5 653d 69da 56bd
000001c0: 73de 6e3d e093 513d caa1 bebd f5c4 edbd
000001d0: cee6 3e3e 79ef 04bf 6b32 debc c604 20bf
000001e0: f078 9abf e9dc debc 6401 99b9 2803 b3bd
000001f0: feac 9cbd be3c 293d d37b 59bd 207a 96b9
00000200: daa6 223e c9eb 573c 59bf 3d3e 0330 a63a
00000210: 6c2f 5abb 47e3 013e d1c6 15ba 7c2e 903d
00000220: 087d fabd dea1 09be 5b55 713d 9c6b c83d
00000230: 9200 b33e 9b4e f1bd c6ce e43d 26ed 30bd
00000240: 09f6 bdbc a626 f1bd fab3 03bd e755 1f3c
00000250: 9d5c 103e e7d1 c1bd 2f4e a33d 3625 cfbc
00000260: 215f 5cbd 4bfb dbbd 4bd8 3f3d 396b eb3d
00000270: 89b7 a33d b502 883e 0b71 e93b 754c c83d
00000280: a394 1b3e 5719 ab3c 03e3 363e 99bf 59bb
00000290: 9814 0cbd 491d b1bc 50f4 41bd a8c5 b83d
000002a0: 537e 8d3d 7e2f cbbd baa4 ae3c 350c ffbd
000002b0: 94e5 1f3d 93b9 3f3c da8d 973d aaa2 6cbe
000002c0: 156e 9dbe e7e0 47be 5e53 763e f4f8 0bbd
000002d0: bb68 24be b304 83bd f569 f1be 9e80 fdbd
000002e0: ec00 433d 37e6 9b3d 9790 9abc d1dd 183e
000002f0: bbc9 61bd 19d4 ffbb e66a 263e 3b78 a5be
00000300: 0381 ffbc 77cf 10be 69a5 a5bf ff6a c03c
00000310: 916a 08bd 8b30 043d b77e 653d b8f5 133e
00000320: 8d37 24be 4916 0d3d 5b77 263e 1118 903d
00000330: 1cd8 41bd 74b5 1cbd 3e24 e0bc a75c eabd
00000340: e1ab d0be b833 653e c3f2 2f3d c678 103e
00000350: 3f33 aa3d e6ce 4fbe a0bf bfbd 2359 f83d
00000360: 690d db3d 66fb 4b3d 71eb a03d edbf fcbe
00000370: 7412 483b 0121 42bb 0fae 65bd 11e1 32bc
00000380: 08cb e2bc d320 0d3d b48b 363d da35 7c3e
00000390: 99cd e3be 9aa8 dcbe 4f2c 01bf a900 b2bf
000003a0: 7ac5 983d 3c04 f03d f10d ba3d e64d 3a3e
000003b0: 47a9 603c e6e7 1dbd 2e2c 78bd afa7 20be
000003c0: e8e3 6dbd 0e83 0cbd 206c c83c 786f f0bb
000003d0: e668 48be f496 2abd b5ae d23b e5e6 d23d
000003e0: b779 d33c 2dcb cb3d d14c 0d3d 19e2 2abe
000003f0: edd5 bebd e7ed f03d 9577 febd 1180 9ebd

fc_layers.0.bias f4 [64]
-0.13202198 0.0954418 0.10262077 0.056970373 -0.07851542 -0.0075491345 0.022866221 -0.01726583
-0.20307799 0.11617818 -0.030831499 -0.02422564 -0.04252684 -0.06552047 -0.1793234 -0.023035625
-0.08817549 0.0808687 0.16389276 -0.16008195 0.084134914 -0.026842223 0.016435925 0.04705771
-0.09446883 -0.13479821 -0.12468733 -0.05808347 0.1710123 0.07569611 -0.040980246 -0.17470863
-0.17963368 -0.08198657 -0.04423631 0.08934198 0.030471465 -0.0973089 0.20916265 -0.109562784
-0.17764896 0.005057452 -0.11936175 0.051893186 0.1474457 -0.039618265 -0.11908556 0.066974714
-0.2488263 0.07484896 -0.035723966 0.11746973 -0.05695915 -0.013144225 0.022047842 0.12865989
0.14658776 0.16994578 -0.052601647 0.0061720996 0.0026917697 -0.03776683 -0.027564827 -0.24001472
00000000: c530 07be fe76 c33d d72a d23d c459 693d
00000010: b1cc a0bd bb5e f7bb f151 bb3c 1271 8dbc
00000020: adf3 4fbe d3ee ed3d 5792 fcbc d974 c6bc
00000030: a030 2ebd 992f 86bd 8ea0 37be 35b5 bcbc
00000040: 5a95 b4bd 7d9e a53d 81d3 273e 86ec 23be
00000050: ed4e ac3d 39e4 dbbc a2a4 863c 96bf 403d
00000060: e078 c1bd 8b08 0abe 125c ffbd efe8 6dbd
00000070: d91d 2f3e 9006 9b3d e7da 27bd d2e6 32be
00000080: e4f1 37be 93e8 a7bd 2231 35bd eef8 b63d
00000090: 4b9f f93c e349 c7bd bc2e 563e 7462 e0bd
000000a0: 9ce9 35be fbb8 a53b ef73 f4bd f38d 543d
000000b0: 01fc 163e c346 22bd 21e3 f3bd 0a2a 893d
000000c0: 52cc 7ebe 694a 993d 4b53 12bd f893 f03d
000000d0: ff4d 69bd e05a 57bc ad9d b43c 6bbf 033e
000000e0: 1a1b 163e 4406 2e3e d374 57bd 533f ca3b
000000f0: 6768 303b 64b1 1abd a2cf e1bc 6bc6 75be

fc_layers.1.weight f4 [64, 64]
-0.02313662 0.17417453 -0.044303957 0.09574243 0.04087606 0.03442423 0.17137618 -0.044066302
-0.029459517 0.0911829 0.15575007 -0.10133946 0.08720885 -0.092817955 0.16486837 0.13699721
-0.053980857 0.016950782 0.08880534 0.06833533 0.11948827 0.17072247 0.013795626 0.06916785
0.06670016 0.12224144 0.077158645 0.018433379 0.18618497 -0.065934636 0.07531696 0.059835896
0.021737421 -0.028838929 0.2813552 0.009953324 0.14021079 -0.1902549 0.16286586 0.1216645
0.011252328 0.14804408 -0.046458513 -0.13295941 0.19729865 0.15768287 0.09304621 0.09689801
0.010615655 0.083011016 0.20675193 0.13666858 0.07488787 -0.14217496 -0.05836612 0.26844612
0.31141815 0.13598442 -0.0052155787 0.2997263 0.11947689 -0.032800227 0.070867255 -0.032556187
0.28017366 0.09407864 0.02646014 -0.0900156 0.16340852 -0.115353696 -0.15013103 -0.06541796
-0.06776251 -0.18152194 0.067186676 -0.3082763 0.03174522 0.04981667 0.024700297 0.07185017
0.0063726 -0.107058965 0.1392692 -0.092757635 -0.070378296 0.49735567 0.1284014 -0.016625857
0.079121836 -0.09077865 0.024583679 0.14377806 -0.03993986 0.075530514 0.09146127 0.044839326
0.0433769 0.16475607 -0.033581365 -0.12266862 0.07088264 -0.15194254 0.11300239 -0.046313684
-0.118967645 0.10640222 0.10465399 0.034164667 0.2473709 0.06474486 -0.11444961 0.17457542
-0.062070448 -0.021101117 -0.04085702 0.1308248 -0.16726245 -0.14241529 0.039073814 -0.20373191
0.2949671 0.012126059 0.037570495 0.11998657 0.12637623 0.21141122 -0.07069903 -0.083456784
-0.31359512 0.090309665 0.1355522 0.088400945 -0.12876534 0.047238957 0.00064426695 -0.10127371
-0.023972876 0.18582426 0.15310766 0.271593 -0.15457283 0.010756358 -0.059244696 -0.03882262
0.10429925 -0.11599643 -0.18530008 -0.10282302 -0.06551038 -0.23520255 0.087719046 -0.08267528
-0.05050294 -0.06183694 -0.13907234 -0.039130643 0.19034943 -0.08919526 -0.08835486 -0.045450766
0.010458892 -0.065865085 0.028648892 -0.0567052 0.06261041 -0.08981062 0.2303069 0.0009310605
-0.21834603 -0.13441177 -0.013733054 -0.0046101105 0.041414987 -0.01476522 -0.0539955 -0.10906655
0.073759146 -0.027125264 0.14567384 0.029807247 0.090550825 -0.19947451 0.008585356 0.29385963
-0.032046676 0.024002852 0.06232323 -0.37862602 0.29061058 -0.119321376 -0.029752018 -0.012257618
-0.103817195 0.23550859 0.05331439 -0.021501394 0.005982861 -0.21093465 0.013209964 0.16920255
0.08683715 -0.028021313 0.19197696 -0.16742992 0.073784985 0.0102300225 0.2936869 0.10414732
0.07283059 -0.04494852 0.1602174 -0.21211119 -0.037875894 -0.005115005 -0.080566585 -0.1428064
0.049535204 -0.13491386 0.16956902 0.030114422 0.00804039 -0.049795955 -0.051583476 -0.16311505
0.061160143 -0.16954735 0.32014507 -0.07082697 -0.3463966 -0.048741102 -0.19287445 -0.090758264
-0.023798114 -0.15067919 0.009892603 0.19544628 -0.11485939 -0.09903477 0.02776842 -0.048918255
-0.12650302 0.07783658 -0.01962664 0.022350494 -0.018152764 -0.289126 0.13447861 -0.081899345
0.13844322 -0.027527971 0.11398616 -0.10182627 0.026325712 0.1479809 -0.20382437 -0.07369753
00000000: 0289 bdbc cf5a 323e 1178 35bd 9b14 c43d
00000010: a86d 273d 6c00 0d3d 3d7d 2f3e de7e 34bd
00000020: 1655 f1bc 1abe ba3d f27c 1f3e 108b cfbd
00000030: 8e9a b23d 5717 bebd 41d3 283e ff48 0c3e
00000040: 081b 5dbd 5edc 8a3c 93df b53d 65f3 8b3d
00000050: 44b6 f43d dfd1 2e3e 0d07 623c e0a7 8d3d
00000060: 189a 883d b859 fa3d 5a05 9e3d 9901 973c
00000070: 46a7 3e3e bd08 87bd c73f 9a3d 7c16 753d
00000080: ad12 b23c 9e3f ecbc ca0d 903e 4413 233c
00000090: 6b93 0f3e 2ed2 42be 4fc6 263e 3d2b f93d
000000a0: af5b 383c de98 173e 484b 3ebd 8326 08be
000000b0: a808 4a3e 9e77 213e 038f be3d 7772 c63d
000000c0: 49ed 2d3c ae01 aa3d c7b6 533e d9f2 0b3e
000000d0: d05e 993d 5096 11be 5011 6fbd c571 893e
000000e0: 3372 9f3e 803f 0b3e 72e7 aabb ba75 993e
000000f0: 4db0 f43d 8859 06bd da22 913d a359 05bd
00000100: ec72 8f3e 4dac c03d efc2 d83c 195a b8bd
00000110: 9054 273e 8f3e ecbd f3bb 19be daf9 85bd
00000120: 12c7 8abd e3e0 39be 2b99 893d 64d6 9dbe
00000130: 4707 023d 910c 4c3d 4758 ca3c 2f26 933d
00000140: 3ed1 d03b bb41 dbbd 969c 0e3e b7f7 bdbd
00000150: 7f22 90bd 67a5 fe3e a87b 033e f332 88bc
00000160: a10a a23d 28ea b9bd b663 c93c 8e3a 133e
00000170: fb97 23bd beaf 9a3d 0c50 bb3d 71a9 373d
00000180: faab 313d d1b5 283e 9d8c 09bd af39 fbbd
00000190: eb2a 913d d396 1bbe cc6d e73d 6bb3 3dbd
000001a0: 4fa5 f3bd 68e9 d93d d554 d63d 40f0 0b3d
000001b0: cc4e 7d3e f498 843d 8f64 eabd e6c3 323e
000001c0: 953d 7ebd 40dc acbc b159 27bd f0f6 053e
000001d0: d946 2bbe 50d5 11be dd0b 203d 199f 50be
000001e0: ed05 973e 61ac 463c 85e3 193d 85bb f53d
000001f0: c568 013e 2f7c 583e a7ca 90bd 64eb aabd
00000200: 8a8f a0be 46f4 b83d 32ce 0a3e 8e0b b53d
00000210: 10db 03be a37d 413d 06e4 283a 9768 cfbd
00000220: c462 c4bc b748 3e3e 41c8 1c3e 3d0e 8b3e
00000230: 5748 1ebe 6f3b 303c 91aa 72bd 7804 1fbd
00000240: d89a d53d 898f edbd 4ebf 3dbe e094 d2bd
00000250: 4e2a 86bd f0d8 70be 0ba6 b33d a851 a9bd
00000260: 2cdc 4ebd bb48 7dbd fb68 0ebe 7447 20bd
00000270: f6ea 423e 01ac b6bd 65f3 b4bd 952a 3abd
00000280: c65b 2b3c 46e4 86bd 15b1 ea3c b643 68bd
00000290: e339 803d a1ee b7bd 92d5 6b3e 6a12 743a
000002a0: 1a96 5fbe 3da3 09be 9a00 61bc 6910 97bb
000002b0: c3a2 293d d2e9 71bc 632a 5dbd 495e dfbd
000002c0: 090f 973d cd35 debc 862b 153e 542e f43c
000002d0: b672 b93d 0c43 4cbe 98a9 0c3c c574 963e
000002e0: 6043 03bd a1a1 c43c a546 7f3d 45db c1be
000002f0: e9ca 943e c45e f4bd 81ba f3bc 2dd4 48bc
00000300: 1c9e d4bd 2a29 713e 3160 5a3d b123 b0bc
00000310: e00b c43b 41ff 57be 9b6e 583c 6f43 2d3e
00000320: add7 b13d f48c e5bc 9c95 443e c072 2bbe
00000330: 951c 973d d39b 273c 215e 963e 314b d53d
00000340: 3428 953d f01b 38bd 0810 243e ad33 59be
00000350: c123 1bbd c69b a7bb 1800 a5bd d73b 12be
00000360: 6de5 4a3d dc26 0abe 80a3 2d3e 85b2 f63c
00000370: d7bb 033c d8f6 4bbd 3249 53bd a207 27be
00000380: 0f83 7a3d d29d 2dbe 0eea a33e bb0d 91bd
00000390: e55a b1be c0a4 47bd e180 45be 78df b9bd
000003a0: 43f4 c2bc a54b 1abe 9614 223c 1223 483e
000003b0: 663b ebbd bed2 cabd 997a e33c 825e 48bd
000003c0: 028a 01be c968 9f3d 0cc8 a0bc 6218 b73c
000003d0: 1bb5 94bc 5308 94be c3b4 093e d8ba a7bd
000003e0: 0fc4 0d3e 5782 e1bc 9371 e93d 4b8a d0bd
000003f0: 05a9 d73c 4e88 173e 56b7 50be bbee 96bd

fc_layers.1.bias f4 [64]
0.46564466 0.074794725 0.07851482 0.01752504 -0.17662895 0.20193797 0.061271336 -0.004752822
0.2149626 0.038349543 -0.1890315 0.071934834 0.049050733 0.030517437 -0.025873855 0.0063996078
-0.06698363 0.34812975 -0.06453483 0.12034468 -0.16787189 -0.025867939 -0.12203541 0.46840653
0.44888952 -0.026302911 -0.024017889 0.123118326 -0.049172547 -0.1721303 0.04298405 0.0511744
-0.021932034 0.09597698 0.013272681 -0.15597856 0.34643993 0.0048961933 0.08838632 0.021343406
0.02792278 0.05330854 0.0051216413 0.15018703 -0.05606178 0.10541496 0.02127544 0.19309787
-0.09489968 0.087760985 -0.15636958 -0.034219623 -0.14000362 0.008883943 0.078700036 0.05428912
-0.006304747 -0.010930025 0.15975168 0.01698968 0.06526588 -0.112120785 -0.033355802 0.086526476
00000000: fa68 ee3e fa2d 993d 61cc a03d ac90 8f3c
00000010: 38de 34be d4c8 4e3e a7f7 7a3d 90bd 9bbb
00000020: 281f 5c3e 6914 1d3d 7991 41be 9252 933d
00000030: 6ce9 483d b4ff f93c 68f5 d3bc cdb3 d13b
00000040: b72e 89bd 103e b23e d62a 84bd 4677 f63d
00000050: 9ce6 2bbe 00e9 d3bc b3ed f9bd fbd2 ef3e
00000060: d9d4 e53e 3479 d7bc 2ac1 c4bc 7625 fc3d
00000070: 2769 49bd ed42 30be 0b10 303d 3f9c 513d
00000080: cfaa b3bc 948f c43d a975 593c d8b8 1fbe
00000090: 9360 b13e 3f70 a03b e303 b53d 5ed8 ae3c
000000a0: 50be e43c 0e5a 5a3d 71d3 a73b a1ca 193e
000000b0: 09a1 65bd cce3 d73d d549 ae3c 73bb 453e
000000c0: c35a c2bd 08bc b33d 591f 20be e029 0cbd
000000d0: 1c5d 0fbe f58d 113c 7c2d a13d 455e 5e3d
000000e0: 0d98 cebb d913 33bc f295 233e f12d 8b3c
000000f0: 1eaa 853d 959f e5bd 18a0 08bd cb34 b13d

fc_layers.2.weight f4 [4, 64]
0.25136763 0.10095857 0.22412372 0.13466516 -0.39258075 0.13286583 0.15155673 0.03306734
0.19947799 -0.19066516 -0.1600684 0.0069628097 0.096484646 0.18928692 -0.072347045 0.19078086
0.06200673 0.14569141 0.18701556 0.28051832 -0.2241788 0.41979426 0.1676071 0.1803217
0.13027363 0.13780941 0.07423062 0.20150842 -0.2079406 -0.09688068 -0.3719144 0.32192928
-0.016403608 0.16986988 -0.033774924 -0.1488103 0.15906808 0.08325207 0.5167559 -0.062910974
0.114666745 0.10391722 -0.01987528 0.2104889 0.15239191 0.124892876 0.14432357 0.39159158
-0.054879166 0.011987051 -0.0842945 0.28878793 -0.14271316 0.120090224 -0.27046746 -0.00590154
0.18305415 -0.047233824 0.1419841 0.37360683 0.33013007 0.24717225 0.24738769 0.3206037
0.17143722 0.15038131 0.14714977 -0.07683896 -0.10550642 0.115595795 0.12623675 0.06623823
0.089698106 -0.096023105 -0.11899955 -0.21060318 0.13348056 -0.20344797 0.06954481 0.38877165
0.1301725 0.115906246 0.10399141 0.38776258 -0.12513378 0.31165004 -0.13564076 0.12120624
0.18523319 0.26163456 0.08635216 0.23270904 0.039200395 -0.13561091 -0.32879055 0.25632828
0.031708997 0.13129124 -0.027614683 0.15493035 0.0855601 0.1790353 0.46421716 -0.08156715
0.0024229968 0.18433154 0.08922322 0.20677307 0.17068045 0.16696061 0.17122364 0.26889408
-0.15236387 -0.114149585 0.069391616 0.25492918 -0.040214166 0.33450827 -0.06321537 0.080539204
0.38683853 -0.37912065 0.1341347 0.22139229 0.3176353 0.2255249 0.40249753 0.20059514
0.15285957 0.15870515 0.04777234 0.23781624 0.10888356 0.17554043 -0.06529789 -0.042505857
0.010233287 -0.066435404 0.22538131 -0.24966903 -0.5205012 0.48806205 0.18437582 0.08395508
0.32132748 0.13362567 0.13442878 0.19361228 0.03745582 -0.024890924 -0.15361191 0.21030894
0.11953208 0.07936212 0.19308172 0.30286333 -0.08865848 -0.2254245 -0.28732803 0.2246366
0.0501199 0.21621707 -0.08686411 -0.07095497 0.14549388 -0.020997733 0.808477 -0.13306348
0.09445096 0.3681876 0.18391357 0.07962879 0.27609012 0.15607905 0.23501424 0.27156758
-0.19362122 -0.25748625 -0.067353055 0.18998273 -0.0033203291 0.202585 -0.121189386 -0.23954369
0.70196706 -0.5223146 0.25137717 0.50037175 0.36769295 0.52657545 -0.010672884 0.07125133
0.13328941 0.14687067 0.0687556 0.098072454 -0.3326447 0.18391232 -0.13334663 0.1720897
0.008160141 -0.48318154 -0.11068541 0.16354303 -0.094767876 0.22679295 0.1350738 0.42010248
0.17780846 0.14797565 -0.01958699 0.25262174 0.16938399 0.11015674 -0.33270028 0.20593505
0.1446438 0.14398713 0.18318218 0.24798295 -0.08734182 0.008512308 -0.41297933 0.0025409467
0.33595988 0.15320377 0.22040385 0.24366528 0.12501837 0.18531162 0.4132145 -0.24070379
0.13984488 0.14494978 0.004470702 0.06005998 0.391001 0.39967215 0.40818736 0.28927746
-0.37526047 -0.0049431003 0.042073864 0.56740206 -0.2052915 -0.3491006 -0.13184777 0.026270192
0.04636472 -0.105891965 0.21755633 0.2993008 -0.00872452 0.1753139 0.38076892 0.3270786
00000000: 42b3 803e 5ec3 ce3d b080 653e aae5 093e
00000010: 5800 c9be fb0d 083e b031 1b3e 9e71 073d
00000020: f543 4c3e ba3d 43be f8e8 23be 4828 e43b
00000030: be99 c53d 6ed4 413e b02a 94bd 0f5c 433e
00000040: c5fa 7d3d 2130 153e 0281 3f3e 19a0 8f3e
00000050: 218f 65be 46ef d63e 32a1 2b3e 40a6 383e
00000060: 7366 053e e91d 0d3e 3906 983d 3958 4e3e
00000070: 61ee 54be 6169 c6bd 906b bebe ead3 a43e
00000080: dc60 86bc 5ff2 2d3e 9357 0abd ba61 18be
00000090: bee2 223e 1080 aa3d 1d4a 043f 78d7 80bd
000000a0: 66d6 ea3d 8dd2 d43d 7cd1 a2bc 678a 573e
000000b0: a00c 1c3e d6c7 ff3d 8fc9 133e b17e c83e
000000c0: fac8 60bd 5665 443c 98a2 acbd 03dc 933e
000000d0: 6623 12be ddf1 f53d b67a 8abe b561 c1bb
000000e0: 8c72 3b3e 4178 41bd 4864 113e 6549 bf3e
000000f0: cf06 a93e b91a 7d3e 3353 7d3e 2b26 a43e
00000100: 3d8d 2f3e 8ffd 193e 6eae 163e bf5d 9dbd
00000110: c013 d8bd 7dbd ec3d 3544 013e e9a7 873d
00000120: a4b3 b73d c3a7 c4bd 09b6 f3bd 5ca8 57be
00000130: 21af 083e aa54 50be 826d 8e3d 140d c73e
00000140: f14b 053e 4160 ed3d 73f9 d43d d188 c63e
00000150: 1223 00be 9890 9f3e 69e5 0abe fa3a f83d
00000160: c5ad 3d3e f7f4 853e 67d9 b03d 474b 6e3e
00000170: 9890 203d 96dd 0abe 3c57 a8be 763d 833e
00000180: 4be1 013d 3671 063e 3038 e2bc 10a6 1e3e
00000190: 223a af3d 0855 373e dfad ed3e ae0c a7bd
000001a0: 24cb 1e3b 68c1 3c3e aaba b63d 52bc 533e
000001b0: dbc6 2e3e b9f7 2a3e 4055 2f3e 7cac 893e
000001c0: 4605 1cbe 42c7 e9bd 311d 8e3d 1486 823e
000001d0: 9cb7 24bd ab44 ab3e 0f77 81bd bdf1 a43d
000001e0: b30f c63e 1a1c c2be 9b5a 093e a9b4 623e
000001f0: 18a1 a23e 00f0 663e 2814 ce3e d068 4d3e
00000200: 3887 1c3e 9a83 223e eeac 433d 1a86 733e
00000210: 58fe de3d dfc0 333e e6ba 85bd 9f1a 2ebd
00000220: 84a9 273c 490f 88bd 5cca 663e 3da9 7fbe
00000230: 913f 05bf 45e3 f93e 04cd 3c3e a4f0 ab3d
00000240: 0985 a43e 2bd5 083e b3a7 093e 4c42 463e
00000250: 466b 193d 0de8 cbbc 714c 1dbe 3a5b 573e
00000260: 3ccd f43d 9b88 a23d 37b7 453e e710 9b3e
00000270: 9492 b5bd aed5 66be a91c 93be 2307 663e
00000280: 864a 4d3d 0268 5d3e cfe5 b1bd d750 91bd
00000290: 59fc 143e 7003 acbc 59f8 4e3f cb41 08be
000002a0: 816f c13d 1683 bc3e d753 3c3e 6b14 a33d
000002b0: af5b 8d3e 30d3 1f3e 93a7 703e e80a 8b3e
000002c0: a444 46be 3dd5 83be 66f0 89bd d58a 423e
000002d0: e199 59bb 7172 4f3e 2432 f8bd f14a 75be
000002e0: 1db4 333f 69b6 05bf 82b4 803e 5d18 003f
000002f0: 4042 bc3e a6cd 063f 52dd 2ebc 38ec 913d
00000300: 057d 083e 4465 163e bccf 8c3d 36da c83d
00000310: 6850 aabe 8353 3c3e 058c 08be 4838 303e
00000320: 1db2 053c 9263 f7be 08af e2bd d377 273e
00000330: a915 c2bd 693c 683e c950 0a3e ac17 d73e
00000340: 6c13 363e ee86 173e e574 a0bc a357 813e
00000350: ff72 2d3e db99 e13d b157 aabe a3e0 523e
00000360: 811d 143e 5d71 133e 1c94 3b3e 3eef 7d3e
00000370: 45e0 b2bd 3577 0b3c 0772 d3be 0386 263b
00000380: ef02 ac3e 73e1 1c3e 8cb1 613e 6483 793e
00000390: d104 003e 54c2 3d3e da90 d33e 0e7b 76be
000003a0: 7f33 0f3e b76d 143e f77e 923b 7401 763d
000003b0: 4831 c83e d4a1 cc3e effd d03e 2d1c 943e
000003c0: 2422 c0be bbf9 a1bb a555 2c3d 4341 113f
000003d0: ef37 52be 50bd b2be 1a03 07be 9634 d73c
000003e0: efe8 3d3d e3dd d8bd 16c7 5e3e f43d 993e
000003f0: 4af1 0ebc 7d85 333e 25f4 c23e d976 a73e

fc_layers.2.bias f4 [4]
0.21427688 0.29976982 0.29039475 0.2743783
00000000: 666b 5b3e 6e7b 993e 9fae 943e 507b 8c3e
