param6_solved_706.pth (torch, 2911 bytes, 4 tensors)

fc_layers.0.weight f4 [8, 37]
-0.02834998 0.14366451 0.31796265 0.14312212 -0.23449586 -0.29656702 0.35923123 0.012013515
-0.16278313 -0.8896607 0.2121767 0.01078376 0.0871619 0.19790955 0.1300958 -0.43094227
0.24355944 0.2868834 -0.078097336 -0.44331077 0.24241188 0.0010188433 -0.0036145581 -0.0009864377
0.17880177 -0.49862066 0.20558976 0.1453649 -0.346769 -0.9531881 -0.08998578 0.2238215
0.18975364 0.040252067 0.0027363836 0.051643852 -0.029989539 0.3488843 0.35217896 0.34469685
0.36551726 0.054013155 0.4049487 0.41746643 0.319743 0.37885773 -0.02605349 0.26239687
0.24823365 0.28713784 0.3107764 0.12870382 0.34483156 0.3520997 0.3131896 0.3465639
0.010717908 0.39063665 0.2290925 0.25851 0.31085274 0.2375424 0.4822293 0.19999893
0.2299914 0.2690663 -0.016441708 0.4410641 0.13010833 0.13317986 0.20896393 -0.032011162
0.005531711 -0.027889408 -0.037854955 -0.030055096 -0.026304848 -0.030268574 -0.03870774 0.6379941
-1.0449888 -0.7908666 -0.84540266 -2.7882788 0.094606124 0.14727035 0.097464085 0.112100594
-0.035530128 0.072483376 0.0684252 0.11884663 0.16408406 0.102246985 -0.05226662 0.038700726
0.08570508 0.13468945 0.09203828 -0.050650693 0.049593158 0.045469258 0.10853919 0.1127713
-0.031658698 0.017457942 0.05433374 0.1428815 0.15053216 -0.0071731326 0.004231669 0.35308623
0.26365897 0.2864864 0.27158913 0.0038439902 0.11277075 0.27531356 0.3637061 0.3960617
0.11501018 0.38036817 0.19333045 0.19200282 0.21394764 -0.034913786 0.41642004 0.24334121
0.24407946 0.2514861 -0.11331799 0.67187405 0.11787254 0.14116535 0.1875416 0.02566937
0.1590686 0.37606016 0.26597828 0.18167518 -0.17748936 0.2113692 0.38324904 0.33413753
0.29052344 0.082031496 -0.0017216044 0.041385427 -0.0041262307 -0.027913416 -0.030628564 -0.04595585
-0.0076806084 -0.1692683 -0.031181231 -0.044613305 -0.014306196 0.038025446 0.0006272981 -0.05961288
0.011595568 0.051292058 0.1981282 -0.06680029 -0.08076615 -0.112349406 -0.04484552 0.033930212
0.17502286 -0.6073324 -0.3787883 0.10991444 0.9093878 -0.14618072 -0.13334176 -0.1728209
-0.060898528 0.14925048 0.034240905 -0.17379199 -0.06381394 0.05378624 0.38152248 0.0033683337
-0.0042551234 -0.010168576 0.03659377 0.024116375 0.025152551 -0.02917337 -0.009969074 -0.040453658
-0.0016795594 -0.020143276 0.021832936 -0.03054329 -0.030367542 0.018109996 0.014212758 0.08562174
-0.06458913 0.0036088368 0.016619122 0.016534902 0.06691306 -0.07467164 -0.10850392 -0.10734046
-0.10137235 -0.052933995 0.004823553 0.018570626 0.032528367 0.122499205 0.12420482 0.38233325
-0.50873214 -0.335755 -0.3302465 -2.4072416 0.04420159 0.025760854 -0.0094028935 -0.054106362
-0.025084836 0.049253967 0.05500743 -0.027102003 -0.07111509 -0.024180563 0.014104316 0.05746147
0.10087888 0.14213997 0.14606033 0.1350356 -0.022690935 0.0083922 -0.0024761595 -0.12754202
-0.13543321 -0.18202135 -0.047746513 -0.013407081 0.016889669 0.032479312 0.0735762 0.3741165
-0.14970411 -0.299113 -0.2700123 -1.9815167 -0.08393496 -0.04598426 -0.03169179 -0.028012758
00000000: 383e e8bc ca1c 133e 00cc a23e 9b8e 123e
00000010: af1f 70be a2d7 97be 28ed b73e 56d4 443c
00000020: 9fb0 26be cec0 63bf d944 593e 5eae 303c
00000030: f081 b23d cda8 4a3e d537 053e 77a4 dcbe
00000040: a567 793e 62e2 923e 7ff1 9fbd a1f9 e2be
00000050: d23a 783e b58a 853a 39e2 6cbb 5b4b 81ba
00000060: d017 373e 354b ffbe 1f86 523e 89da 143e
00000070: b58b b1be 2304 74bf 774a b8bd 7731 653e
00000080: c74e 423e 5adf 243d e654 333b 8188 533d
00000090: 9fac f5bc f7a0 b23e cd50 b43e 1b7c b03e
000000a0: 1425 bb3e e63c 5d3d 7055 cf3e 29be d53e
000000b0: 5bb5 a33e a4f9 c13e 216e d5bc e258 863e
000000c0: f630 7e3e bb03 933e 161e 9f3e efca 033e
000000d0: c38d b03e 6946 b43e 635a a03e d370 b13e
000000e0: 2a9a 2f3c 8701 c83e 3997 6a3e 6c5b 843e
000000f0: 1728 9f3e 513e 733e c2e6 f63e 85cc 4c3e
00000100: de82 6b3e 0fc3 893e c3b0 86bc 27d3 e13e
00000110: 1e3b 053e 4d60 083e a4fa 553e 231e 03bd
00000120: 5b43 b53b 5478 e4bc cc0d 1bbd 1b36 f6bc
00000130: 447d d7bc cdf5 f7bc 028c 1ebd 9553 233f
00000140: 31c2 85bf 3c76 4abf 4f6c 58bf 2973 32c0
00000150: dbc0 c13d 0ace 163e 409b c73d ff94 e53d
00000160: 0a88 11bd 2a72 943d 8322 8c3d dd65 f33d
00000170: a705 283e de66 d13d 8615 56bd a784 1e3d
00000180: 2586 af3d 08ec 093e 917e bc3d 1a77 4fbd
00000190: 3222 4b3d f93d 3a3d cb49 de3d a4f4 e63d
000001a0: 8dac 01bd f503 8f3c 0e8d 5e3d 874f 123e
000001b0: 1a25 1a3e 990c ebbb d0a9 8a3b b8c7 b43e
000001c0: 4ffe 863e 58ae 923e bb0d 8b3e 74eb 7b3b
000001d0: 5af4 e63d e6f5 8c3e b037 ba3e 99c8 ca3e
000001e0: 758a eb3d 9ebf c23e 6bf8 453e 639c 443e
000001f0: 1715 5b3e c201 0fbd 0235 d53e 702e 793e
00000200: f7ef 793e c9c2 803e 4313 e8bd f0ff 2b3f
00000210: 2967 f13d a68d 103e e80a 403e 9248 d23c
00000220: e1e2 223e f58a c03e 4e2e 883e 0f09 3a3e
00000230: c5bf 35be 2b71 583e 3839 c43e 1314 ab3e
00000240: 7dbf 943e 2100 a83d 75a7 e1ba c483 293d
00000250: 5535 87bb adaa e4bc c1e8 fabc 343c 3cbd
00000260: 9dad fbbb ab54 2dbe c86f ffbc 71bc 36bd
00000270: 8964 6abc 92c0 1b3d 4371 243a a32c 74bd
00000280: 56fb 3d3c 9f17 523d 1ee2 4a3e 97ce 88bd
00000290: b968 a5bd 7217 e6bd f0af 37bd 68fa 0a3d
000002a0: 3139 333e 237a 1bbf 8af0 c1be d21a e13d
000002b0: a4cd 683f 66b0 15be be8a 08be f6f7 30be
000002c0: bc70 79bd 1ed5 183e 3140 0c3d 87f6 31be
000002d0: e2b0 82bd f64e 5c3d ea56 c33e 43bf 5c3b
000002e0: 906e 8bbb 199a 26bc 59e3 153d b48f c53c
000002f0: b90c ce3c fefc eebc 5455 23bc bcb2 25bd
00000300: a924 dcba 8303 a5bc fcda b23c ec35 fabc
00000310: 5ac5 f8bc 6a5b 943c a1dc 683c 735a af3d
00000320: 4e47 84bd 3c82 6c3b d324 883c 3474 873c
00000330: b709 893d 72ed 98bd 4e37 debd 51d5 dbbd
00000340: 4e9c cfbd 51d1 58bd e50e 9e3b 6d21 983c
00000350: 773c 053d dde0 fa3d 195f fe3d 2fc1 c33e
00000360: 453c 02bf 14e8 abbe 1216 a9be 3f10 1ac0
00000370: ba0c 353d 6d08 d33c 980e 1abc a29e 5dbd
00000380: b77e cdbc 87be 493d 794f 613d 0505 debc
00000390: caa4 91bd 5116 c6bc ca15 673c b85c 6b3d
000003a0: 9699 ce3d 248d 113e d790 153e c646 0a3e
000003b0: 57e2 b9bc 707f 093c 1047 22bb 609a 02be
000003c0: 01af 0abe ce63 3abe d991 43bd 60a9 5bbc
000003d0: 345c 8a3c 0709 053d 1eaf 963d 338c bf3e
000003e0: 094c 19be 5725 99be 0d3f 8abe 57a2 fdbf
000003f0: 18e6 abbd fe59 3cbd 40cf 01bd 037b e5bc

fc_layers.0.bias f4 [8]
0.09046789 0.4940739 0.16088784 0.44112593 -0.026013913 0.029785302 -0.06311664 -0.14567518
00000000: 3b47 b93d 41f7 fc3e c8bf 243e 42db e13e
00000010: 211b d5bc 4e00 f43c 4c43 81bd e02b 15be

fc_layers.1.weight f4 [4, 8]
-0.073628925 0.4262292 0.7941658 0.22845756 -0.26624206 0.17890264 0.14558022 0.12555756
-0.13115232 0.3962563 0.7248262 0.23668453 -0.28492075 0.10930286 0.07374622 0.08089498
-0.06210324 0.33927026 0.07915589 0.3893029 -0.42916748 1.0811132 0.12453368 -0.32044366
-0.15808594 0.30598664 0.14872476 0.2830441 -0.29583097 0.070861205 1.1043377 -0.23412047
00000000: c3ca 96bd b73a da3e 734e 4b3f c7f0 693e
00000010: e150 88be 4132 373e fb12 153e 2992 003e
00000020: cb4c 06be 1be2 ca3e 368e 393f 6e5d 723e
00000030: 22e1 91be 2eda df3d 4208 973d 44ac a53d
00000040: f85f 7ebd d5b4 ad3e 7c1c a23d b652 c73e
00000050: d7bb dbbe eb61 8a3f 840b ff3d 3111 a4be
00000060: 48e1 21be 48aa 9c3e 4e4b 183e 28eb 903e
00000070: 2877 97be ae1f 913d f05a 8d3f 47bd 6fbe

fc_layers.1.bias f4 [4]
0.28898367 0.31835964 0.1088952 0.46877888
00000000: abf5 933e 0900 a33e 7204 df3d c903 f03e
