param2_fully_trained.pth (torch, 29335 bytes, 6 tensors)

fc_layers.0.weight f4 [64, 37]
0	0x3e47f36c	0.19526452
1	0x3e3efaa4	0.186503
2	0x3dc949d2	0.09828533
3	0x3dd39dd0	0.10332835
4	0x3c8c2c4b	0.017110964
5	0x3ddb178f	0.10697853
6	0x3e25926c	0.16169137
7	0x3dfb4d0f	0.12270557
8	0x3e58a62f	0.21157144
9	0x3d8b3756	0.06797664
10	0x3de37822	0.11106898
11	0x3e4afd1b	0.19823115
12	0x3dd982b6	0.10620634
13	0x3e2fc9e8	0.17166865
14	0xbca078fb	-0.019588938
15	0x3e095f89	0.1341535
16	0x3dd57c25	0.10424069
17	0x3d27a727	0.040930893
18	0x3e2a557c	0.16634172
19	0x3dfb111e	0.12259124
20	0xbda3618c	-0.0797759
21	0x3c59abcf	0.013285591
22	0x3d97a85c	0.07405159
23	0x3cf61463	0.030039018
24	0x3c42b5a5	0.011884128
25	0x3eade1eb	0.33961424
26	0xbf499681	-0.78745276
27	0xbf4fbaab	-0.8114421
28	0xbf910f73	-1.133284
29	0xc04ad08b	-3.1689785
30	0x3c24c11a	0.010055805
31	0x3dbaf916	0.091295406
32	0x3dea9ef4	0.11456099
33	0x3e8a5e16	0.27024907
34	0x3d70b383	0.058764946
35	0xbcb49945	-0.02204574
36	0xba7e55e3	-0.0009702129
37	0x3f087353	0.5330097
38	0xbe9aa629	-0.30204895
39	0xbe6e2280	-0.23255348
40	0xbf254eba	-0.6457325
41	0xc009ee97	-2.1551874
42	0x3cdbc382	0.026826624
43	0x3e23eb43	0.16007714
44	0x3e3b8b62	0.18314889
45	0xbe15fdc7	-0.1464759
46	0x3d785cdf	0.060635444
47	0x3e004b57	0.1252874
48	0xbe367d48	-0.17821229
49	0xbdfaa9a7	-0.1223939
50	0xbe015032	-0.12628248
51	0xbddb1492	-0.10697283
52	0xbebd25e0	-0.3694296
53	0x3e6b606f	0.22986005
54	0x3e80c947	0.25153562
55	0xbd8a2119	-0.06744594
56	0x3d03ef04	0.032210365
57	0xbe898450	-0.2685876
58	0x3d3ce29d	0.046114553
59	0xbd81846f	-0.06324088
60	0xbd4a663c	-0.049413905
61	0x3e5867dd	0.2113337
62	0xbda3d82d	-0.08000217
63	0xbd0637b8	-0.03276798
64	0xbd482b3e	-0.048869364
65	0xbbbe654c	-0.0058104154
66	0xbe4c0fbf	-0.19927882
67	0xbea7cc53	-0.32773075
68	0xbd2e936b	-0.042621057
69	0xbd42dd29	-0.047574196
70	0x3cdac50b	0.026705286
71	0x3df89260	0.12137294
72	0x3dd31ddb	0.10308429
73	0x3c0a7012	0.008449571
74	0xbd6cce0a	-0.05781368
75	0x3d1e1d5d	0.03860222
76	0xbd198592	-0.0374809
77	0x3dc163ab	0.09442838
78	0xbc29ff74	-0.010375846
79	0x3f43ac25	0.76434547
80	0xbf3807dd	-0.71887
81	0xbf98d3c4	-1.1939626
82	0xbf3e8034	-0.7441437
83	0xbfef2e14	-1.8685937
84	0x3e63f0fc	0.22259897
85	0x3e352a22	0.17691854
86	0x3e0c9034	0.13726884
87	0x3cd43ed2	0.025908861
88	0x3bc531cc	0.006017899
89	0x3e17b295	0.14814217
90	0x3e012902	0.126133
91	0x3e6aa410	0.22914147
92	0x3e4bc024	0.19897515
93	0xbd044c5f	-0.032299396
94	0x3df21be4	0.11821726
95	0x3e1c8b89	0.15287603
96	0x3d817d1b	0.0632269
97	0x3e31a207	0.17346965
98	0xbd24c400	-0.040225983
99	0x3c5acc2d	0.013354343
100	0x3e74ac12	0.23893765
101	0x3d27b480	0.040943623
102	0x3e57d504	0.21077353
103	0xbc1a4f62	-0.00941834
104	0x3e0ea46a	0.13929906
105	0x3d9f9ff8	0.077941835
106	0x3dce886d	0.10084615
107	0xbafb100c	-0.0019154563
108	0xbe5c91a3	-0.21539931
109	0x3c68efbd	0.014217314
110	0xbc66c4b9	-0.014084988
111	0x3db516a1	0.08842207
112	0xbb9c3f64	-0.004768299
113	0xbe37a842	-0.17935279
114	0xbed7fb15	-0.42183748
115	0xbecbbac8	-0.3979094
116	0xb9e81248	-0.0004426411
117	0xbe9c5512	-0.30533653
118	0x3cebcd53	0.02878443
119	0xbeb9bf59	-0.362788
120	0xc003e0d4	-2.0605974
121	0xbe3b7f09	-0.18310179
122	0x3e2f3c75	0.17112906
123	0xbebbb165	-0.3665878
124	0xbdfe7727	-0.1242507
125	0xbeeb2264	-0.45924675
126	0xbe0b18e1	-0.1358371
127	0xbe839390	-0.2569852
128	0x3ca96122	0.0206762
129	0xbee93e39	-0.45555285
130	0xbede8408	-0.43460107
131	0xbd5768ae	-0.052590065
132	0xbe1688fe	-0.14700696
133	0x3e78d392	0.24299458
134	0xbe652ad4	-0.22379619
135	0xbf60a2ce	-0.8774842
136	0x3d4a54b5	0.04939719
137	0xbf095792	-0.53649247
138	0xbdae502b	-0.085113846
139	0xbcc57693	-0.024104392
140	0xbeaec724	-0.34136307
141	0xbdf10607	-0.11768728
142	0xbe799a15	-0.24375184
143	0xbd8bc1aa	-0.06824048
144	0xbf1ec737	-0.6202273
145	0xbfe30854	-1.7736917
146	0xbceea2dc	-0.029130392
147	0xbd02b70d	-0.031912852
148	0xbe5fb203	-0.2184525
149	0x3ca638b0	0.020290703
150	0xbef20e88	-0.4727671
151	0x3eeff7da	0.46868783
152	0xbd3278e0	-0.043572307
153	0xbfbd1e23	-1.4774822
154	0x3e9580e3	0.29199895
155	0x3eb8911e	0.36048216
156	0x3ebe62ab	0.37184653
157	0xbd681fef	-0.05667108
158	0x3dbf2d2f	0.0933479
159	0xbe6e4d57	-0.2327169
160	0x3da2159b	0.07914277
161	0xbdfb5d46	-0.1227365
162	0x3e271a05	0.1631852
163	0xbf002df5	-0.50070125
164	0x3eea978f	0.45818755
165	0xbe5bba1f	-0.21457718
166	0xbe759d1d	-0.23985715
167	0x3d73129e	0.059343927
168	0xbec8d01a	-0.3922127
169	0xbe296b75	-0.16544898
170	0x3e8e10bb	0.2774714
171	0xbf15e4b1	-0.5855208
172	0xbeaa921c	-0.33314598
173	0xbe8c5888	-0.27411294
174	0x3e31b829	0.17355408
175	0xbe1d4d89	-0.15361609
176	0xbe4ba6cc	-0.19887847
177	0xbef23030	-0.4730239
178	0xbec88aea	-0.39168483
179	0xbd29171d	-0.04128181
180	0x3ea85b00	0.32881927
181	0xbea639fd	-0.32466117
182	0xbf4e3dfd	-0.80563337
183	0xbc39aec2	-0.011333169
184	0xbd8bcbd5	-0.06825987
185	0x3c4fbfe9	0.012680032
186	0x3dfe9a00	0.12431717
187	0x3dd02b77	0.1016454
188	0x3e251b4c	0.16123694
189	0x3e39d0a0	0.1814599
190	0x3eeb2d47	0.4593298
191	0xbe5adac2	-0.21372512
192	0xbe2afa76	-0.16697106
193	0xbe888d03	-0.26670083
194	0xbfa4e1d1	-1.2881414
195	0xbcd24e5d	-0.025672132
196	0x3dcf392f	0.10118329
197	0xbda76ece	-0.08175431
198	0x3e8b92cb	0.27260432
199	0x3d8e3391	0.06943429
200	0x3b8e9711	0.0043515046
201	0x3e0ec08a	0.13940635
202	0xbba21738	-0.0049466155
203	0x3d6821cb	0.056672852
204	0x3eb7149c	0.3575791
205	0xbe99ac1c	-0.30014122
206	0x3e64af59	0.22332515
207	0x3b213c98	0.0024602767
208	0x3de8d98d	0.113696195
209	0x3e15c4f6	0.14625916
210	0xbd9e3071	-0.07724083
211	0xbd9343f9	-0.07190699
212	0x3e19b7e5	0.15011556
213	0x3f034435	0.5127595
214	0xbd3521eb	-0.0442218
215	0x3e1dca95	0.1540931
216	0x3e28fd4d	0.16502877
217	0x3ea07621	0.31340125
218	0x3e17c032	0.1481941
219	0xbcaae77f	-0.020862339
220	0xbe04bd33	-0.12962799
221	0x3c831c77	0.016004784
222	0xbd4d397a	-0.050103642
223	0xbe9c904b	-0.30578837
224	0xbe843ff3	-0.2583004
225	0x3d51aaa5	0.05118813
226	0xbea40014	-0.3203131
227	0x3dc31412	0.095253125
228	0xbe737fb1	-0.23779179
229	0xbed1401d	-0.40869227
230	0xbeaaa108	-0.33325982
231	0xbf85c785	-1.0451514
232	0xbe8052b0	-0.25063086
233	0xbbd90002	-0.0066223154
234	0x3e0d4837	0.13797079
235	0x3dc14be8	0.09438306
236	0x3cc8a96d	0.024494851
237	0xbd4a1536	-0.049336635
238	0xbe3ed577	-0.18636118
239	0xbea16bdb	-0.315276
240	0xbe83be3e	-0.2573108
241	0xbeb42803	-0.35186777
242	0xbc78c84a	-0.015184471
243	0xbeab5318	-0.33461833
244	0xbe30cef7	-0.17266451
245	0xbdfbd613	-0.12296691
246	0xbefd6324	-0.494897
247	0x3c4ac3c8	0.012375779
248	0xbcf82ece	-0.030295756
249	0x3cc0545d	0.023477728
250	0xbe75be2d	-0.23998328
251	0xbf5d1e5f	-0.8637447
252	0xbe263231	-0.16230084
253	0xbe2e0ab8	-0.16996276
254	0xbc658c8f	-0.014010563
255	0xbe95f6f2	-0.29289967

fc_layers.0.bias f4 [64]
0	0xbde4445b	-0.1114585
1	0xbd82fb78	-0.0639562
2	0x3ede135a	0.4337414
3	0xbdc1628b	-0.09442624
4	0xbe2edcdc	-0.17076439
5	0xbccc2140	-0.024918199
6	0xbe197903	-0.14987569
7	0xbe5bd92f	-0.21469568
8	0xbe72e448	-0.23719895
9	0x3db22ca6	0.08699922
10	0xbeb4ba9e	-0.35298628
11	0x3e0e600a	0.13903823
12	0xbe8dc31c	-0.2768792
13	0xbe9da733	-0.30791625
14	0xbeac4ba9	-0.33651474
15	0x3c0413de	0.008061377
16	0xbeb10e17	-0.34581062
17	0xbe470fb0	-0.19439578
18	0x3ebd8eb2	0.3702293
19	0xbe578631	-0.21047284
20	0xbdc38a7a	-0.09547897
21	0xbecb75a4	-0.3973819
22	0x3dc91729	0.098188706
23	0xbe2b311c	-0.16717952
24	0xbe4f6b02	-0.20255664
25	0xbe908755	-0.2822825
26	0xbe062f28	-0.13103926
27	0xbe80ad51	-0.2513223
28	0xbde3050c	-0.11084947
29	0xbe28d639	-0.1648797
30	0xbeb6185e	-0.35565466
31	0x3de1684c	0.11006221
32	0xbe92a795	-0.2864348
33	0xbe952381	-0.2912865
34	0x3cf079ae	0.029354896
35	0xbe025c34	-0.12730485
36	0xbe435f6a	-0.19079366
37	0xbdb4a718	-0.08820933
38	0x3cdae8d3	0.026722347
39	0xbed304db	-0.41214642
40	0xbec3710a	-0.3817218
41	0x3e6e41ac	0.2326724
42	0xbea5437b	-0.32278046
43	0x3c5f0ded	0.01361416
44	0xbe295935	-0.16537936
45	0x3e45ef07	0.19329463
46	0xbe91ccf4	-0.2847668
47	0xbe1a03a6	-0.15040454
48	0xbe827ee0	-0.25487423
49	0xbdbd74db	-0.09250804
50	0xbec50cf3	-0.38486442
51	0xbe894b58	-0.26815295
52	0xbecacfcb	-0.39611658
53	0xbdbbe024	-0.09173611
54	0xbdd0497f	-0.10170268
55	0xbe586766	-0.21133193
56	0x3d8744dc	0.06604931
57	0xbd2676bc	-0.040640578
58	0xbe34b6cd	-0.17647858
59	0xbe004884	-0.12527663
60	0xbe0e4755	-0.13894399
61	0xbe37dbd3	-0.1795495
62	0x3c97661a	0.018481303
63	0xbe7c4825	-0.24636896

fc_layers.1.weight f4 [64, 64]
0	0x3d8884d5	0.06665961
1	0x3e27dd8e	0.1639311
2	0xbccd7539	-0.02508031
3	0xbe39409f	-0.18091057
4	0xbdbfcdf6	-0.09365456
5	0xbd498e16	-0.04920777
6	0x3e836f7f	0.25671002
7	0xbe5bfec6	-0.21483907
8	0xbe0694a1	-0.13142635
9	0x3c8f1874	0.017467715
10	0x3e961710	0.2931447
11	0xbd90d31b	-0.07071515
12	0xbda3c803	-0.079971336
13	0xbf0b80e6	-0.5449356
14	0xbe748d4a	-0.23882023
15	0x3e0ac737	0.13552557
16	0xbec755f3	-0.38932762
17	0x3ca34574	0.019930579
18	0x3e0f19ab	0.13974635
19	0x3ca8e57a	0.020617235
20	0xbbda15d4	-0.006655434
21	0x3c1b1d62	0.009467455
22	0xbca568ab	-0.020191511
23	0x3c803154	0.015648521
24	0xbdc889b3	-0.09791889
25	0x3e67dedb	0.22643606
26	0xbd44cd79	-0.048047516
27	0xbe4e7065	-0.20160063
28	0xbd64b947	-0.055840757
29	0xbee73264	-0.45155632
30	0xbcedeb33	-0.029042816
31	0x3e34b153	0.17645769
32	0xbe6032ac	-0.2189433
33	0xbec04aae	-0.37556976
34	0x3df6a06e	0.12042318
35	0xbe042334	-0.12904054
36	0x3c12e1a5	0.008964931
37	0xbe4e52f4	-0.20148832
38	0x3d738d71	0.05946106
39	0xbe13c376	-0.14430031
40	0xbd8d8c33	-0.069115065
41	0x3df661c1	0.12030364
42	0xbe6a2ad6	-0.22867903
43	0x3db03efa	0.08605762
44	0xbcbbcbd1	-0.022924336
45	0x3e364b42	0.17802146
46	0xbd657b79	-0.056025956
47	0xbec08a39	-0.37605456
48	0xbe8ea5df	-0.27860925
49	0xbd7bc2c0	-0.061465025
50	0x3eaa0a0b	0.33210787
51	0xbe331e24	-0.17491966
52	0x3c2c0423	0.010499033
53	0xbd84d56a	-0.06486018
54	0xbd900556	-0.07032268
55	0xbe188e1e	-0.14897963
56	0xbe123e7c	-0.14281648
57	0xbe889c29	-0.2668164
58	0xbd252ea1	-0.040327672
59	0xbe885a02	-0.2663117
60	0xbe65bb31	-0.22434689
61	0x3e8bed71	0.2732959
62	0x3e954b26	0.29158896
63	0xbe4eac61	-0.20182945
64	0xbdfdf250	-0.12399733
65	0x3db171d5	0.0866429
66	0xbd1d5919	-0.03841505
67	0x3e9ba4de	0.3039922
68	0x3de81a07	0.11333089
69	0xbe64664b	-0.22304647
70	0x3ba98f02	0.0051745186
71	0xbdbdcfbd	-0.092681386
72	0xbd050e9a	-0.03248463
73	0x3e3999da	0.18125096
74	0xbe5d3483	-0.21602063
75	0xbd8589f3	-0.06520452
76	0xbd8d283f	-0.06892442
77	0xbe8f842f	-0.28030536
78	0xbc2ddecc	-0.010612201
79	0xbea034a4	-0.31290162
80	0xbe59dbcb	-0.2127525
81	0x3e6e5c25	0.23277338
82	0x3cabaf05	0.02095748
83	0x3ebd87ba	0.37017614
84	0xbeb43986	-0.35200137
85	0xbc947524	-0.018122263
86	0xbece7c89	-0.40329388
87	0xbdc529d5	-0.096271195
88	0x3edbe6b2	0.42949444
89	0xbf1a3e33	-0.6025116
90	0xbd082244	-0.033235803
91	0x3db58213	0.088627
92	0xbcf42e81	-0.029807331
93	0x3dadc6b9	0.08485169
94	0x3e19d9fc	0.1502456
95	0x3caa72d1	0.020806702
96	0x3e60aaeb	0.219402
97	0x3e26a348	0.16273224
98	0x3dbde45f	0.09272074
99	0xbd6a70c3	-0.057236444
100	0x3db058e9	0.08610708
101	0x3ecd1c1a	0.40060502
102	0x3eedcaa1	0.46443656
103	0x3e86aa9a	0.26302034
104	0xbef1c17c	-0.4721793
105	0xbd321700	-0.043478966
106	0xbeadb725	-0.3392879
107	0xbf37a1f9	-0.71731526
108	0xbd846fe0	-0.06466651
109	0xbe0f373a	-0.13985911
110	0x3e1a087a	0.15042296
111	0x3d83bf14	0.0643293
112	0x3d11dede	0.035612933
113	0x3e10c664	0.1413818
114	0xbeb89bf2	-0.36056477
115	0xbee61846	-0.44940394
116	0xbf0f1142	-0.5588571
117	0x3f09a726	0.53770673
118	0x3df43519	0.1192419
119	0x3e21ba47	0.15793715
120	0xbe09e8b2	-0.13467672
121	0xbdabca97	-0.0838825
122	0x3d4b78d6	0.049675785
123	0x3ee542f3	0.4477764
124	0x3e64851e	0.22316405
125	0xbf54afb6	-0.83080614
126	0xbe99cf53	-0.30040988
127	0xbcb0be6b	-0.021575173
128	0x3e11f33d	0.14252944
129	0x3e78fa34	0.24314195
130	0x3e16967a	0.1470584
131	0xbe75f90d	-0.24020787
132	0xbe22ac2b	-0.1588599
133	0xbc969756	-0.01838271
134	0x3e24876f	0.16067289
135	0x3d607691	0.054800574
136	0xbd34095c	-0.04395424
137	0x3cdaf28f	0.02672699
138	0x3e6836a3	0.22677092
139	0x3e069e01	0.13146211
140	0xbe29ca64	-0.16581112
141	0xbe7e7e97	-0.24852978
142	0xbc929edc	-0.017898016
143	0xbdbd3cb2	-0.09240092
144	0xbe84e500	-0.25955963
145	0xbdd2e4f1	-0.10297573
146	0x3cc28a2b	0.023747524
147	0xbeac1cad	-0.33615628
148	0xbcfbc3c1	-0.030732991
149	0xb8d95d44	-0.000103647384
150	0x3e00ec38	0.1259011
151	0xbd42d155	-0.047562916
152	0xbe4b342c	-0.1984412
153	0x3d140933	0.036141586
154	0xbe3bca8c	-0.18338984
155	0xbe31f9e7	-0.17380486
156	0xbde3f769	-0.11131174
157	0xbed9f77a	-0.42571622
158	0xbdcd13e8	-0.100135624
159	0x3dae58b1	0.0851301
160	0xbdd58865	-0.10426406
161	0xbe87c9f3	-0.26521263
162	0x3d639145	0.05555846
163	0x3c32aad5	0.010904987
164	0x3e02bcd4	0.12767345
165	0x3b3450c4	0.002751396
166	0x3df2c38b	0.11853703
167	0xbd8ebcca	-0.069696024
168	0x39b0dee4	0.00033735402
169	0xbc8a6245	-0.016892562
170	0xbd0dd9ba	-0.03463147
171	0x3db9e048	0.090759814
172	0xbdce706c	-0.100800365
173	0x3e5cdff8	0.21569812
174	0xbd9fcfa7	-0.078032784
175	0xbeb3bb43	-0.35103807
176	0xbe662663	-0.22475581
177	0xbdaca21e	-0.08429359
178	0x3ea34586	0.3188898
179	0xbdc16b64	-0.09444311
180	0x3df0b712	0.11753668
181	0xbdbf6fa3	-0.09347465
182	0xbd6f1786	-0.058372043
183	0xbe3cac07	-0.18424998
184	0xbe01239f	-0.12611245
185	0xbe34a83d	-0.17642303
186	0xbcaaef9a	-0.020866204
187	0xbf19694b	-0.5992629
188	0xbea69960	-0.3253889
189	0x3dda3943	0.10655453
190	0x3d70a6c0	0.058752775
191	0xbd951c59	-0.072807975
192	0xbe8cc423	-0.2749339
193	0x3dcccdd8	0.10000199
194	0xbe0adedd	-0.13561578
195	0x3dbb7cbc	0.091546506
196	0xbe938808	-0.2881472
197	0xbe9ae284	-0.30250943
198	0x3d830404	0.0639725
199	0x3dd14ce3	0.10219743
200	0xbe807366	-0.25088042
201	0x3e38781c	0.18014568
202	0xbe29e5de	-0.16591594
203	0xbdf0ce06	-0.11758046
204	0x3d89c99d	0.06727908
205	0x3c379444	0.011204783
206	0x3d23b33e	0.03996586
207	0xbe6e3edf	-0.23266171
208	0x3d8c1de1	0.068416364
209	0x3c3e60df	0.011619776
210	0x3d92acd8	0.071618736
211	0x3e8e6359	0.2781017
212	0xbd582375	-0.05276819
213	0xbe66a8a7	-0.22525273
214	0xbe37175f	-0.17880009
215	0xbf08cc44	-0.53436685
216	0x3d84c7b6	0.06483404
217	0xbbc868d6	-0.006116013
218	0xbd4de332	-0.0502655
219	0x3c9c2798	0.019061849
220	0x3e7cde45	0.24694164
221	0x3d70b5ff	0.058767315
222	0x3e32b254	0.1745084
223	0xbe9ede53	-0.31028995
224	0x3e4d9e79	0.20079984
225	0xbb6f42bc	-0.0036508283
226	0xbcbf7abe	-0.023373958
227	0xbdb1cd3d	-0.08681724
228	0xbe8c6379	-0.27419642
229	0x3d79e2f8	0.06100747
230	0xbdd1c472	-0.10242547
231	0xbde89ff2	-0.11358632
232	0xbe3f13c0	-0.18659878
233	0xbe6dceb3	-0.2322338
234	0xbe1693af	-0.14704774
235	0x3eaacac1	0.33357814
236	0x3dd329e7	0.103107266
237	0xbe1a627a	-0.15076628
238	0x3e002835	0.12515338
239	0x3d5b293d	0.053506125
240	0x3e9e72e7	0.3094704
241	0xbeea533d	-0.4576663
242	0xbda62e95	-0.081143536
243	0xbdf1f16a	-0.11813624
244	0xbd6d2c42	-0.057903536
245	0xbec3308f	-0.38122985
246	0x3db1af7c	0.08676049
247	0xbdc49664	-0.09598997
248	0x3e897efc	0.26854694
249	0xbf0674a1	-0.5252171
250	0xbe8f6a5a	-0.28010827
251	0x3d4f15e9	0.050558005
252	0xbe9d48dc	-0.3071965
253	0x3e953e22	0.29148966
254	0xbe5cbc3a	-0.21556178
255	0xbf14bf3a	-0.5810429

fc_layers.1.bias f4 [64]
0	0x3f192234	0.59817815
1	0x3d9e355f	0.077250235
2	0x3f04d494	0.5188687
3	0xbe16a5a4	-0.14711624
4	0xbe764055	-0.24047978
5	0x3e606d4e	0.21916696
6	0xbda075fe	-0.07835005
7	0x3ca4bc72	0.020109389
8	0x3ee62008	0.44946313
9	0x3c0800da	0.008300984
10	0xbde0cf03	-0.10976984
11	0x3d898e62	0.067166105
12	0xbcacd922	-0.02109963
13	0x3e0cf3af	0.13764833
14	0xbcbce779	-0.023059594
15	0xbdce7874	-0.10081568
16	0xbdcd3338	-0.10019535
17	0x3e5e05d6	0.21681914
18	0xbe2dcd28	-0.16972792
19	0x3c39f4a7	0.011349834
20	0xbe11242c	-0.14173955
21	0xbe968dea	-0.29405147
22	0xbda726dc	-0.08161709
23	0x3f191e7e	0.5981215
24	0x3ed62a1f	0.4182901
25	0xbbcec753	-0.0063103824
26	0x3e461e1d	0.19347425
27	0x3efc0834	0.49225008
28	0xbd69d89d	-0.057091344
29	0xbe640c56	-0.22270331
30	0xbe75b690	-0.23995423
31	0xbe81f128	-0.253793
32	0xbb7a40e2	-0.0038185646
33	0xbda58b9f	-0.08083271
34	0xbe99e6bf	-0.30058858
35	0xbe4f7d64	-0.20262676
36	0x3f081c9e	0.53168666
37	0xbdb0f79a	-0.08640976
38	0xbbe23785	-0.006903591
39	0x3c91be47	0.017790927
40	0x3e1fa10b	0.15588777
41	0xbe4f4867	-0.20242463
42	0xbe8c6796	-0.2742278
43	0x3f163177	0.5866923
44	0x3ee26989	0.44221142
45	0x3d8ead59	0.06966657
46	0x3f0c5014	0.5480969
47	0xbcd46be8	-0.02593036
48	0x3e7b956a	0.24568716
49	0x3da1bfaf	0.07897889
50	0xbe67ceca	-0.22637478
51	0xbe149c71	-0.14512803
52	0xbe2cccea	-0.16875044
53	0x3c4a05c4	0.012330476
54	0xbd4d3e66	-0.050108336
55	0x3de09bdd	0.109672286
56	0xbd19022a	-0.03735558
57	0xbd761e1c	-0.06008731
58	0xbd18186f	-0.037132677
59	0x3ece9414	0.4034735
60	0x3e65c6d9	0.22439136
61	0xbe611a6f	-0.2198274
62	0xbe17e907	-0.14834987
63	0xbdf93234	-0.121677786

fc_layers.2.weight f4 [4, 64]
0	0x3e47d35a	0.19514218
1	0x3e8a43a4	0.2700473
2	0x3e386ef4	0.18011075
3	0xbdb0e5dd	-0.08637593
4	0xbee28024	-0.4423839
5	0xbd27478e	-0.040839724
6	0x3dea19a3	0.11430671
7	0x3ee16cf2	0.4402843
8	0x3e45b494	0.19307166
9	0xbfad353d	-1.3531872
10	0xbc5302e8	-0.012879111
11	0xbebb58dd	-0.36591235
12	0xbea588f7	-0.32331058
13	0x3e5291fc	0.20563501
14	0xbe04a797	-0.12954555
15	0xbeba8170	-0.36426878
16	0xbd27e6ce	-0.040991597
17	0x3ddbf5a4	0.107402116
18	0x3e1fc40c	0.1560213
19	0x3dd01c71	0.10161675
20	0x3d56a486	0.052402996
21	0x3d101faa	0.035186447
22	0xbc019dd6	-0.007911166
23	0x3e4be646	0.19912061
24	0x3e296b20	0.16544771
25	0x3e0c83a0	0.13722086
26	0x3e01bb73	0.12669162
27	0x3e037aa8	0.12839758
28	0xbeeebc36	-0.4662797
29	0xbd84b01a	-0.06478901
30	0xbe539a53	-0.20664339
31	0xbeaef9d6	-0.34174985
32	0xbe1f5593	-0.15559988
33	0xbdc6df3c	-0.09710547
34	0xbf0194d5	-0.50617725
35	0xbf13dbc9	-0.5775724
36	0x3e4596dc	0.1929583
37	0x3d18015e	0.03711068
38	0xbde16126	-0.11004858
39	0x3ead0952	0.33796173
40	0x3d886fb4	0.06661931
41	0x3e44173f	0.19149493
42	0xbf339ccc	-0.7016113
43	0x3e29c3ab	0.16578548
44	0x3e3bd952	0.1834462
45	0xbcb913ce	-0.022592451
46	0x3e357cf0	0.17723441
47	0xbed8934b	-0.42299876
48	0x3f0da27c	0.55326056
49	0xbe2f0dd3	-0.17095117
50	0xbe4a5d7a	-0.19762221
51	0x3f39d411	0.7258921
52	0xbdb6d871	-0.08928002
53	0xbecae068	-0.39624333
54	0x3ef0f764	0.47063744
55	0x3d0c7825	0.034294266
56	0xbf21c699	-0.6319366
57	0xbc931020	-0.017952025
58	0xbf341bea	-0.70355093
59	0x3efc71c4	0.49305546
60	0x3e01d1b7	0.12677656
61	0x3e858a27	0.26081964
62	0x3d501a38	0.050806254
63	0xbf2d5d97	-0.6772093
64	0x3e8de8f5	0.27716795
65	0x3e75abeb	0.23991363
66	0x3e0134af	0.12617753
67	0x3d4b7b26	0.04967799
68	0xbe1347dc	-0.14382881
69	0x3e11531c	0.1419186
70	0xbe871d81	-0.26389697
71	0x3f39e3ae	0.72613037
72	0x3e5f1837	0.21786581
73	0x3eb88e48	0.36046052
74	0x3c848b04	0.016179569
75	0x3e5a4326	0.21314678
76	0xbdf085a8	-0.11744243
77	0x3d9dedfc	0.077114075
78	0x3da04236	0.07825129
79	0x3e29672e	0.16543266
80	0x3d0d933b	0.034564238
81	0x3d08755b	0.033315044
82	0xbd3962b9	-0.045260165
83	0x3e876daf	0.2645087
84	0x3e37d9c1	0.1795416
85	0x3c7266f7	0.014795057
86	0xbbe57f2c	-0.0070036855
87	0x3e0945ea	0.13405576
88	0xbc9478bc	-0.018123977
89	0x3dc30e0a	0.09524162
90	0x3e67cc79	0.22636594
91	0x3decff32	0.11572112
92	0x3d13c1ce	0.0360735
93	0xbcb586d3	-0.022159016
94	0xbdd0ef47	-0.102018885
95	0x3dc98075	0.09838954
96	0xbdb5f4ce	-0.088845834
97	0xbe33326e	-0.17499706
98	0x3e28f421	0.16499378
99	0x3e8ebb5d	0.27877322
100	0x3e03bf2b	0.12865894
101	0x3dbcf204	0.09225848
102	0x3de9119b	0.11380311
103	0x3e0a0417	0.13478123
104	0x3e174b7a	0.14774886
105	0x3eb70e04	0.3575288
106	0x3db855df	0.090007536
107	0x3e43ed01	0.19133379
108	0x3d60b6d1	0.054861847
109	0xbc8bd8a2	-0.017071072
110	0x3e57edfd	0.21086879
111	0x3d6d7c66	0.057979964
112	0x3ebcba4f	0.36860892
113	0x3e080a85	0.13285263
114	0xbe53338c	-0.20625132
115	0x3e67cc5f	0.22636555
116	0x3d43e098	0.04782161
117	0x3d9b9c92	0.07598223
118	0x3e6970fc	0.22797006
119	0x3c2ed83d	0.010671672
120	0xbcbabd68	-0.022795394
121	0xbd5b7e42	-0.053587206
122	0x3e48d700	0.19613266
123	0x3ec936ed	0.39299718
124	0x3e88d5e9	0.267257
125	0xbd3f03f6	-0.046634637
126	0x3d162084	0.036652103
127	0xbd152d23	-0.03642
128	0x3e4b4735	0.19851382
129	0x3ebdf209	0.3709872
130	0x3de64cbe	0.11245106
131	0x3eddd4ca	0.43326408
132	0x3f29b28f	0.66288084
133	0x3e649891	0.22323824
134	0x3e874f39	0.2642763
135	0x3ea6ff7e	0.326168
136	0x3c346b9e	0.011011986
137	0xbecec84f	-0.40387198
138	0x3f0299c6	0.5101589
139	0xbc9cd98a	-0.0191467
140	0xbe8e8b2c	-0.27840555
141	0xbe8e68d9	-0.27814367
142	0x3dba3e19	0.090938754
143	0x3e9c2807	0.30499288
144	0x3e0e6889	0.13907064
145	0x3ed64bb2	0.41854626
146	0x3efc54e2	0.4928351
147	0x3d343078	0.043991536
148	0x3e9743ca	0.29543906
149	0xbd01d2cd	-0.031695176
150	0xbd766653	-0.060156178
151	0x3e82e94a	0.2556861
152	0x3e719ca7	0.23594914
153	0x3d76efae	0.06028717
154	0x3e43ed11	0.19133402
155	0x3e2863ea	0.16444364
156	0xbf4254c3	-0.75910586
157	0x3e051541	0.12996389
158	0xbf158c77	-0.5841746
159	0xbf48f450	-0.7849779
160	0x3ded5957	0.11589306
161	0x3f046b50	0.51726246
162	0xbd01fa3e	-0.03173279
163	0xbe7a5bdc	-0.24449104
164	0x3d133325	0.035937447
165	0xbe017e7b	-0.12645905
166	0x3e7c60c8	0.24646294
167	0x3cb9b83b	0.022670856
168	0xbe84c7f9	-0.25933817
169	0x3ec2bdd5	0.38035455
170	0xbf1be094	-0.60889554
171	0x3e323b4e	0.17405435
172	0x3e4d998f	0.20078109
173	0x3e9ef667	0.31047365
174	0x3e320e75	0.17388327
175	0x3d8218fe	0.06352423
176	0x3f134e03	0.5754091
177	0xbf073db4	-0.52828526
178	0xbe4beadb	-0.19913809
179	0x3eb4bff6	0.35302705
180	0xbe273070	-0.16327071
181	0xbe82f09a	-0.2557419
182	0x3f189fc6	0.59618795
183	0xbc1f7296	-0.009731909
184	0x3f1fd788	0.6243825
185	0x3ce4a588	0.027910963
186	0x3f15aa99	0.58463436
187	0x3e7c6d43	0.24651055
188	0x3e72c041	0.23706152
189	0x3ebc9a64	0.3683654
190	0x3e98868d	0.29790154
191	0xbd1ff957	-0.03905615
192	0x3e48cb91	0.19608904
193	0x3ed7050f	0.41996047
194	0x3e2d9c05	0.16954048
195	0x3ee79877	0.4523351
196	0x3f4aa052	0.7915088
197	0x3e4f737f	0.20258902
198	0xbe6d0632	-0.23146895
199	0x3f2ed17d	0.68288404
200	0x3de1f3b1	0.110328086
201	0xbd5a9490	-0.053364336
202	0xbed2cd08	-0.4117205
203	0xbca9cc15	-0.020727197
204	0xbd53ec39	-0.05173895
205	0xbf305b38	-0.6888919
206	0x3d13ff37	0.036132064
207	0xbbc29d57	-0.0059391665
208	0xbdb410a9	-0.0879224
209	0x3d98c5e4	0.0745962
210	0xbe65b081	-0.22430612
211	0x3d74f65e	0.059805267
212	0x3e4b783c	0.19870085
213	0xbf27f098	-0.6560149
214	0x3d5414f2	0.051777788
215	0x3e7c8fe5	0.24664266
216	0x3e2a4b79	0.16630353
217	0x3e715d26	0.2357069
218	0x3ea29432	0.3175369
219	0x3e1b47c3	0.15164094
220	0xbefcdfc9	-0.49389485
221	0x3ebc9bdc	0.3683766
222	0x3ee39dda	0.4445637
223	0x3efcf4e0	0.49405575
224	0x3e3f36e4	0.18673283
225	0xbf65ac3e	-0.89715946
226	0x3ea8c057	0.32959244
227	0x3edde2f4	0.43337214
228	0x3e40b520	0.18819094
229	0x3d2531ea	0.040330805
230	0xbe5840df	-0.21118496
231	0xbec334ea	-0.38126308
232	0x3f0661ee	0.5249318
233	0xbf165580	-0.5872421
234	0x3f1c7efd	0.6113127
235	0x3e29be43	0.16576485
236	0x3e0675c4	0.13130862
237	0x3e087b29	0.13328232
238	0x3e96cd1c	0.2945336
239	0x3d2608c7	0.040535714
240	0xbf1432a9	-0.578898
241	0xbf3fb54f	-0.7488603
242	0xbdf04625	-0.11732129
243	0x3f0e508f	0.5559167
244	0x3d86c1a6	0.06579904
245	0xbe970397	-0.29494926
246	0x3e66fbe4	0.22557026
247	0xbf0ab784	-0.5418627
248	0x3f282dc9	0.6569486
249	0x3d1bb588	0.03801492
250	0x3f2d920c	0.67800975
251	0x3e99e538	0.30057693
252	0x3e442d57	0.19157921
253	0xbe155c7b	-0.1458606
254	0x3eab3fab	0.33447012
255	0x3f2359f8	0.63809156

fc_layers.2.bias f4 [4]
0	0x3eee9e00	0.4660492
1	0x3ee396db	0.4445103
2	0x3eca4be0	0.39511013
3	0x3ead155e	0.33805364
