param6_ddqn_fully_trained.pth (torch, 2911 bytes, 4 tensors)

fc_layers.0.weight f4 [8, 37]
0.13085963 0.22578202 0.18221349 -0.007566865 -0.3853628 -1.076583 0.35445523 0.34924173
-0.29413888 -0.9462952 -0.10103875 0.14219293 0.23722279 0.09753343 -0.08521473 -0.30759177
0.20318887 0.15198211 -0.21792933 -0.48695442 -0.37265712 0.2653955 0.26658082 -0.21528643
-0.7775352 -0.383393 0.10762452 0.09998031 -0.62634534 -0.51855594 -0.14122988 0.3523573
0.20646738 -0.4810977 -0.7613422 0.032529946 0.021367844 0.3804694 0.46131355 0.43351766
0.38853407 -0.059040867 0.41024834 0.48146912 0.45891637 0.34834623 -0.08608979 0.5129538
0.2367927 0.31040046 0.28719702 -0.12027085 0.34789416 0.45026967 0.42723736 0.40590346
-0.088929914 0.74704826 0.2079125 0.26117152 0.15989864 -0.6245486 0.36611304 0.39785054
0.38749373 0.40138677 0.0550672 0.27591243 0.39000583 0.29824725 0.3500575 0.14592163
0.101043 0.06269777 -0.026542492 -0.05710967 -0.032299012 -0.036403615 0.014468646 0.23364265
0.06797029 0.057070717 0.040743135 -0.07017141 -0.007056729 0.11071676 0.0859974 0.13809748
0.05970605 0.12578112 0.04283145 0.08228895 0.04964327 0.027600247 -0.111568026 0.118427075
0.07416759 0.1246805 0.25575528 0.0012248127 -0.029061643 -0.024979485 -0.03530389 -0.04102274
0.40046212 -0.6428167 -0.44641116 -0.58522844 -2.755639 0.013616761 0.002524853 0.45912504
0.26813287 0.34275296 0.38715413 0.030855946 0.36562493 0.2752805 0.31413814 0.30959448
0.0670699 0.17886826 0.39417207 0.3418415 0.32909745 0.093839206 0.53254545 0.3402222
0.3223482 0.2939123 -0.067515306 0.14028096 0.53215724 0.45867676 0.4395092 0.3649474
0.39177197 0.31386676 0.2800883 0.20782726 -0.12716293 0.46294144 0.27746117 0.38406134
0.30515358 -0.16649634 -0.07449077 -0.04329835 0.024427772 0.04802205 0.023334408 0.036336195
0.08152416 -0.07402483 -0.01856196 -0.07274896 -0.059596233 -0.058727745 0.10933816 0.12260776
0.11443421 0.09517345 -0.016761301 -0.04872152 -0.013969032 -0.043441195 -0.03664106 -0.05897038
-0.009734133 -0.03717228 0.008375712 0.057046805 0.1031199 0.46153033 -0.72040373 -0.5704477
-0.53583664 -2.5561519 0.042928744 0.08222165 0.035935126 0.06340783 0.014585834 -0.017699225
0.034217663 0.018493485 0.067937605 0.057390016 0.044130214 0.056490548 -0.31179476 0.22640459
0.22693968 0.48921093 0.35134476 0.00029817573 -0.027242783 -0.009730931 0.0033158772 0.014464781
-0.012643238 0.079009615 0.020230507 0.037809983 0.023781667 -0.112032175 -0.1330509 -0.10498015
-0.049276654 0.09594916 -0.024254056 0.0014443665 0.046857893 0.14570357 0.10857785 0.43289486
-0.72625434 -0.76624155 -0.6514405 -2.4919372 -0.011172137 -0.0018731426 0.04792755 0.08868276
0.0671784 0.04601972 -0.01266959 0.5977283 -1.0988191 -0.81303346 -0.79192406 -2.372325
0.19101892 0.15673631 0.17421137 0.22500889 0.016575012 -0.024985392 -0.0013234476 0.05960931
0.07898312 0.07960166 0.011038808 0.027803779 0.053961746 0.14959322 0.13224937 0.14779416
0.17217079 0.18711534 0.22262514 0.049635127 -0.0014607836 -0.00862484 0.019393822 0.05801186
00000000: 1100 063e 6733 673e 2c96 3a3e 77f3 f7bb
00000010: 464e c5be 79cd 89bf 287b b53e d0cf b23e
00000020: 5f99 96be 6740 72bf 67ed cebd 069b 113e
00000030: 88ea 723e 9bbf c73d 0f85 aebd ab7c 9dbe
00000040: be10 503e 33a1 1b3e de28 5fbe 1752 f9be
00000050: eacc bebe ebe1 873e 487d 883e 0c74 5cbe
00000060: 8c0c 47bf 164c c4be 3f6a dc3d 7ac2 cc3d
00000070: 2b58 20bf 15c0 04bf 919e 10be 2d68 b43e
00000080: 2f6c 533e 7052 f6be 53e7 42bf 1f3e 053d
00000090: 9e0b af3c e3cc c23e 4a31 ec3e 07f6 dd3e
000000a0: f0ed c63e d6d4 71bd 120c d23e 1f83 f63e
000000b0: 16f7 ea3e 705a b23e d84f b0bd f150 033f
000000c0: c979 723e cfec 9e3e 7d0b 933e 9050 f6bd
000000d0: 2f1f b23e bf89 e63e dbbe da3e 94d2 cf3e
000000e0: e320 b6bd 8e3e 3f3f 04e7 543e 46b8 853e
000000f0: 78bc 233e 6be2 1fbf 2b73 bb3e 11b3 cb3e
00000100: 9465 c63e 9182 cd3e 258e 613d 6544 8d3e
00000110: d8ae c73e ddb3 983e bd3a b33e 7b6c 153e
00000120: a2ef ce3d b067 803d a46f d9bc d4eb 69bd
00000130: f84b 04bd f51b 15bd e60d 6d3c 0540 6f3e
00000140: 0234 8b3d fcc2 693d 46e2 263d 07b6 8fbd
00000150: 223c e7bb 78bf e23d 681f b03d 6d69 0d3e
00000160: 558e 743d c4cc 003e 0870 2f3d 1c87 a83d
00000170: be56 4b3d ea19 e23c c77d e4bd e589 f23d
00000180: 2de5 973d 7d58 ff3d 5bf2 823e e589 a03a
00000190: af12 eebc c7a1 ccbc d09a 10bd 7607 28bd
000001a0: 5f09 cd3e a38f 24bf 0190 e4be 88d1 15bf
000001b0: 645c 30c0 d618 5f3c 0178 253b 7012 eb3e
000001c0: b648 893e 517d af3e 1139 c63e 9cc5 fc3c
000001d0: 3133 bb3e 91f1 8c3e b7d6 a03e 2b83 9e3e
000001e0: f25b 893d 3e29 373e ecd0 c93e d905 af3e
000001f0: 767f a83e c52e c03d e654 083f 9b31 ae3e
00000200: d30a a53e ac7b 963e 7745 8abd d0a5 0f3e
00000210: 753b 083f aed7 ea3e 5a07 e13e 63da ba3e
00000220: 5696 c83e 25b3 a03e bc67 8f3e abd0 543e
00000230: 0037 02be a906 ed3e 640f 8e3e b0a3 c43e
00000240: 173d 9c3e 047e 2abe 9e8e 98bd 9c59 31bd
00000250: c01c c83c c5b2 443d cd27 bf3c 43d5 143d
00000260: 24f6 a63d 549a 97bd 400f 98bc 68fd 94bd
00000270: 2e1b 74bd 818c 70bd afec df3d c719 fb3d
00000280: 7c5c ea3d 4cea c23d ff4e 89bc 3790 47bd
00000290: 5ede 64bc 65ef 31bd f014 16bd ed8a 71bd
000002a0: ea7b 1fbc f641 18bd 483a 093c e9a9 693d
000002b0: 8730 d33d b44d ec3e 616c 38bf dc08 12bf
000002c0: 972c 09bf fe97 23c0 0dd6 2f3d d363 a83d
000002d0: b630 133d f7db 813d 6cf9 6e3c f7fd 90bc
000002e0: d227 0c3d a67f 973c df22 8b3d cb11 6b3d
000002f0: e2c1 343d a262 673d 90a3 9fbe 9bd6 673e
00000300: e062 683e db79 fa3e 76e3 b33e 7854 9c39
00000310: 422c dfbc 7c6e 1fbc 304f 593b b0fd 6c3c
00000320: 9525 4fbc cbcf a13d 73ba a53c a4de 1a3d
00000330: c5d1 c23c 2071 e5bd 7f3e 08be d5ff d6bd
00000340: 51d6 49bd fe80 c43d 71b0 c6bc e650 bd3a
00000350: 10ee 3f3d 5133 153e 105e de3d 65a4 dd3e
00000360: ceeb 39bf 6828 44bf cec4 26bf e67b 1fc0
00000370: 570b 37bc 3c84 f5ba ae4f 443d 4f9f b53d
00000380: d494 893d 2d7f 3c3d 1d94 4fbc b904 193f
00000390: 1ba6 8cbf f622 50bf 89bb 4abf 2cd4 17c0
000003a0: 779a 433e 7c7f 203e 7764 323e bb68 663e
000003b0: 52c8 873c 2aae ccbc 8877 adba e428 743d
000003c0: e7c1 a13d 3206 a33d 1edc 343c c0c4 e33c
000003d0: fe06 5d3d f72e 193e 616c 073e 5a57 173e
000003e0: 8a4d 303e 2a9b 3f3e d8f7 633e 344e 4b3d
000003f0: c477 bfba 334f 0dbc cbdf 9e3c d89d 6d3d

fc_layers.0.bias f4 [8]
0.0830717 0.63714796 0.046445932 0.5857495 0.06320535 -0.07104855 0.10472956 -0.14504668
00000000: 7f21 aa3d 211c 233f 173e 3e3d aef3 153f
00000010: ce71 813d e781 91bd 747c d63d 1e87 14be

fc_layers.1.weight f4 [4, 8]
-0.25072342 0.37851608 0.060832396 0.3919621 0.07930676 0.93883723 0.7229803 0.13163306
-0.108836204 0.36708778 0.037506487 0.3642215 0.06063279 0.8027679 0.70091075 0.09010752
-0.09550559 0.5913786 0.97974324 0.117832236 0.027970055 0.49709466 0.0508384 -0.3220753
-0.14230631 0.33155093 0.0011401003 0.41080302 0.94553816 -0.038802758 0.058628153 -0.23340443
00000000: d25e 80be dccc c13e 642b 793d 42af c83e
00000010: 956b a23d a357 703f 3d15 393f d1ca 063e
00000020: 84e5 debd eef2 bb3e 67a0 193d 3e7b ba3e
00000030: 175a 783d 3282 4d3f e36e 333f 4b8a b83d
00000040: 6f98 c3bd 9764 173f 74d0 7a3f 0752 f13d
00000050: 7521 e53c 3183 fe3e ed3b 503d 0ee7 a4be
00000060: bfb8 11be 0bc1 a93e 6b6f 953a c654 d23e
00000070: ca0e 723f a4ef 1ebd 1324 703d 9201 6fbe

fc_layers.1.bias f4 [4]
0.40224975 0.43316674 0.30822188 0.4906659
00000000: aef3 cd3e 08c8 dd3e 42cf 9d3e 9038 fb3e
