param4_ddqn_solved_546.pth (torch, 3671 bytes, 6 tensors)

fc_layers.0.weight f4 [8, 37]
0.24860612 0.121483855 0.22223878 0.20780107 0.012488039 0.19514982 0.04764946 -0.0024832552
-0.25484687 -0.9907265 0.08213597 0.23954311 0.10437526 -0.011377404 -0.22884306 0.11394383
0.070296265 0.082109526 0.007123623 -0.15758532 0.12436223 -0.0053044404 -0.04999993 -0.18340707
-0.53728694 0.0111371875 0.02303198 -0.0016383078 -0.16559388 -0.22708216 0.12331961 0.25908253
0.14567924 -0.348505 -1.0649385 -0.017939445 0.022611376 0.29687825 0.22559577 0.22254021
0.22024204 -0.020987155 0.3215717 0.3053427 0.31272027 0.26384673 -0.051595386 0.38200483
0.09042896 0.1336074 0.18877994 -0.0052658566 0.2801665 0.2581101 0.23085813 0.2157014
-0.045946267 0.23205611 0.18416025 0.20478064 0.29341146 0.20018004 0.2786187 0.26082715
0.21036494 0.12168816 -0.13214086 0.20523459 0.14154369 0.18438415 0.19019426 0.10843639
-0.044336665 0.021244517 -0.035743136 -0.018506173 -0.015941145 -0.0230422 0.002220632 0.056510504
0.09938284 0.08782668 0.115623094 0.035601344 0.05484574 0.04462641 0.1155252 0.19469598
0.121917784 0.103713095 0.09941945 0.1326389 0.1499096 -0.020695996 0.08822687 0.19375454
0.0115713 -0.11107284 -0.28907102 0.025481058 -0.0012275741 0.024203911 0.030279243 0.011290676
0.57136005 -0.861227 -0.65511644 -0.6142001 -2.467993 0.03770105 0.01688853 -0.008906811
0.037158616 0.06151406 0.021210203 0.010816352 -0.053233407 0.04461342 0.042852562 0.07866961
0.07592098 0.031217607 0.06489863 -0.010590356 -0.07572243 -0.14128308 0.021460881 0.0076503335
0.0074568866 -0.005975646 -0.054565035 0.6720024 -0.6381612 -0.4812861 -0.38963217 -2.5823383
-0.12705699 -0.07064793 -0.032276712 -0.011843624 0.06133156 -0.17787038 0.074575916 0.11051363
0.20743936 0.20375445 -0.007083893 0.0061526303 0.06543224 -0.009744242 0.03622572 0.0025493938
-0.03143101 -0.054017223 0.039773222 0.026439251 0.033958573 0.111387774 0.044559825 0.08554745
0.083872385 0.05070921 -0.020896547 -0.0017263162 -0.053755738 0.001940269 -0.015311794 0.0042088274
-0.057048414 -0.04368795 0.02789818 0.13952531 0.099177696 -0.061485372 -0.074883334 -0.05665492
0.08648444 0.18735269 0.41606227 -0.32816368 -0.39476326 -0.2911268 -1.5589316 -0.037548464
-0.012072834 0.08644277 0.08894921 0.13074781 0.120790206 0.036404967 0.5939281 -0.89846045
-0.6650019 -0.5611382 -2.1386023 0.018473886 0.12244845 0.11129295 0.07973819 0.0022354426
0.0077613746 -0.012503139 0.026923567 0.05932849 0.07061212 -0.024875697 -0.028146343 -0.0111010885
-0.01632666 -0.041592218 0.051120363 0.06287036 0.035291176 0.045648865 -0.0055496655 0.13850585
0.17927709 0.15128201 0.1474301 -0.03184114 0.01130835 -0.0019149887 -0.0045898175 -0.018038042
0.031969547 0.05822617 0.046470053 0.013871545 0.053689297 0.046634972 0.13560617 0.093167834
0.1021421 0.20523615 0.19354051 0.1750719 -0.00590818 -0.014233066 -0.0052751945 -0.028505204
0.007679756 0.032644697 0.013305673 0.0025148669 0.012373549 -0.03877097 -0.09184058 0.5228465
-0.30303302 -0.49304497 -0.41015086 -2.37585 0.010968581 -0.035120353 -0.025521306 -0.06632838
00000000: 9a92 7e3e 87cc f83d 9092 633e cec9 543e
00000010: a29a 4c3c 5bd5 473e 152c 433d 1cbe 22bb
00000020: 4a7b 82be 40a0 7dbf e736 a83d ca4a 753e
00000030: b2c2 d53d 4b68 3abc d655 6abe 625b e93d
00000040: 7df7 8f3d 0a29 a83d 486d e93b 0c5e 21be
00000050: a0b1 fe3d dfd0 adbb bacc 4cbd 10cf 3bbe
00000060: a38b 09bf c078 363c 90ad bc3c 7dbc d6ba
00000070: 7191 29be 3a88 68be fe8e fc3d 77a6 843e
00000080: f02c 153e 3f6f b2be e84f 88bf bef5 92bc
00000090: 7e3b b93c 6d00 983e 9402 673e 95e1 633e
000000a0: 2187 613e 41ed abbc 0ca5 a43e e155 9c3e
000000b0: df1c a03e eb16 873e af55 53bd 2396 c33e
000000c0: d232 b93d 61d0 083e 874f 413e 358d acbb
000000d0: fc71 8f3e 0227 843e 1366 6c3e d4e0 5c3e
000000e0: 2732 3cbd 1ea0 6d3e 8194 3c3e 04b2 513e
000000f0: 073a 963e fffb 4c3e 1ca7 8e3e 238b 853e
00000100: e869 573e a437 f93d ef4f 07be 0429 523e
00000110: d4f0 103e 33cf 3c3e 49c2 423e e613 de3d
00000120: 5d9a 35bd fb08 ae3c 6567 12bd 429a 97bc
00000130: 0197 82bc ffc2 bcbc 0688 113b 8f77 673d
00000140: 3b89 cb3d 79de b33d cdcb ec3d b7d2 113d
00000150: eda5 603d 2fca 363d 7a98 ec3d 625e 473e
00000160: 08b0 f93d 8867 d43d 6d9c cb3d 7ed2 073e
00000170: e781 193e a68a a9bc 4ab0 b43d 9767 463e
00000180: 8d95 3d3c 287a e3bd 1e01 94be a7bd d03c
00000190: 8de6 a0ba 4847 c63c 2d0c f83c 87fc 383c
000001a0: a744 123f 5f79 5cbf b6b5 27bf 383c 1dbf
000001b0: 99f3 1dc0 6b6c 1a3d d159 8a3c dfed 11bc
000001c0: a233 183d 2bf6 7b3d 05c1 ad3c 1237 313c
000001d0: 460b 5abd 90bc 363d 2b86 2f3d 881d a13d
000001e0: 757c 9b3d 11bc ff3c 93e9 843d 2c83 2dbc
000001f0: 5d14 9bbd 83ac 10be bbce af3c a6af fa3b
00000200: e658 f43b 5acf c3bb 967f 5fbd 5908 2c3f
00000210: 885e 23bf 226b f6be de7d c7be 0845 25c0
00000220: 3a1b 02be ddaf 90bd 9634 04bd c20b 42bc
00000230: cd36 7b3d a723 36be 42bb 983d f854 e23d
00000240: fc6a 543e 02a5 503e 0020 e8bb 019c c93b
00000250: 5701 863d 50a6 1fbc 6c61 143d bb13 273b
00000260: cebd 00bd 2a41 5dbd 3fe9 223d 2197 d83c
00000270: 2518 0b3d 461f e43d 5d84 363d 8033 af3d
00000280: 49c5 ab3d 76b4 4f3d 3c2f abbc 8f45 e2ba
00000290: fa2e 5cbd a050 fe3a 52de 7abc 34ea 893b
000002a0: 99ab 69bd 23f2 32bd b98a e43c b9df 0e3e
000002b0: ad1d cb3d 16d8 7bbd 6f5c 99bd fd0e 68bd
000002c0: c11e b13d 62d9 3f3e 1d06 d53e 1205 a8be
000002d0: 691e cabe 920e 95be 128b c7bf 6bcc 19bd
000002e0: 23cd 45bc e808 b13d 012b b63d c1e2 053e
000002f0: db60 f73d 601d 153d ac0b 183f 8101 66bf
00000300: 913d 2abf c1a6 0fbf dcde 08c0 8c56 973c
00000310: 41c6 fa3d 8fed e33d c74d a33d 8180 123b
00000320: 2153 fe3b f7d9 4cbc d08e dc3c 6e02 733d
00000330: 169d 903d 1ec8 cbbc 2993 e6bc 57e1 35bc
00000340: 7dbf 85bc 9a5c 2abd 9663 513d 2dc2 803d
00000350: 7b8d 103d 4efa 3a3d f8d9 b5bb 7ad4 0d3e
00000360: 6a94 373e ace9 1a3e ebf7 163e db6b 02bd
00000370: a846 393c 5c00 fbba 2e66 96bb 84c4 93bc
00000380: 80f2 023d 907e 6e3d 6257 3e3d 7a45 633c
00000390: 4fe9 5b3d 5004 3f3d 58dc 0a3e c7ce be3d
000003a0: e12f d13d 6d29 523e 7c2f 463e 0c46 333e
000003b0: 6899 c1bb ce31 69bc 8adb acbb bf83 e9bc
000003c0: 76a6 fb3b 72b6 053d 0a00 5a3c 77d0 243b
000003d0: 6dba 4a3c 4fce 1ebd ea16 bcbd 45d9 053f
000003e0: 2527 9bbe 6470 fcbe 4bff d1be ed0d 18c0
000003f0: 90b5 333c 5cda 0fbd 0f12 d1bc 2cd7 87bd

fc_layers.0.bias f4 [8]
0.05766469 0.34370866 0.06383912 0.055484366 0.04213867 0.14238515 0.09931899 -0.03410014
00000000: cf31 6c3d 95fa af3e 16be 823d 9343 633d
00000010: 9999 2c3d 6acd 113e c167 cb3d 97ac 0bbd

fc_layers.1.weight f4 [8, 8]
0.015964316 0.16850805 -0.48713875 -0.46050078 -0.21369986 -0.10810852 0.95300776 0.7202144
-0.27755722 0.47128057 0.65077084 0.64244044 0.74229527 0.6749133 0.34390724 0.8937068
-0.30232996 0.11434186 0.43925348 0.62546724 0.22385485 0.057205077 -0.010100749 -0.6094007
0.12139784 0.062936805 -0.054501507 0.62012523 -0.5238349 -0.51809436 -0.46004927 -0.6283367
-0.065999866 0.09105355 -0.16362877 -0.053008527 -0.058509525 -0.054030262 -0.17926294 -0.31467056
0.6056729 -0.18564457 0.29423124 -0.680204 -0.5629304 -0.408031 -0.16719751 -0.13589703
0.16036245 0.08354796 -0.50276023 -0.42116466 -0.25439256 0.6502355 -0.68105054 -0.49268535
-0.1322388 -0.20129368 -0.31874785 0.015792638 0.1566712 0.07826358 0.069915086 -0.26813045
00000000: 99c7 823c 608d 2c3e 406a f9be c2c6 ebbe
00000010: 23d4 5abe 0068 ddbd 51f8 733f f95f 383f
00000020: fb1b 8ebe b04b f13e eb98 263f fa76 243f
00000030: 1007 3e3f 1ec7 2c3f 9c14 b03e f8c9 643f
00000040: feca 9abe 112c ea3d d5e5 e03e 9f1e 203f
00000050: 353a 653e df4f 6a3d 9d7d 25bc af01 1cbf
00000060: 6e9f f83d 03e5 803d f93c 5fbd 87c0 1e3f
00000070: 0b1a 06bf d5a1 04bf 948b ebbe adda 20bf
00000080: f02a 87bd 497a ba3d 4d8e 27be 781f 59bd
00000090: afa7 6fbd d64e 5dbd b490 37be 801c a1be
000000a0: 610d 1b3f 9c19 3ebe 7aa5 963e d921 2ebf
000000b0: 351c 10bf 70e9 d0be d335 2bbe 9728 0bbe
000000c0: 0e36 243e 311b ab3d e5b4 00bf e5a2 d7be
000000d0: be3f 82be d575 263f 5459 2ebf 4141 fcbe
000000e0: 9c69 07be ee1f 4ebe eb32 a3be 905f 813c
000000f0: 6a6e 203e a848 a03d a42f 8f3d 6548 89be

fc_layers.1.bias f4 [8]
-0.36373264 0.48320022 0.5754992 0.14249554 -0.2600709 0.047337398 -0.2253908 -0.17056243
00000000: 2a3b babe 0566 f73e ea53 133f 5aea 113e
00000010: 0328 85be dce4 413d d9cc 66be eba7 2ebe

fc_layers.2.weight f4 [4, 8]
0.72899354 0.4482898 0.51470536 -0.22102444 0.18671228 -0.506204 0.88592744 0.29919288
0.5934807 0.5511753 0.26729542 0.23503838 0.16558933 -0.35999033 0.9587019 -0.1473581
0.5196442 0.5146135 0.53450614 0.49528632 -0.3075039 -0.67992693 0.30285758 -0.16323979
0.6888367 0.5506209 0.03286327 -0.17681861 0.011809029 -0.6427383 -0.11614372 -0.16900384
00000000: 529f 3a3f 3e86 e53e bbc3 033f 3b54 62be
00000010: 8131 3f3e 9696 01bf 24cc 623f cf2f 993e
00000020: 5aee 173f d319 0d3f f2da 883e e7ad 703e
00000030: 4090 293e a750 b8be 7d6d 753f 0be5 16be
00000040: 6707 053f b6bd 033f 65d5 083f 2b96 fd3e
00000050: 2771 9dbe b10f 2ebf 2610 9b3e 5528 27be
00000060: 9a57 303f 7ef5 0c3f a39b 063d f00f 35be
00000070: a87a 413c 7f8a 24bf c2dc edbd 580f 2dbe

fc_layers.2.bias f4 [4]
0.23633265 0.10061552 -0.069149256 0.4478952
00000000: 3001 723e 820f ce3d 209e 8dbd 8552 e53e
