param5_solved_479.pth (torch, 6879 bytes, 4 tensors)

fc_layers.0.weight f4 [32, 37]
0	0x3d9262e9	0.07147772
1	0x3e1843fe	0.14869687
2	0x3e0b7951	0.13620497
3	0x3e03c667	0.12868653
4	0x3bd99746	0.0066403477
5	0x3ee73c95	0.45163408
6	0xbf60f2b9	-0.87870365
7	0xbf34195e	-0.7035121
8	0xbf38581c	-0.72009444
9	0xc024d54c	-2.5755186
10	0x3d7a6470	0.06113094
11	0x3ddd9d51	0.10821021
12	0x3de4d260	0.11172938
13	0x3dc84f96	0.09780805
14	0x3ca5d546	0.020243298
15	0x3b886104	0.004161956
16	0x3ca23074	0.019798495
17	0x3d2b34ba	0.04179833
18	0x3da925b3	0.08259144
19	0x3da46b90	0.080283284
20	0xbd693698	-0.05693683
21	0xbc4aa851	-0.012369231
22	0x3d2e7a92	0.04259736
23	0x3dc0a05e	0.094055876
24	0x3e079a05	0.13242348
25	0xbdb5a65a	-0.0886962
26	0x3a5cd8d9	0.0008424647
27	0x3c815a11	0.015790017
28	0x3d7b9f32	0.061431117
29	0x3d9a1f29	0.075254746
30	0xbb479be5	-0.003045791
31	0x3e3e9ea0	0.18615198
32	0x3dd7d51d	0.10538695
33	0x3e014f20	0.1262784
34	0x3d734c12	0.05939872
35	0xbb61aed2	-0.0034436476
36	0x3bad94ea	0.005297293
37	0x3d4ec217	0.050478067
38	0xbd660e19	-0.05616579
39	0xbc6fd16a	-0.014637331
40	0x3d87446d	0.06604848
41	0x3e3e0740	0.18557453
42	0x3e241673	0.16024189
43	0xbe2c0d2b	-0.16801898
44	0xbdb2abe2	-0.0872419
45	0x3d9483bd	0.072516896
46	0x3ebffc63	0.37497243
47	0xbd940742	-0.07227947
48	0x3da9d2f5	0.0829219
49	0xbd52b272	-0.05143971
50	0xbe5de4af	-0.21669267
51	0xbd895978	-0.06706518
52	0x3d8ff797	0.07029646
53	0xbdaaa4b9	-0.083321996
54	0xbb9cf4bc	-0.004789917
55	0x3d175fab	0.03695647
56	0x3e847804	0.25872815
57	0xbc1eb656	-0.009687027
58	0x3cc21ffb	0.02369689
59	0xbd292773	-0.041297387
60	0xbd55bd6d	-0.052182604
61	0xbd83ebc4	-0.06441453
62	0x3e313bbc	0.17307943
63	0xbeb845a8	-0.35990644
64	0xbe3ec10b	-0.18628328
65	0x3e38cafb	0.18046181
66	0x3f19e55e	0.6011561
67	0xbc058972	-0.008150445
68	0xbe86ae54	-0.26304877
69	0xbdd00a9d	-0.10158274
70	0x3d08bb3c	0.033381686
71	0x3e2dea40	0.1698389
72	0xbd175f23	-0.036955964
73	0x3bf9083c	0.0075998586
74	0x3c452ee8	0.012035109
75	0xbe6daf60	-0.23211432
76	0xbe1fba3b	-0.15598385
77	0x3d8e84b4	0.06958905
78	0x3d158ba9	0.036510143
79	0x3e2a2edc	0.16619438
80	0x3de9be66	0.11413269
81	0xbd38361e	-0.044973485
82	0xbd575555	-0.052571613
83	0xbdfd4426	-0.12366514
84	0x3e265252	0.1624234
85	0xbd3753b5	-0.044757564
86	0x3dd9b646	0.10630469
87	0xbd218276	-0.039431058
88	0xbddab262	-0.10678555
89	0x3e11ec21	0.14250232
90	0x3b98a273	0.0046580373
91	0x3c6dfff2	0.014526354
92	0x3dd99e3e	0.106258854
93	0xbc29ec72	-0.010371314
94	0x3dcb186e	0.09916769
95	0xbe01e733	-0.12685852
96	0x3db35eac	0.087582916
97	0x3d31e3a6	0.043429993
98	0x3e015495	0.12629922
99	0x3e62db89	0.22154059
100	0xbe9b1d3b	-0.3029574
101	0xbe5850b8	-0.21124542
102	0xbe43b321	-0.19111301
103	0xbec0cdb3	-0.37656936
104	0xbd8c4c4b	-0.06850489
105	0xbd47c636	-0.048773013
106	0xbd397712	-0.04527957
107	0x3e2f8a4b	0.17142598
108	0x3a4f7057	0.0007913163
109	0xbe621b02	-0.22080615
110	0x3c945f1d	0.01811176
111	0xbccae8f4	-0.024769284
112	0xbdbde79a	-0.0927269
113	0xbcf431c4	-0.029808886
114	0x3d0bc051	0.034118954
115	0x3e344c97	0.17607342
116	0xbdd070ef	-0.101777904
117	0xbe2cbb14	-0.1686824
118	0xbc451b39	-0.012030416
119	0x3d3fe249	0.04684666
120	0x3eb6b86c	0.35687578
121	0xbdbfa8b3	-0.09358349
122	0xbd366b73	-0.044536065
123	0xbda05914	-0.0782949
124	0xbdfe0f2b	-0.12405237
125	0xbd8de062	-0.06927563
126	0xbd60b4ef	-0.05486005
127	0xbdd9a0a2	-0.106263414
128	0xbc0ca726	-0.008584773
129	0x3d20fcb2	0.03930349
130	0x3e37e6d5	0.17959149
131	0xbd7ea07b	-0.062164765
132	0xbd241f22	-0.040068753
133	0x3d23442a	0.03985993
134	0x3d952377	0.07282155
135	0x3de27691	0.11057771
136	0x3d402c78	0.04691741
137	0xbe60a2bc	-0.21937078
138	0xbe48bfdd	-0.1960444
139	0xbd4e79e4	-0.050409213
140	0x3f289617	0.6585402
141	0xbe4daa47	-0.20084487
142	0xbd22f6f8	-0.03978631
143	0x3b903ad2	0.004401543
144	0xbb3d3c16	-0.0028874925
145	0x3e38ef06	0.1805993
146	0xbc283e56	-0.010268768
147	0xbab7f2a9	-0.001403411
148	0x3d22c689	0.03974012
149	0x3d04d1df	0.03242671
150	0x3d887bd8	0.06664246
151	0x3d4cb503	0.049977314
152	0x3e2df971	0.16989686
153	0xbef314a7	-0.47476694
154	0x3e401b8e	0.18760511
155	0x3e65c7f6	0.2243956
156	0xbe97193e	-0.29511446
157	0xbf2f71be	-0.6853293
158	0xbceb8787	-0.028751148
159	0x3e0338bc	0.12814611
160	0x3e22bd14	0.1589244
161	0xbe0f92a6	-0.14020786
162	0xbe3e97e6	-0.18612632
163	0x3cf1ddac	0.029524647
164	0xbdb2f3c8	-0.08737904
165	0xbd990f58	-0.0747363
166	0xbcf702a1	-0.03015262
167	0xbcf66469	-0.030077176
168	0xbdeb3011	-0.11483777
169	0x3de655fc	0.11246869
170	0x3d63e23d	0.05563568
171	0xbe92776a	-0.2860673
172	0xbebf5b8e	-0.37374538
173	0xbc2e53cd	-0.010640097
174	0xbdcab6a7	-0.098981194
175	0xbdd5eeed	-0.10445962
176	0xbe2dc234	-0.16968614
177	0xbd611ea3	-0.054960858
178	0xbe3f0745	-0.18655117
179	0x3e6b62ec	0.22986954
180	0x3e734b45	0.23759182
181	0xbe82195d	-0.25409976
182	0xbf1d3b1f	-0.61418337
183	0xbcacac69	-0.021078305
184	0x3c821c6b	0.015882691
185	0x3e2d690e	0.16934606
186	0x3cceb1a5	0.025231192
187	0x3a0b2bfa	0.0005308982
188	0x398c8dab	0.00026808432
189	0xbdc9fada	-0.09862299
190	0x3d86a401	0.0657425
191	0xbcee6313	-0.029099977
192	0x3d92e783	0.071730636
193	0x3e2271dc	0.15863746
194	0xbae2e826	-0.0017311617
195	0x3cb64191	0.022248061
196	0x3d85b98a	0.065295294
197	0xbd10e013	-0.035369944
198	0x3d996435	0.07489816
199	0x3d92407e	0.07141207
200	0x3e182fb0	0.14861941
201	0xbd5fb785	-0.054618377
202	0xbbe28822	-0.006913201
203	0xbd286102	-0.04110814
204	0xbd6626e3	-0.05618943
205	0xbd1004aa	-0.035160698
206	0xbe3e1f5a	-0.18566647
207	0xbd863ab7	-0.06554168
208	0xbdcadbed	-0.09905229
209	0xbd981f8b	-0.07427891
210	0x3e17bd20	0.14818239
211	0x3cde2954	0.027119316
212	0xbd1c9817	-0.03823098
213	0xbe009e7a	-0.12560454
214	0xbe2df7eb	-0.16989104
215	0x3e1e814c	0.1547901
216	0x3d92d4ff	0.07169532
217	0xbd85bd38	-0.06530231
218	0x3ddecd28	0.10878974
219	0xbe1294c1	-0.14314558
220	0x3b0271c4	0.0019904235
221	0x3ddef5ea	0.10886748
222	0x3e8082fe	0.2509994
223	0xbf0910ab	-0.5354106
224	0xbe3a07d2	-0.18167046
225	0xbcae7bed	-0.021299327
226	0x3eb1fd72	0.34763676
227	0xbe7a5968	-0.24448168
228	0x3e2bd18c	0.16779155
229	0xbe0620cb	-0.13098447
230	0x3c1db8fc	0.009626623
231	0xbcd8165e	-0.026377853
232	0x3d9a7b43	0.075430416
233	0x3e31b226	0.17353114
234	0x3dadd209	0.08487327
235	0x3d4ec99a	0.05048523
236	0xbda3948b	-0.07987317
237	0x3d2ff3c4	0.042957082
238	0xbe7ec61c	-0.2488026
239	0xbe1563a7	-0.14588796
240	0xbcf09521	-0.029367985
241	0x3d489179	0.04896686
242	0xbd88fd7c	-0.06688973
243	0x3cb312d3	0.021859562
244	0x3a44955d	0.00074990635
245	0xbdbc58d9	-0.09196634
246	0xbe0dad1f	-0.13835572
247	0xbce6d442	-0.028177384
248	0xbcdf6053	-0.02726761
249	0x3e0a9f64	0.13537365
250	0x38c9b4d2	9.618107e-05
251	0xbe4b6c67	-0.19865571
252	0x3cd3e682	0.02586675
253	0xbe265f2c	-0.16247243
254	0xbd712772	-0.05887551
255	0xbdb43b35	-0.08800355

fc_layers.0.bias f4 [32]
0	0x3d1770cd	0.03697281
1	0xbe04d316	-0.12971148
2	0x3d861aa5	0.06548051
3	0xbd9b87c3	-0.07594254
4	0x3dba88c2	0.09108116
5	0x3e0fb4a5	0.14033754
6	0xbd000bdd	-0.031261314
7	0x3dd47b81	0.10375119
8	0x3dfe55f1	0.12418736
9	0xbd28f5a4	-0.041249886
10	0xbe24ff47	-0.16113006
11	0xbe04cb86	-0.12968263
12	0xbdb69b3c	-0.08916327
13	0xbd29be6f	-0.041441377
14	0xbdbf3f10	-0.093382
15	0x3c999917	0.018749757
16	0xbe10f295	-0.14155038
17	0x3d40301f	0.04692089
18	0xbe289c69	-0.16465916
19	0x3e07c3bb	0.13258259
20	0xbd86d5fb	-0.06583782
21	0xbde874a0	-0.113503695
22	0x3d099296	0.03358706
23	0x3e9825a9	0.29716232
24	0x3dd33226	0.103122994
25	0x3e784819	0.24246253
26	0x3d8c6176	0.06854527
27	0xbe3668e1	-0.17813446
28	0x3eb4a4e6	0.35282058
29	0x3e909c6f	0.2824435
30	0x3c33d765	0.010976647
31	0x3ef2f043	0.4744893

fc_layers.1.weight f4 [4, 32]
0	0x3f31741a	0.6931778
1	0xbe14019e	-0.14453742
2	0x3d6c56ad	0.057699848
3	0xbe3ec175	-0.18628486
4	0xbe659573	-0.22420292
5	0x3d1a98c4	0.037743345
6	0xbda0d94a	-0.078539446
7	0x3d32a59e	0.043614976
8	0x3d8e8145	0.0695825
9	0x3ef40556	0.4766032
10	0x3ebe0e44	0.3712026
11	0x3eafa732	0.34307247
12	0x3e570e94	0.21001655
13	0xbdbbe445	-0.09174398
14	0x3ed20dfa	0.41026288
15	0x3e808139	0.2509859
16	0xbd8d2996	-0.068926975
17	0x3df93eac	0.12170157
18	0xbe030f29	-0.12798752
19	0x3d8c50cf	0.068513505
20	0xbc7686e4	-0.015046809
21	0x3d7aacde	0.061200015
22	0x3e3a3618	0.18184698
23	0x3e7dca56	0.24784216
24	0x3ec6fabb	0.38863167
25	0x3e50ba06	0.20383462
26	0x3f12581d	0.571657
27	0xbdd275a2	-0.10276343
28	0x3e33414d	0.17505379
29	0x3dda34dc	0.106546134
30	0x3d96c472	0.07361688
31	0x3e43d459	0.19123973
32	0x3f279aa9	0.6547037
33	0xbe02aeb9	-0.12761964
34	0x3c58ed30	0.013240144
35	0xbe1249bd	-0.14285941
36	0xbd9a2413	-0.07526412
37	0x3cfa0a07	0.03052236
38	0xbdba49b5	-0.0909609
39	0x3e1389ea	0.14408079
40	0x3d3b380e	0.045707755
41	0x3ee49c72	0.44650608
42	0x3f08c276	0.53421724
43	0x3e676595	0.22597344
44	0x3e9862b7	0.29762813
45	0x3cb59e82	0.022170309
46	0x3f15dc0a	0.5853888
47	0x3e9d00ac	0.30664575
48	0xbcbe944b	-0.023264071
49	0x3d76e71c	0.060278997
50	0xbc55a40d	-0.013039601
51	0x3e1cd5cf	0.15315937
52	0x3ddc6d2e	0.10763012
53	0x3e3eda52	0.1863797
54	0x3e815453	0.25259647
55	0x3e5db479	0.21650876
56	0x3f08147a	0.53156245
57	0x3e4b4e27	0.19854032
58	0x3ed43805	0.4144899
59	0xbd7bdf1a	-0.061492063
60	0x3e3c82de	0.18409297
61	0x3e010065	0.12597807
62	0x3d924deb	0.07143768
63	0x3e4b3d25	0.19847544
64	0x3e91f617	0.28508064
65	0xbdf7589e	-0.12077449
66	0x3c2ae2a7	0.010430015
67	0xbe144377	-0.14478861
68	0xbe208eb5	-0.15679438
69	0x3ddb26aa	0.10700734
70	0xbe088abf	-0.13334177
71	0xbc90fe49	-0.017699378
72	0x3d902545	0.070383586
73	0x3ee5f40b	0.44912753
74	0x3f407f5c	0.75194335
75	0xb8b0f9f2	-8.43889e-05
76	0x3f20f922	0.62880147
77	0x3d6fd89f	0.058556195
78	0xbd200877	-0.039070573
79	0x3edd61cf	0.43238685
80	0xbd9c58f8	-0.07634157
81	0x3d1c23f3	0.03812022
82	0x3d66f5e5	0.056386847
83	0x3e548fa5	0.20757921
84	0x3dd5a2ef	0.10431468
85	0x3ea3fb26	0.3202755
86	0x3f34f4c3	0.70685977
87	0x3e35410f	0.17700599
88	0x3ecac8ee	0.39606422
89	0x3e7ee7cc	0.24893111
90	0x3e6896f8	0.2271384
91	0xbe5f97b6	-0.21835217
92	0x3e3fb4fe	0.18721387
93	0x3e123966	0.14279708
94	0x3d65f7a7	0.056144383
95	0x3e5cec8c	0.2157461
96	0x3eb42daa	0.3519109
97	0xbdd5c28f	-0.104375
98	0x3dd59663	0.104290746
99	0xbddc00a6	-0.10742311
100	0xbc62cc18	-0.013842605
101	0x3dabb238	0.08383602
102	0xbd680b30	-0.056651294
103	0x3eafe3b8	0.34353423
104	0x3c8ee9a9	0.017445402
105	0x3de9813d	0.11401603
106	0x3d597a94	0.053095415
107	0xbd2e5725	-0.042563576
108	0x3e4dfdd8	0.20116365
109	0x3d5c3bbc	0.053767905
110	0x3f10a9e6	0.56509244
111	0x3f37e4a9	0.7183328
112	0xbe4d7101	-0.20062639
113	0x3d1d9b66	0.038478278
114	0x3d2ba82b	0.041908424
115	0xbc59bd67	-0.013289786
116	0x3e9c4437	0.30520794
117	0x3e93c5f7	0.28861973
118	0x3ea92b29	0.3304074
119	0x3e6e5044	0.23272806
120	0x3f505900	0.81385803
121	0x3e7b6052	0.24548462
122	0x3e8f6d63	0.28013143
123	0xbe5e68e4	-0.217197
124	0x3e001341	0.12507345
125	0x3d99905b	0.07498237
126	0x3de808f8	0.11329836
127	0x3e2d479b	0.16921847

fc_layers.1.bias f4 [4]
0	0x3e49655e	0.19667575
1	0x3dab2249	0.08356149
2	0x3e157d64	0.14598614
3	0x3e7d9ef3	0.24767666
