param1_solved_446.pth (torch, 29335 bytes, 6 tensors)

fc_layers.0.weight f4 [64, 37]
00000000: 0f65 123e f04f 263e b166 ed3d 2604 f63d
00000010: 4581 3c3d 06d7 923d ad4d f23d 68e7 a13d
00000020: ff82 2c3e 04c8 8b3d 6656 153e 2c98 163e
00000030: 701d ee3d 6c21 7c3d c33c 8abd 0687 cc3c
00000040: 9689 523d 2e29 da3d 8c28 f23d 988c 413d
00000050: 15b1 9bbc 58cf a83c f2bc ef39 ed45 553d
00000060: c1e4 b53d 9fba e4bb 754f 0cbd a872 04bb
00000070: 10c9 47b9 2a42 363d 5bbc d33e 76f7 16bf
00000080: 7ee5 12bf 1f16 1ebf 20ae 1bc0 2211 a1bc
00000090: cc79 a63b 6c84 d63e 7337 05bf 7fef 4cbf
000000a0: 50b7 36bf 0601 1ac0 be1d 233d df1e 013e
000000b0: a830 eb3d 207c 173e ab53 1a3e ac27 bd3c
000000c0: a9c3 0f3d 4928 a0bd 30f9 8dbc 5730 febd
000000d0: 61f3 363d 5a08 dc3c 1abe c8bc 08df f23d
000000e0: 73ad 0f3e cd7e adbc e8c4 ec3d 339d 3c3d
000000f0: 916e a6bc 77d0 32bd 8b67 6d3d 82d3 4fbd
00000100: 3ccc 8a3d 9197 233d bec6 c73d 3c1a b4bd
00000110: 08d9 15bd 6b7b 46bd 8ea4 853b 3ab8 8e3d
00000120: 24ca c938 3c5e 803c b72d b2bd 7d5c 16bd
00000130: bcf7 0abd 2e66 e7bd 2c04 443e 8c76 9e3e
00000140: e823 afbe c663 1abf 82bc 9ebe 65d3 82bf
00000150: c6d0 033e 107a 77bd ea82 3b3c adc5 6f3c
00000160: 6d6b e5bd 9ab9 243d df45 f0bc aed2 fb3d
00000170: e0c2 c0bc 4778 5f3d 9901 ffbd 0259 11be
00000180: 0b70 153e 14c5 e53d 049d 373e 51e0 75bd
00000190: eee7 64be ff92 1d3e ea5d 4abe 6d51 33be
000001a0: 7821 8e3d 7532 623d 928a 6fbe ef97 8cbe
000001b0: 1637 4bbe 68ed 983d d09a a9bc feda 58be
000001c0: ebb5 62be 2182 233e dd83 78be 43df 2dbf
000001d0: 2844 b63d 48ce 3dbe aaab 9abd 9751 66be
000001e0: 4049 a13e aa8e d8bd 6f7f a63d 2a9c 1cbf
000001f0: 3e33 a6bd 5451 81be 25ba 6ebe 3635 94be
00000200: b8bb a53e b3a5 bebe 02d9 89bd c91b 333e
00000210: 8b83 1dbf bc5d d1be 4d6a 3cbe 945d 51bf
00000220: 3362 a5bd 55e9 1bbf c320 7abd c216 14be
00000230: 1485 14bf 4a94 403c 6d01 47be 306c e0be
00000240: b8a4 91bd 1792 11bf d8c1 263e ca84 79bc
00000250: cd0f 6fbc 1b21 023e 8af0 0b3e 4bc6 a8be
00000260: 8eb5 60be 2482 95be b326 073e 6a50 dbbd
00000270: 3f24 943e af1f c23e cfa9 6d3d 7d37 c63d
00000280: 7456 163e ffb2 433d e824 d4bc 53f4 433d
00000290: 231b 17be 774b 323d 3af7 76be 2bf5 37bd
000002a0: 4380 6cbd 72cd e03d 047d 51be 971e c1bd
000002b0: 28da 6f3e 7f09 ebbd 99e3 20be f2f8 36bc
000002c0: 19e5 c0bc 7391 d83d 86dd 4c3e a3f2 11be
000002d0: 4c7c 073d 65d1 81be cae6 57bf 2b14 b03d
000002e0: eaa6 2039 7924 0bbe 79ff 113e acd8 25be
000002f0: 65e1 f63d 4ee0 f83d 8e63 04be fdae 0bbd
00000300: f275 2b3e f09c 6f3e a0d9 94be 00d9 b63d
00000310: b080 dbbe 76a8 673d 72ca aebc e8f0 a53d
00000320: 2f9e 8abd a835 debd ae8a 56be 5725 7b3e
00000330: 79bc 603e 5644 cbbd b648 b9be d382 e8bd
00000340: 9eb9 683d 0b7d 62be 486c f6bb 30b1 89bd
00000350: a877 bd3d ad49 293e c87c b8be f25a 953e
00000360: af38 fdbd 75bd 90be 959f 04be 0412 29bf
00000370: 6bd4 bcbd 05b7 a7bc 9d97 cb3d 3117 66be
00000380: 43da 52bd 112c 07bd 4e2c 5f3e f730 9e3d
00000390: 17c3 3bbd 41e4 0dbc e55f 6bbe 290c 26bf
000003a0: 6c89 913d c676 5e3e f801 7b3c 64b6 0d3d
000003b0: c187 ebbd 1ed9 a1bd 10ee febd a80f 11be
000003c0: f264 c83c 3281 2fbe 1acd a5bd 5e40 7d3e
000003d0: 0160 20be a64a 0dbf 4f5b 20bf f451 96bd
000003e0: 2b3e a03e c32e 023e ce4c 863c 9ca6 4ebe
000003f0: b89d debd bf02 ce3e 5f18 86be 98a3 0cbe
0.14296363 0.16241431 0.115918525 0.1201251 0.04602172 0.07169919 0.11831222 0.07905465
0.16846846 0.06825259 0.1458374 0.14706486 0.116267085 0.06155531 -0.06749871 0.024966728
0.051400743 0.10652386 0.1182414 0.04725322 -0.019005338 0.020606682 0.00045726408 0.05206864
0.08881522 -0.006980255 -0.034255464 -0.0020209942 -0.0001905302 0.044496693 0.4135464 -0.58971345
-0.5738143 -0.61752504 -2.4325027 -0.01966149 0.0050804373 0.41897905 -0.52037734 -0.8005294
-0.7137346 -2.4063125 0.039823286 0.12609433 0.1148389 0.14793444 0.1507098 0.023090206
0.035098705 -0.07820184 -0.017330736 -0.12411564 0.044665698 0.026859451 -0.02450471 0.11858946
0.1403101 -0.021178627 0.115609944 0.046048354 -0.020316394 -0.04365584 0.057960074 -0.05073882
0.06777236 0.039939467 0.09754704 -0.08794066 -0.03658393 -0.048457544 0.0040784543 0.06968732
9.6220785e-05 0.015669934 -0.08700126 -0.036709297 -0.033927664 -0.11298786 0.19142216 0.3094982
-0.34207082 -0.6030849 -0.31003195 -1.0220762 0.1287261 -0.060419142 0.011444787 0.014634532
-0.112021305 0.040216066 -0.029330192 0.12296043 -0.023530424 0.054558065 -0.124514766 -0.1419411
0.14593522 0.1121923 0.1793099 -0.060028378 -0.22354099 0.15388106 -0.19762388 -0.1751153
0.069399774 0.0552239 -0.23392704 -0.27459666 -0.19845232 0.07467157 -0.020703703 -0.21177289
-0.22139709 0.15967609 -0.24269052 -0.67918795 0.088997185 -0.18535721 -0.075522736 -0.22492062
0.31501198 -0.10574086 0.08129775 -0.6117579 -0.081152424 -0.2525736 -0.23313196 -0.28946847
0.3236978 -0.37235793 -0.06730844 0.17491068 -0.61528844 -0.40891826 -0.18399926 -0.81783414
-0.08075371 -0.6090291 -0.0610664 -0.14461806 -0.5801556 0.011754105 -0.19434138 -0.4383254
-0.07111496 -0.5686354 0.16284883 -0.015229413 -0.01459117 0.12707941 0.13665977 -0.32963786
-0.21944258 -0.29200852 0.13198356 -0.10708697 0.28933904 0.37914798 0.05802327 0.09678552
0.14681417 0.047778126 -0.025896505 0.047840428 -0.14756446 0.043529 -0.24117747 -0.044911545
-0.057739507 0.109766856 -0.20457846 -0.09429663 0.23423064 -0.114764206 -0.15711822 -0.011167752
-0.023546742 0.10574617 0.2000638 -0.14252715 0.033077523 -0.25355068 -0.8433653 0.08597597
0.0001532097 -0.13588132 0.14257611 -0.16195935 0.12054709 0.12152158 -0.12928602 -0.03410243
0.16744211 0.2339971 -0.29072285 0.08928108 -0.42871618 0.05655714 -0.021336768 0.0810259
-0.067684524 -0.10850078 -0.2095134 0.24525963 0.21946897 -0.099251434 -0.36188287 -0.11353078
0.056817643 -0.22118013 -0.0075202323 -0.06723249 0.09251338 0.16532011 -0.360327 0.29170948
-0.12364327 -0.28269544 -0.129515 -0.66043115 -0.09220203 -0.020473013 0.09941027 -0.22469784
-0.05147768 -0.03300101 0.21794245 0.07724183 -0.04584035 -0.008660377 -0.229858 -0.64862305
0.07106289 0.21724996 0.015320294 0.03459777 -0.115005024 -0.0790274 -0.124477506 -0.14166129
0.024462197 -0.17139128 -0.08095761 0.24731585 -0.15661623 -0.5519203 -0.62639326 -0.0733985
0.3129743 0.1271315 0.016394045 -0.20180744 -0.10869926 0.4023647 -0.2619047 -0.13734281

fc_layers.0.bias f4 [64]
00000000: 13e9 2fbd 9d30 d03d 71ca a73d df38 53bd
00000010: 0875 58be f97e 1bbe c2ba cc3d 695c b1bc
00000020: 557b 6abe 5d2f 07bd 7b6c 7abe bec7 be3c
00000030: 64c9 56be 2678 03be 86ab 77be 5deb f9bd
00000040: df72 ffbd f048 dc3d 694f b93e e9e2 a5bd
00000050: 230f 5a3d 30b4 08be ca1c 03bd 75e9 9abc
00000060: fd76 63bd 93ca 5fbe bb6e 34be 3213 c1be
00000070: a1e9 983d a97c d23d d62f 55be 7e67 1dbe
00000080: 2155 ffbd 9ff4 8abd fd89 94bd fd9f 0cbd
00000090: fab0 20bd 4df0 e2bd cedf 713e aea5 8abe
000000a0: 22ea 75be a047 543e c79e 29be 3154 29bc
000000b0: 56db 803d 4a75 3abe ab88 72be 1ee3 99bb
000000c0: d135 2d3d 3040 873d f5a0 c4bd b2a3 f1bc
000000d0: 9e5a c73c 939d 10be 54b8 063e 2e88 fe3c
000000e0: 7916 483d 2980 56bd 1b11 33be 7f76 e6bb
000000f0: f2e2 e53d d8cc b9bc 7f56 5bbd 6695 88be
-0.042946886 0.10165522 0.081929095 -0.05156791 -0.21138394 -0.15185155 0.09996559 -0.02165051
-0.2289861 -0.033004154 -0.24455445 0.023288604 -0.20975262 -0.12838802 -0.24186525 -0.12203095
-0.12473082 0.10756099 0.36193398 -0.0809992 0.05323709 -0.13349986 -0.032009877 -0.01891015
-0.055533398 -0.2185462 -0.17620365 -0.37709957 0.07466436 0.10277683 -0.20819029 -0.1537151
-0.12467409 -0.06784939 -0.07252882 -0.034332264 -0.039231278 -0.1108099 0.23620531 -0.2707953
-0.24015096 0.20730448 -0.16564475 -0.010335014 0.06291835 -0.18208805 -0.23684947 -0.004696264
0.04228765 0.0660404 -0.096010126 -0.029497001 0.024335202 -0.1412261 0.13156253 0.031070795
0.048849557 -0.052368317 -0.17486994 -0.007033169 0.11224927 -0.022680685 -0.053549286 -0.26676482

fc_layers.1.weight f4 [64, 64]
00000000: 847a ff3d 02e2 593e 5e32 81bd becb 053d
00000010: a333 4a3a 49ce 283d b117 5c3d e6d3 c2bd
00000020: 3052 b73d 6b9f 333d c846 313e 0563 7bbd
00000030: 176d 7abb f245 04be 1e8d 9abd 0adc 06bd
00000040: f7b5 9f3d 8022 f93c efc8 7c3e f77f 8c3d
00000050: e4ef 903e a0b0 203e db8a c23c 08aa b93d
00000060: bab0 bf3d 14d7 043e 00cd c33d bcf0 90bd
00000070: 0915 243d ecd3 3a3d b495 e7bd 1d19 7a3e
00000080: 0270 5b3d 71f1 b8bd fdd2 543e 53b8 653d
00000090: e22f 323d 108d 9abd cd9a d23d e1ea fbbd
000000a0: 751d b9bc 63f3 953e 3ca8 94bd d092 c13d
000000b0: 0dcf c63c d019 1a3d e7eb 613c 9e8a 133d
000000c0: 911d 4dbe 78db ed3d 2549 323e 305c 883d
000000d0: adba 213e f815 93bd 2c0a eabd d0b1 bd3c
000000e0: b18b b23c f0f5 b8bb 742c 343c d06e 463e
000000f0: 2f7e 8d3d 5ce8 e3bb c537 d3bd 79ba 3f3c
00000100: 2f1a 50bd 7343 fc3e c8d1 65bd ca2e cfbe
00000110: bff4 cfbe 608d f7bd 5178 7fbd 3883 eb3c
00000120: 9f95 6cbf 925e 0ebf c734 d1be a5d0 f23d
00000130: d1dc cbbd 7cce d0be f487 633e d76c b1bd
00000140: 3de1 dcbe aba7 ebbe e22e 10bd 1986 d6be
00000150: 6b33 6f3e 34c3 913e 5cdb 543e 8201 dc3c
00000160: 50b5 e9be dc9b 9bbd 2a0f 913c b1e8 433e
00000170: 15f0 bd3d a1e8 823e 4c81 4ebf 4ae9 3cbe
00000180: de3b 26be b6b1 b0bd ba57 d13d 48bd 7fbd
00000190: cbb3 a4be a435 d0bc 6a24 b6ba 0a12 28be
000001a0: 8e26 733e 59b5 9b3c fbf7 c63d c350 24bd
000001b0: 3210 fcbd b8a1 f03a 337c 1dbf f967 263c
000001c0: bfcb 25be dfeb 90be a0a9 e9bc 4ee3 b8be
000001d0: 6dc3 363e 09f3 03be 2158 c9be b510 34bf
000001e0: db86 a6be f4c0 25be 9cac fabe 9df3 7d3d
000001f0: 6c7d 18bf 27e8 d63e 2dfc 0abf 1ae5 bf3d
00000200: ab8f a7be 1ee6 183e 4d7a 003e 19c9 1d3d
00000210: e809 d0bd 3ed5 13bd bcec 463c 6688 953d
00000220: d9ff a8be 22a9 dd3d 11f7 f7bc 485d aa3e
00000230: d66e fabc f220 34bd 3f58 623e 6514 02be
00000240: 75a9 06be c70e debe 123a c8bd 6142 93bd
00000250: 1a23 d13e 3aef 9fbd dfdd a6bd 5e89 c8bd
00000260: d80d babd 335e 113c 1bff b43d 9c48 1dbd
00000270: c73a 023e 7abb 2ebe 75d5 a5bd 2cd6 7d3e
00000280: 170c f33d 340a 093e 2c2d 373d b11c 3c3e
00000290: 2869 26bd d2d2 1f3e 3bd0 be3d edc3 0bbe
000002a0: 54af 70be 7f1b 74bd b6fe 313e 6a73 fb3e
000002b0: 2eda 10bd d603 e53d 885e bf3d 7f82 2a3e
000002c0: 5f98 2c3e 0a9a 64bd 985f 703d cecc a0bc
000002d0: 6111 e23e e3ce 44bd 70f7 9cbe 9fb2 63bd
000002e0: 49de 293d b859 67bd 5dba cebe 32b3 00bf
000002f0: 06c6 02be 51a7 38be fe99 2f3d e8b1 a53d
00000300: 3be0 a2be 8c4f afbe 45c0 72bf 748a 333c
00000310: b7d8 4cbd 0f7c 3fbe 467e 8abe 5d65 1a3e
00000320: f0b4 2b3e 8745 55be 5896 12bf ba54 b4be
00000330: 2f43 c53d 6820 763e 0a07 8cbd 526a 37be
00000340: b44e 8bbe c717 97bd 0299 083d 7275 78be
00000350: e422 90be e591 0abf 31d4 1fbf 261c 433e
00000360: 283d 38be 45e9 c2bb 6b14 a4be ca42 713e
00000370: 23cc f6bd e681 3b3e 4d4c db3e e780 e3be
00000380: c8f0 78be 39de b9be 41b0 42bf df14 a0be
00000390: 8017 ebbe c674 0cbf 4f51 103e 4318 03be
000003a0: 6852 88be 3df2 cf3d 9b3a 073e 49da e13e
000003b0: 97b3 f5be ec2d a5be fbc8 68bf 6f8e 103e
000003c0: 94e4 c1be 41b2 6cbd bafe bfbd b7a7 b3be
000003d0: 9b4b fa3d 54f7 c0be bc45 22be f115 3f3c
000003e0: 1e40 323e d422 7e3d 36a5 11be 342a 35bf
000003f0: fb1f ecbd 8e82 0b3d b2d2 c6bd d35a b73d
0.1247454 0.21277621 -0.06308435 0.032665007 0.0007713383 0.041212354 0.05373353 -0.09513073
0.08951223 0.043853205 0.17312157 -0.06137373 -0.0038211995 -0.12917307 -0.07546447 -0.03292469
0.07798379 0.030411959 0.24686025 0.06860345 0.28308022 0.15692377 0.023747852 0.09065634
0.0935988 0.12972671 0.09560585 -0.070771664 0.040059123 0.04561226 -0.113078505 0.24423642
0.053573616 -0.09030426 0.2078361 0.05608399 0.043502696 -0.07546437 0.10283432 -0.12300659
-0.022597054 0.29287252 -0.07258651 0.094518304 0.024268651 0.037622273 0.013789154 0.036020868
-0.2003081 0.11614126 0.17410715 0.06658208 0.15793867 -0.071819246 -0.114277214 0.023156077
0.021795126 -0.0056445524 0.010996927 0.19378209 0.06908833 -0.0069551896 -0.103133716 0.011702173
-0.05080622 0.4927021 -0.056108266 -0.40465385 -0.40616414 -0.12087512 -0.062370602 0.028749093
-0.92415804 -0.5561305 -0.40860578 0.11856202 -0.09954227 -0.40782535 0.22219831 -0.08663338
-0.43140593 -0.46026358 -0.03520096 -0.41899183 0.23359458 0.2846924 0.20786804 0.026856188
-0.45646143 -0.07598087 0.017707426 0.19131733 0.09274308 0.25568107 -0.8066604 -0.18448368
-0.16233775 -0.08627646 0.10221811 -0.062436372 -0.3216842 -0.025416203 -0.001389635 -0.16413131
0.23745176 0.019007372 0.09715267 -0.040116083 -0.123077765 0.0018358743 -0.6151764 0.010156625
-0.16191004 -0.28304955 -0.028523266 -0.3611092 0.17847987 -0.1288568 -0.3932505 -0.7033799
-0.32524762 -0.16186887 -0.48959816 0.061999906 -0.5956638 0.41973993 -0.5429104 0.093698695
-0.32726797 0.14931533 0.12546654 0.03852186 -0.101581395 -0.036092035 0.012141403 0.073014066
-0.33007696 0.10823275 -0.030269178 0.33274293 -0.030570429 -0.04397673 0.22103976 -0.12703092
-0.1315058 -0.4337065 -0.09776701 -0.07190395 0.40847093 -0.07809301 -0.08147787 -0.09791826
-0.09084672 0.0088725565 0.0883772 -0.038399324 0.12717734 -0.17063704 -0.08097354 0.24788731
0.1186754 0.13382798 0.044720814 0.1837032 -0.04062763 0.15607765 0.093170606 -0.13648959
-0.23504382 -0.059596535 0.17382321 0.4911149 -0.035364322 0.11182372 0.09344202 0.16651343
0.16855 -0.055810966 0.058684915 -0.019628908 0.44153884 -0.048048865 -0.3065753 -0.05559027
0.041471753 -0.056482047 -0.4037656 -0.5027343 -0.12770852 -0.18032576 0.042871468 0.080905735
-0.318117 -0.34240377 -0.9482463 0.010958303 -0.050011363 -0.18699668 -0.27049464 0.1507773
0.16768241 -0.20827304 -0.57260656 -0.3522089 0.09631955 0.240358 -0.0683728 -0.17911652
-0.27208483 -0.07377582 0.033349045 -0.24263552 -0.2815162 -0.5412887 -0.62433153 0.19053707
-0.1799208 -0.005948218 -0.32046828 0.23560634 -0.12050655 0.18311271 0.4283165 -0.44434282
-0.24310601 -0.36302355 -0.7605019 -0.31265923 -0.45916367 -0.5486568 0.14093517 -0.12802224
-0.2662537 0.10153625 0.1320595 0.4411185 -0.4798858 -0.32261598 -0.9093167 0.14116834
-0.37869704 -0.057787184 -0.09374757 -0.35088894 0.12221452 -0.37688696 -0.15846914 0.011662946
0.17407271 0.062044933 -0.14223179 -0.7076752 -0.11529537 0.034060054 -0.09708156 0.0895287

fc_layers.1.bias f4 [64]
00000000: 6dbf 3d3f c12a 4fbe a668 723e 32b1 20be
00000010: a57b 23be cf1f b63d 9f08 563e 7162 a83d
00000020: 58ae 643e 3a76 3b3d df7b fa3d e3c8 f3bd
00000030: ab13 933d 831e edbc 36ee 41be d8c7 03be
00000040: 4ce7 31be 05ec d43e 7713 08be 52df 873e
00000050: c515 08be acd8 45be 9716 d1bd 81e9 3e3f
00000060: 4359 333f 60f6 01be 5da5 053e 5a9e e03d
00000070: a0ad 53be 26fe 33be bea6 573d c64b 1dbe
00000080: d387 19bb 3664 513e fc41 edbd 09d9 4cbe
00000090: f4ff f43e e6e1 ff3d 277e b23d 68d8 d3bc
000000a0: ff19 f23e c9fd 433c 6006 cd3b 5138 203f
000000b0: 654c 133f 7f56 813e 934f 963e e6db 0e3f
000000c0: 1e91 383d 5982 173e 877e 16be 60cf ae3d
000000d0: 204b 4dbe 9182 53bc 0bfa dc3e d9a5 1abe
000000e0: 5231 853e 6858 203e 4736 143e 5fae bebd
000000f0: a916 a03e 188e 6ebe 2d46 033f 6d9a bc3d
0.7412022 -0.20231153 0.23672733 -0.15692595 -0.15965135 0.08892786 0.20901726 0.08221901
0.22332132 0.045767047 0.12230658 -0.119035505 0.07181486 -0.028945213 -0.18938527 -0.12869203
-0.17373389 0.4158632 -0.13288675 0.26537567 -0.13289554 -0.19320935 -0.10209387 0.7457505
0.7005808 -0.12691641 0.13051362 0.10967703 -0.20671701 -0.17577419 0.052649252 -0.15360937
-0.0023426905 0.20448384 -0.11584851 -0.20004667 0.47851527 0.124942586 0.08715468 -0.025860026
0.47285458 0.011962363 0.0062568635 0.6258593 0.57538444 0.25261304 0.29357585 0.5580429
0.04506027 0.14795817 -0.14696704 0.085356474 -0.20048189 -0.012909547 0.43159518 -0.15102328
0.2601419 0.15658724 0.1447383 -0.093106024 0.31267288 -0.23296392 0.51278955 0.09209142

fc_layers.2.weight f4 [4, 64]
00000000: e49c 8a3e 2afd e3bd b550 793e 55ac 91bd
00000010: 5101 eabe 1f16 6e3e 01d7 783e 6187 d6bc
00000020: 78cb e33d ea1f c33d fc59 1fbb 7f76 12be
00000030: df96 ddbe 3155 f53d dcae 73be 45a0 023f
00000040: c8f9 64be c0a1 973e 95b2 4d3e 874b 193e
00000050: 336d 9bbd 0784 3ebe b13e 213b a3e3 8b3e
00000060: 2d1e 5f3e 0c17 133e 98dc 043e 92df d13d
00000070: f9ec 87be 546c 4ebe 3b35 34bf d9ee 9fbe
00000080: b88b 7c3d a969 193e 2893 ebbe 23b3 a1bd
00000090: 8cf2 763e 98b7 e93d 57e9 923c 50ad 13be
000000a0: deda 4f3e 1a3c 5e3d 9bb5 803e 8365 603e
000000b0: d557 733e 2027 153e f748 6f3e 6a59 7d3e
000000c0: 6bbe ca3e 717a 403e 7c79 9cbe 8ab5 123e
000000d0: 6db4 f2bd d23b 72bf 6462 863e ccc4 67be
000000e0: 5874 8f3e 5611 913e 55fe 8b3e a7a7 643d
000000f0: 87c0 0e3e 4835 44be 87e1 0d3e eaae a73d
00000100: b2f5 903e 8e33 f3bd 8296 193e 63fd 24bd
00000110: 57f1 94be 14c3 403e 75d1 9d3e 458b dd3d
00000120: 2c35 ca3d 80bb bb3d c831 8cbd 5dc8 95be
00000130: a09b 323e dfa7 0a3e 8a8f 53be b7df 293f
00000140: fe03 f8bd 737a 5b3e a013 4fbe 094a 4a3e
00000150: 67b8 0e3e 708d 46be b0a8 1b3d 45e6 5e3e
00000160: cad9 7f3e 7ba2 eabd b8a4 b33d aa13 7a3d
00000170: 6990 71be f713 09be 5cd7 85bd bd63 42be
00000180: 89d0 593e 81d5 c43d e854 dabe 09fa fabb
00000190: cb1b 8b3e d764 383e 229d c13e 4051 e4bd
000001a0: 3695 f43d 9a4c 193e f085 973e 282b 4c3e
000001b0: 5f1d 203e 3246 083e 1fa8 243e 3eaf 803e
000001c0: 0e55 2b3f b6e1 c63d 025e 1cbe 57ea 413e
000001d0: 8f84 203d b306 8c3a 2891 bc3e 050a 62be
000001e0: 463d 503e 5fe5 a23e 5116 d73e 5242 c03c
000001f0: ac09 f13d 5618 0dbe 88f3 753e 032a 143e
00000200: 55ae 823e b57c 55bd 83e4 0d3e 8f94 37be
00000210: 41c0 8fbe a2d1 fdbc 6830 5b3e 4899 173e
00000220: 544e 9f3d bb4b ad3e f97b 243e 8a32 23be
00000230: 8ebd d6bd 9e23 55be 15b0 b8bd a517 87bb
00000240: 1ca4 6a3e 1d21 273e 4fb7 163e a654 ec3d
00000250: 4be5 943d c95f 81be a25d 013f 2f3f 903e
00000260: 18a3 313e c630 943e b63d d73d ecf0 323e
00000270: 2b81 82be 0fcd dcbe f168 f5be fb7f efbe
00000280: d7f5 af3e edec 813e 2bbd 69be 1b2a 16be
00000290: a6bc 3b3e c554 b0be a964 483e a2a7 c13d
000002a0: 5ac9 a93d cfa5 863d 312b ae3e 960f 413e
000002b0: 9bab 823e e38f 853e 43de 103e f6a8 b93e
000002c0: feb0 373f 9dcc 08bd 3eaa 4bbe f925 8fbd
000002d0: 448b 5dbd 51e2 8fbe eb67 833e 97ef b6be
000002e0: 2a96 233e fbe7 e63d 7673 da3e c797 513d
000002f0: 248f 2a3e 9a88 013e 0413 5f3e cfa1 023d
00000300: d243 523e 1eb7 33be c776 3d3c fceb c3be
00000310: 1f86 1bbe 91f7 7c3d 555b 233e 2cde 723e
00000320: 6458 423e 981e 3e3e 5bbc 503e 1757 90be
00000330: 45ae c03d d9ac a6be d2c0 cfbe 7073 543f
00000340: 8922 493c d866 823e a852 01bf 2fad 5b3e
00000350: 95e2 9d3e 9a79 76be 4a66 f33e 40e4 913e
00000360: 7011 4e3e 4af5 893e bd25 073e 0620 823e
00000370: cd58 0cbd bbc7 d7bd c11e 9cbe e05b c5be
00000380: c905 b53e 7927 17bc a8a6 d9be 517d ce3d
00000390: 957c 603e 5cf1 49be 6c26 8fbe 06e9 55be
000003a0: 6af4 4a3e a806 55be 6a5c a93e e2eb 443e
000003b0: 188f 5b3e b636 823e 8c14 493e 3a04 803e
000003c0: 982e 4cbe 133d 753e 815b 2dbe 2a36 243e
000003d0: a6b6 133d 86cf 43bf 4d42 c03e c35d 3cbe
000003e0: ce7b 273e c143 483e 3285 783e 23f8 513d
000003f0: bd28 803d 29ae 8ebd 7e76 5a3e da0a 3f3e
0.27072823 -0.111322716 0.24347194 -0.07112948 -0.4570413 0.23250626 0.24300767 -0.0261876
0.11122793 0.095275715 -0.002431511 -0.14303015 -0.43279168 0.119791396 -0.23797172 0.510258
-0.22360909 0.29615593 0.20087655 0.14970218 -0.075891875 -0.18605052 0.0024604017 0.2732211
0.21788855 0.1436426 0.12974775 0.10247721 -0.26547983 -0.20158511 -0.70393723 -0.31236914
0.061656684 0.14981712 -0.4601071 -0.07895496 0.24115962 0.11411971 0.01793353 -0.14421582
0.20298335 0.054256536 0.25138554 0.21913724 0.23763974 0.14565706 0.23367678 0.2474114
0.39598402 0.18796708 -0.30561435 0.14327064 -0.1185082 -0.9462253 0.2624694 -0.22633666
0.2801845 0.2833354 0.27342477 0.05582395 0.13940631 -0.1916095 0.13855563 0.08187659
0.2831245 -0.11875068 0.1499882 -0.04028071 -0.29090378 0.18824416 0.30823866 0.10817579
0.09873423 0.09166622 -0.068454325 -0.29254428 0.17442179 0.135406 -0.20660225 0.66356987
-0.121101364 0.2143343 -0.2022233 0.19754805 0.13937531 -0.19389892 0.03800267 0.21767528
0.24985424 -0.11456772 0.08771652 0.06105391 -0.23590244 -0.13386522 -0.06535217 -0.1898336
0.21270956 0.09611035 -0.42642903 -0.007659201 0.27169642 0.18007217 0.37815195 -0.1114831
0.11942522 0.14970627 0.29594374 0.19938338 0.15636204 0.13308027 0.16079758 0.251337
0.6692666 0.0971102 -0.15270236 0.1893705 0.039188918 0.0010683149 0.36829495 -0.22074135
0.20335874 0.3181562 0.42009214 0.023469124 0.11769423 -0.13778815 0.24018681 0.14469151
0.2552363 -0.052120883 0.13856702 -0.17927764 -0.28076366 -0.03098375 0.21405184 0.14804566
0.07778612 0.3384684 0.16062917 -0.15937248 -0.104853734 -0.20814368 -0.0901796 -0.0041226917
0.22914165 0.16321225 0.14718364 0.11539583 0.07270297 -0.2526839 0.505335 0.28173205
0.17347372 0.2894346 0.10509817 0.17474717 -0.25489172 -0.43125197 -0.47931626 -0.4677733
0.34367248 0.25376073 -0.22826068 -0.146645 0.18333682 -0.34439674 0.19569649 0.094558015
0.08290358 0.06574594 0.34017327 0.18853602 0.2552155 0.2608634 0.14147286 0.3626172
0.71754444 -0.03339826 -0.19889161 -0.069896646 -0.054087892 -0.28102353 0.2566522 -0.35729668
0.15975252 0.112747155 0.42666215 0.051170137 0.16656166 0.12649766 0.21784598 0.031892594
0.20533684 -0.17550322 0.011563963 -0.3826598 -0.15187882 0.061759535 0.15952809 0.23717564
0.18979031 0.18566358 0.20384352 -0.28191444 0.09408239 -0.32553747 -0.40576798 0.82988644
0.0122763 0.2546909 -0.5051675 0.21452783 0.3083693 -0.24069825 0.47538978 0.28494453
0.2012384 0.26944953 0.1319799 0.25415057 -0.034264375 -0.105361424 -0.30492213 -0.38546658
0.35355976 -0.00922572 -0.4250996 0.10082496 0.21922524 -0.19720978 -0.27959 -0.20889673
0.19819799 -0.2080332 0.3307832 0.19230607 0.21441305 0.25432366 0.19636744 0.25003225
-0.19939649 0.23949079 -0.16929437 0.16036287 0.03606286 -0.7648853 0.37550583 -0.18395142
0.16355821 0.19557096 0.2426956 0.051262032 0.0625777 -0.06966812 0.21334264 0.18656483

fc_layers.2.bias f4 [4]
00000000: 4975 e93e 7e50 eb3e 37b2 f13e 3a0d de3e
0.45597294 0.45959848 0.4720628 0.43369466
