param3_fully_trained.pth (torch, 29335 bytes, 6 tensors)

fc_layers.0.weight f4 [64, 37]
0.12213453 0.17188685 0.09835515 0.08987408 -0.02215365 0.107569925 0.011545049 0.1094952
0.14175312 -0.20398852 0.15981455 0.1502349 0.15150821 0.12718987 0.0005677827 0.12231318
0.010759302 0.12474026 0.19175872 0.100643605 -0.05631003 0.029405044 0.014240599 0.017065052
0.06597489 0.024089841 0.06901734 -0.03538596 0.06142302 0.05072627 0.54220414 -0.75120175
-0.7889881 -0.5684853 -2.407904 -0.028645014 0.00057268515 0.018909229 -0.075873815 0.093296364
-0.16512564 -0.45375207 -0.09021764 0.025441289 0.3225367 0.038461342 -0.092734784 -0.23408659
0.32285392 -0.26220423 -0.4780041 -0.3755097 -0.09868636 0.10751868 0.11388663 -0.1849756
-0.4322359 -0.33752283 0.22162163 -0.21717225 0.31741685 -0.23495261 0.088494346 -0.027646556
-0.0062778625 0.057067502 0.00022886482 0.0157073 -0.47964466 -0.060084935 0.15180442 0.0015318348
0.19577405 0.042357903 -0.15920225 -0.3033834 0.018542828 0.037880253 0.57535076 0.23621793
-0.51133424 -0.11026751 -0.33399546 -2.2834868 0.059591338 -0.35271627 0.24784267 -0.296183
-0.63616145 0.013332056 -0.092157036 -0.16259378 0.27036482 0.14642249 -0.022380525 -0.27807918
0.1354745 -0.5057671 -0.38167712 -0.18434602 -0.31739292 0.015790815 0.10520574 -0.09682517
-0.05200827 -0.019933997 -0.11765533 -0.24683136 -0.1287992 -0.04055603 0.017334932 -0.09671073
0.22945257 0.22903553 -0.33959273 0.115319565 0.053384427 -0.08943903 0.077507555 -0.5890951
-1.8026055 0.031068789 -0.070687 -0.17638066 -0.0895277 -0.044768985 -0.037218492 -0.18830769
0.039384417 0.25815955 0.17718704 0.079580545 -0.53250855 0.26999128 -0.016227186 -0.31518525
-0.0062260153 -0.09023338 0.0012511926 -0.11878868 0.056609765 -0.07262542 0.24746844 -0.06440044
-0.17876357 0.2528258 0.105766654 0.00052337267 0.03108857 0.13604169 0.08559683 0.08456914
0.09767214 -0.058207054 0.11435467 0.13166708 0.0592513 0.04465091 0.04081397 0.051732864
0.26701868 0.047836967 -0.16681288 -0.23916166 0.13608524 0.06870666 0.33095938 0.65216255
0.0052503655 -0.092808455 0.095580414 0.18512703 -0.019157624 0.13798709 -0.046438247 0.0046560564
-0.2871259 -0.18526505 0.12803108 0.115023136 0.15329061 0.104649305 -0.048012707 -0.058254287
0.015453086 -0.018521063 0.16026516 -0.022334903 0.16280687 0.15409249 0.24332571 -0.33103544
-0.2705205 -0.8898064 -1.749472 -0.026364733 0.081193596 0.06287686 0.06491647 -0.23845068
0.016957048 -0.03657261 0.22327822 -0.10810905 0.18008435 -0.008836645 0.14304994 -0.277879
-0.28528 -0.0043079234 -0.12213327 0.33386877 -0.0060009444 0.14821267 -0.006913317 -0.13962509
0.46501645 0.1644175 0.12775744 0.06965218 0.010237786 -0.023166914 -0.078608476 0.02496625
0.04088079 0.004487505 0.0764896 -0.076847196 0.06967156 0.042921487 0.29273942 0.5725792
0.15366186 0.12211653 0.15932544 0.32081357 0.074063815 -0.018904341 -0.036543358 -0.06490467
0.028735748 -0.10211811 -0.01951834 0.123146094 -0.02949211 -0.08787017 -0.015107847 0.07728826
0.08849384 0.14985652 0.19537868 0.16821662 0.26307154 -0.92913604 -1.1671957 -1.121841
00000000: ab21 fa3d 1b03 303e 6d6e c93d e70f b83d
00000010: 927b b5bc 9f4d dc3d 7227 3d3c 053f e03d
00000020: bb27 113e 5ee2 50be 6da6 233e 2dd7 193e
00000030: f824 1b3e 103e 023e 41d7 143a 557f fa3d
00000040: c947 303c d277 ff3d 665c 443e 3c1e ce3d
00000050: 59a5 66bd d9e2 f03c 6751 693c 02cc 8b3c
00000060: d81d 873d 0f58 c53c f758 8d3d def0 10bd
00000070: b496 7b3d 59c6 4f3d e4cd 0a3f c24e 40bf
00000080: 20fb 49bf 4188 11bf 191b 1ac0 f3a8 eabc
00000090: 4020 163a 87e7 9a3c bb63 9bbd 2a12 bf3d
000000a0: b216 29be 3152 e8be 07c4 b8bd 406a d03c
000000b0: 8823 a53e a489 1d3d bceb bdbd 65b4 6fbe
000000c0: 1c4d a53e a23f 86be f4bc f4be cf42 c0be
000000d0: 131c cabd c132 dc3d 653d e93d 3e6a 3dbe
000000e0: 064e ddbe cbcf acbe c8f0 623e 6762 5ebe
000000f0: 7684 a23e 6b97 70be 863c b53d 087b e2bc
00000100: 87b6 cdbb 9dbf 693d 6ffb 6f39 98ac 803c
00000110: fc93 f5be 9f1b 76bd 9e72 1b3e d9c7 c83a
00000120: fe78 483e 7b7f 2d3d ea05 23be 1255 9bbe
00000130: 21e7 973c 5328 1b3d 304a 133f 1de3 713e
00000140: cde6 02bf efd3 e1bd 7401 abbe a624 12c0
00000150: 0c16 743d 3a97 b4be 78ca 7d3e 4ca5 97be
00000160: 7adb 22bf b26e 5a3c d4bc bcbd fc7e 26be
00000170: 426d 8a3e c7ef 153e 5d57 b7bc 6560 8ebe
00000180: d4b9 0a3e f479 01bf 2f6b c3be 34c5 3cbe
00000190: 5381 a2be bd5b 813c 1b76 d73d 464c c6bd
000001a0: a006 55bd 9f4c a3bc 47f5 f0bd 5cc1 7cbe
000001b0: f0e3 03be 141e 26bd fd01 8e3c 4610 c6bd
000001c0: 9df5 6a3e 4a88 6a3e 19df adbe aa2c ec3d
000001d0: a1a9 5a3d cf2b b7bd 48bc 9e3d f0ce 16bf
000001e0: c7bb e6bf f983 fe3c 59c4 90bd 229d 34be
000001f0: 4c5a b7bd af5f 37bd 6b72 18bd bbd3 40be
00000200: 8e51 213d 7d2d 843e 8570 353e 20fb a23d
00000210: 7b52 08bf 4c3c 8a3e e0ee 84bc f65f a1be
00000220: 9a03 ccbb 47cc b8bd 0fff a33a 7b47 f3bd
00000230: a4df 673d a3bc 94bd 5e68 7d3e 61e4 83bd
00000240: cc0d 37be 6272 813e 309c d83d f232 093a
00000250: 75ad fe3c 834e 0b3e 644d af3d 9632 ad3d
00000260: 5508 c83d 856a 6ebd c832 ea3d bcd3 063e
00000270: 7eb1 723d dfe3 363d 8d2c 273d d7e5 533d
00000280: acb6 883e b2f0 433d ffd0 2abe cbe6 74be
00000290: ee59 0b3e 14b6 8c3d 8273 a93e 20f4 263f
000002a0: 420b ac3b 5c12 bebd aabf c33d f191 3d3e
000002b0: 73f0 9cbc 7d4c 0d3e 0836 3ebd d591 983b
000002c0: 2a02 93be 1fb6 3dbe 941a 033e 4091 eb3d
000002d0: 37f8 1c3e 6052 d63d f9a8 44bd 0c9c 6ebd
000002e0: f12e 7d3c 7cb9 97bc 8d1c 243e b0f7 b6bc
000002f0: d8b6 263e 6cca 1d3e 602a 793e 7a7d a9be
00000300: aa81 8abe 5aca 63bf b3ee dfbf dafa d7bc
00000310: d448 a63d 95c5 803d edf2 843d 6a2c 74be
00000320: 82e9 8a3c 29cd 15bd 0ca3 643e 4768 ddbd
00000330: 0868 383e 93c7 10bc af7b 123e 2846 8ebe
00000340: 3810 92be 7b29 8dbb 0221 fabd d9f0 aa3e
00000350: 92a3 c4bb 10c5 173e 1b89 e2bb e1f9 0ebe
00000360: a316 ee3e 105d 283e d9d2 023e cda5 8e3d
00000370: 63bc 273c 8ac8 bdbc 7bfd a0bd 0586 cc3c
00000380: 9e72 273d ec0b 933b 94a6 9c3d 1062 9dbd
00000390: f6af 8e3d 71ce 2f3d f1e1 953e 8d94 123f
000003a0: 8959 1d3e 3b18 fa3d 3526 233e ad41 a43e
000003b0: c5ae 973d 47dd 9abc 7dae 15bd bdec 84bd
000003c0: 3b67 eb3c 4d23 d1bd ede4 9fbc 0534 fc3d
000003d0: 7099 f1bc 47f5 b3bd e786 77bc 4f49 9e3d
000003e0: 423c b53d fd73 193e 5911 483e fa40 2c3e
000003f0: 50b1 863e dcdb 6dbf ab66 95bf 7c98 8fbf

fc_layers.0.bias f4 [64]
0.02716229 0.061529756 0.11284211 0.0045468486 -0.02602937 -0.071361 0.02832231 -0.050225023
-0.19493058 0.07484837 -0.19438888 -0.2145489 -0.010770979 -0.13799424 -0.111582436 0.03260807
-0.012080668 0.16325852 0.16525856 -0.21970458 0.040897343 -0.17972745 -0.04910505 0.20038576
0.069917135 -0.14161478 -0.11930336 -0.18863657 0.2241197 0.15893325 -0.11011101 -0.15777333
-0.15592739 -0.13733554 -0.051308345 0.08011426 0.059879754 0.0053582727 0.114631824 -0.15201494
-0.19013134 0.06893167 -0.054653294 0.04158866 0.122227766 -0.22107853 -0.25973552 -0.045294683
-0.17643982 0.06258749 -0.10144921 -0.04597735 -0.19534497 -0.1062353 -0.017769484 -0.08981105
0.10391335 0.024185607 -0.046559133 0.03838795 0.13134594 0.04095475 -0.0721703 -0.089334905
00000000: 7383 de3c a006 7c3d c419 e73d bbfd 943b
00000010: 8c3b d5bc b725 92bd 3004 e83c c1b8 4dbd
00000020: e29b 47be 1a4a 993d e10d 47be b5b2 5bbe
00000030: c378 30bc 5d4e 0dbe 5585 e4bd 0a90 053d
00000040: feed 45bc 3e2d 273e 8a39 293e 3dfa 60be
00000050: f983 273d 790a 38be 6022 49bd ed31 4d3e
00000060: b730 8f3d 7703 11be 5255 f4bd f229 41be
00000070: a27f 653e 66bf 223e e281 e1bd 558f 21be
00000080: 6eab 1fbe b0a1 0cbe b328 52bd f212 a43d
00000090: 7944 753d 7394 af3b 17c4 ea3d cea9 1bbe
000000a0: cab1 42be 0c2c 8d3d 22dc 5fbd df58 2a3d
000000b0: 8d52 fa3d 6962 62be 0efc 84be eb86 39bd
000000c0: a4ac 34be df2d 803d 9ac4 cfbd bf52 3cbd
000000d0: 8308 48be e591 d9bd 4f91 91bc dbee b7bd
000000e0: 86d0 d43d e520 c63c cab4 3ebd af3c 1d3d
000000f0: 8d7f 063e 2bc0 273d 06ce 93bd 38f5 b6bd

fc_layers.1.weight f4 [64, 64]
0.13765824 0.14871866 -0.16894393 0.022162296 0.11891915 -0.016922558 0.18539773 -0.16461839
0.018818805 0.21401738 0.048799355 -0.021757357 0.09096258 -0.13551092 0.10791458 0.1392665
0.0433112 0.07368588 0.060334865 0.07744009 0.15278582 -0.1406864 -0.23807319 0.13471416
0.045234445 0.20520358 0.45191988 0.0056365253 0.22334929 0.02360927 0.11042844 0.17474887
0.0037764893 0.04209401 0.16707806 -0.004674144 0.07867932 -0.17418303 0.011733028 0.0065522157
0.05248422 0.17582321 -0.042524092 -0.08237692 0.022666154 0.09711928 -0.021008994 -0.06691352
-0.0036957418 0.083677575 0.071552224 -0.044176955 -0.042333603 -0.02819133 -0.0942176 0.058011375
-0.0435001 0.06012285 -0.0024704162 0.13932922 -0.3106159 0.03330037 -0.40725878 -0.09518441
0.23624447 -0.19562688 -0.036499586 -0.28859845 -0.20057338 0.21229184 -0.07615739 -0.18446185
-0.22522041 -0.18134165 0.030705014 0.22890806 0.12915552 0.3543787 -0.06392378 -0.26227802
0.104954295 0.023437386 0.093885496 -0.27478674 0.074425355 -0.29517546 -0.25603008 -0.04890072
0.23720303 0.18508253 -0.59189856 0.042525325 -0.26439935 0.15317434 0.18275262 -1.2675314
0.22848648 0.08607078 0.0016105432 -0.25445458 -0.7355726 -0.13681558 -0.18610817 -0.023529021
-0.07353306 -0.06581673 1.1294316 -0.20401084 -0.1704338 -0.037099503 -0.19554491 0.15346208
-0.1833253 0.026927797 0.019301688 0.60981166 0.07562025 -0.06952859 -0.05321027 -0.009814795
-0.6285364 -0.33056632 -0.21647933 -0.8597094 0.4505756 0.12265508 -0.30462372 -0.20277268
0.13291164 0.109233156 0.02053976 -0.10418017 -0.037236664 -0.020456392 0.019883765 0.19407657
0.041917425 0.15389667 0.007553747 0.097026154 -0.02474782 0.06202756 0.09602252 0.019443786
0.06705769 8.83334e-05 0.0056464057 -0.0209055 0.12315566 -0.02497545 0.06326771 0.08440382
-0.1621711 0.1558214 0.29931417 0.00048016757 0.2921643 -0.06478592 -0.08587108 0.16034842
0.19673948 0.1105843 0.1442798 0.10262028 0.058646634 0.050406694 0.20314991 0.06115743
-0.048229806 0.08142843 0.27743906 0.2255381 -0.08851756 0.12610914 0.038718704 -0.027201498
-0.010701842 0.132384 0.11399114 -0.072276086 0.059104156 -0.13575625 -0.091952205 -0.017925281
-0.08914323 0.048959382 0.16065262 -0.13733058 -0.44770747 -0.04858737 -0.23768789 -0.09524533
0.052448098 0.19509757 0.2294596 0.18699776 -0.008831082 -0.01650041 0.2455408 0.037621483
0.053501375 0.10361103 0.11950112 -0.79250294 -0.032603346 -0.02938223 0.32679367 0.06889137
-0.005270774 0.056905776 0.06731211 -0.32893613 -0.12670928 0.87532943 0.16911128 -0.2106181
-0.015376021 -0.46574402 0.16483104 -0.60783076 -7.209719e-05 0.20965458 -0.022911834 -0.35948703
-0.1634357 0.009265493 0.123452485 -0.28189158 -0.39776266 -0.014568023 -0.15240856 -0.3520013
-0.43584153 -0.34303764 -0.11722335 0.006087113 -0.04137671 -0.4753359 -0.27785572 0.70836234
-0.4427453 -0.23110624 0.09977745 -0.35355023 -0.23665223 -0.05605204 -0.017749822 -0.35062012
0.22691493 -0.29171115 0.008768113 -0.031180104 -0.07645479 0.08875635 0.778025 -0.019042516
00000000: 48f6 0c3e b449 183e a3ff 2cbe b48d b53c
00000010: e28b f33d 2da1 8abc e7d8 3d3e b991 28be
00000020: e529 9a3c 5f27 5b3e d5e1 473d 7c3c b2bc
00000030: 974a ba3d 60c3 0abe 5202 dd3d e19b 0e3e
00000040: 1667 313d 9fe8 963d b121 773d e998 9e3d
00000050: e373 1c3e 1810 10be 75c9 73be 82f2 093e
00000060: c147 393d e320 523e 0b62 e73e 9ab2 b83b
00000070: adb5 643e 3a68 c13c 4e28 e23d 5ef1 323e
00000080: fa7e 773b c56a 2c3d 8316 2b3e 9029 99bb
00000090: a022 a13d 095d 32be e33b 403c f8b3 d63b
000000a0: b2f9 563d 000b 343e be2d 2ebd 3bb5 a8bd
000000b0: 5fae b93c 79e6 c63d 0e1b acbc f509 89bd
000000c0: 4234 72bb 265f ab3d f989 923d e5f2 34bd
000000d0: 0066 2dbd 81f1 e6bc 28f5 c0bd 569d 6d3d
000000e0: 292d 32bd 6143 763d b5e6 21bb 52ac 0e3e
000000f0: 0c09 9fbe f865 083d 3984 d0be 0bf0 c2bd
00000100: 12ea 713e 6a52 48be 9780 15bd 2dc3 93be
00000110: 1c63 4dbe 0863 593e 68f8 9bbd 91e3 3cbe
00000120: 2ea0 66be a0b1 39be 1589 fb3c e066 6a3e
00000130: 5841 043e 2071 b53e 79ea 82bd 4e49 86be
00000140: 47f2 d63d c3ff bf3c 0a47 c03d d9b0 8cbe
00000150: 526c 983d 3d21 97be 6016 83be 1f4c 48bd
00000160: 5ae5 723e 4686 3d3e aa86 17bf 092f 2e3d
00000170: 5a5f 87be bcd9 1c3e 8123 3b3e 783e a2bf
00000180: 5cf8 693e e145 b03d dd18 d33a df47 82be
00000190: 7c4e 3cbf 6219 0cbe 2493 3ebe efbf c0bc
000001a0: 8098 96bd ecca 86bd 3791 903f 38e8 50be
000001b0: 3386 2ebe a6f5 17bd ed3c 48be 2a25 1d3e
000001c0: a1b9 3bbe af97 dc3c 931e 9e3c 9e1c 1c3f
000001d0: cade 9a3d 0165 8ebd 03f3 59bd 3cce 20bc
000001e0: c3e7 20bf fd3f a9be c2ac 5dbe ea15 5cbf
000001f0: d8b1 e63e 9632 fb3d a4f7 9bbe a4a3 4fbe
00000200: fd19 083e a2b5 df3d 0043 a83c 6a5c d5bd
00000210: 7985 18bd 2a94 a7bc 47e3 a23c 02bc 463e
00000220: 9bb1 2b3d 1797 1d3e 6c85 f73b a6b5 c63d
00000230: f1bb cabc 9c10 7e3d 74a7 c43d 9348 9f3c
00000240: 8b55 893d a23f b938 7c05 b93b 0342 abbc
00000250: 0939 fc3d 5199 ccbc 8092 813d e9db ac3d
00000260: 2e10 26be a58f 1f3e b53f 993e 00bf fb39
00000270: 8f96 953e 7bae 84bd 2ddd afbd 6032 243e
00000280: 1376 493e 057a e23d 15be 133e 952a d23d
00000290: 7437 703d 4077 4e3d 8806 503e 3780 7a3d
000002a0: 9e8c 45bd f3c3 a63d 7e0c 8e3e 76f3 663e
000002b0: b248 b5bd c122 013e 8197 1e3d add5 debc
000002c0: c756 2fbc ac8f 073e 3074 e93d 7c05 94bd
000002d0: 3317 723d b003 0bbe 7051 bcbd 0ad8 92bc
000002e0: ba90 b6bd a289 483d 1f82 243e 63a0 0cbe
000002f0: ea39 e5be 8d03 47bd 7464 73be fc0f c3bd
00000300: d1d3 563d a8c7 473e 75f7 6a3e 577c 3f3e
00000310: 3eb0 10bc de2b 87bc 0c6f 7b3e fc18 1a3d
00000320: 4224 5b3d 0532 d43d 01bd f43d 79e1 4abf
00000330: 168b 05bd 01b3 f0bc 8051 a73e eb16 8d3d
00000340: 75b6 acbb 0816 693d eeda 893d 516a a8be
00000350: 14c0 01be 9715 603f 822b 2d3e 45ac 57be
00000360: b5eb 7bbc 0076 eebe 78c9 283e cc9a 1bbf
00000370: e232 97b8 b1af 563e 99b1 bbbc af0e b8be
00000380: b05b 27be 4bce 173c a8d4 fc3d 1854 90be
00000390: 8ca7 cbbe b8ae 6ebc fd10 1cbe 8439 b4be
000003a0: 9f26 dfbe a1a2 afbe cc12 f0bd 6876 c73b
000003b0: a07a 29bd 3a5f f3be 1b43 8ebe 3c57 353f
000003c0: 83af e2be 1da7 6cbe 1f58 cc3d 8904 b5be
000003d0: f654 72be d396 65bd 1368 91bc 7b84 b3be
000003e0: 635c 683e 2a5b 95be 22a8 0f3c 6b6d ffbc
000003f0: 5494 9cbd e4c5 b53d a52c 473f 0dff 9bbc

fc_layers.1.bias f4 [64]
0.7832284 -0.00972389 0.6539904 -0.15661964 -0.40948954 0.4336014 -0.0212289 0.080462515
0.501608 0.11356245 -0.24821472 -0.15545905 0.24462903 0.058694262 -0.16900165 0.014343855
0.046461582 0.40194884 0.19467841 0.3528779 -0.05433371 -0.39662936 0.066622816 0.83956456
0.7736682 -0.21726187 0.24379428 0.50322384 -0.21848726 -0.3695085 -0.24418141 -0.23890367
0.015158075 0.26421914 0.049733978 -0.26752472 0.4951699 0.5324479 0.34595975 0.02605516
0.5667778 -0.3537008 -0.15980385 0.40605736 0.65882874 0.8307452 0.27776995 0.62397677
-0.03991846 0.06896882 -0.42628115 0.0314906 -0.38392487 -0.053454943 0.00081236236 0.09958932
0.0042916434 0.006251744 0.20325966 -0.12565184 -0.13924934 -0.25580633 0.07763398 0.35360894
00000000: a881 483f f350 1fbc ea6b 273f e660 20be
00000010: 9da8 d1be 0101 de3e 3be8 adbc 88c9 a43d
00000020: 6269 003f 6e93 e83d 002c 7ebe a830 1fbe
00000030: 0880 7a3e 6569 703d c50e 2dbe 7d02 6b3c
00000040: 804e 3e3d 3dcc cd3e c759 473e 69ac b43e
00000050: 068d 5ebd 0113 cbbe 8b71 883d b4ed 563f
00000060: 1f0f 463f e579 5ebe 35a5 793e 47d3 003f
00000070: 20bb 5fbe 3830 bdbe b10a 7abe 2aa3 74be
00000080: 9359 783c bb47 873e dbb5 4b3d 00f9 88be
00000090: e986 fd3e 814e 083f a321 b13e a271 d53c
000000a0: 5a18 113f 4518 b5be 9fa3 23be c0e6 cf3e
000000b0: 00a9 283f b8ab 543f dd37 8e3e f1bc 1f3f
000000c0: 8a81 23bd 863f 8d3d 8641 dabe 4afc 003d
000000d0: cd91 c4be 92f3 5abd b7f4 543a 7cf5 cb3d
000000e0: eaa0 8c3b 6edb cc3b 4d23 503e e0aa 00be
000000f0: 6197 0ebe 0cf9 82be 90fe 9e3d 3b0c b53e

fc_layers.2.weight f4 [4, 64]
0.2834577 -0.233327 0.22587426 0.29593503 -0.31089297 0.12152793 0.44644654 0.0039204056
0.16205588 0.27827516 -0.3253276 -0.6348004 0.20704651 0.503196 -0.109472685 0.31822547
0.29159895 0.122292414 0.31466627 0.1880181 0.084547214 -0.33120227 -0.5850245 0.2747246
0.17856464 0.1841075 0.22805461 0.18115053 -0.3725319 -0.42555153 -0.17389509 0.26392773
0.29484153 0.3455452 -0.022120332 -0.43595165 0.14701489 0.1592156 0.13402978 -0.34963337
0.18948364 -0.17331754 0.2005235 0.15374756 0.23686616 0.25120002 0.09556399 0.20786773
0.05217596 -0.012171386 -0.18628286 0.063637435 -0.39524934 -1.0682206 0.4892805 -0.9876759
-0.62882334 0.083176896 0.080652475 0.035146426 -0.43263167 -0.8412367 0.35391188 0.11061038
0.24875565 0.18329693 0.24498425 0.5263967 -0.2599782 0.11410121 0.45855594 0.10253616
0.13713361 0.5827296 -0.075738624 -0.8621372 0.12537608 -0.2478573 0.06414349 0.37702432
0.26274619 -0.025386386 0.331766 0.14946777 0.20832008 -0.13517159 -0.3208388 0.20476152
0.21534187 0.047264878 0.17000578 0.18681388 -0.27009237 -0.44350392 -0.20105858 0.06594655
0.5745319 0.37897998 0.07402043 0.06894984 0.19569474 0.22995788 0.1302145 0.46439013
0.20557919 0.0038200386 0.307534 0.2911903 0.17874677 0.23584403 0.18267085 0.27237058
0.08740157 0.061246477 -0.19017603 0.16145079 -0.42242023 0.07245832 0.62028456 0.39182684
-0.084744744 0.40525913 -0.0872143 0.02243302 -0.014025865 -0.24922925 0.26332372 0.18273456
0.25784 -0.51658016 0.1396202 0.062786095 -0.18987978 0.089211755 0.34861323 0.0045675966
0.24983846 0.8637149 0.050267354 0.22729245 0.035375092 -1.1629881 0.17642313 0.25661743
0.21041355 0.078324854 0.02232794 0.2487413 0.27042955 -0.12020928 -0.94465584 0.29766944
0.2620575 -0.11573075 0.0687309 0.23806904 -0.2769774 -0.24810949 -0.2668003 -0.09626531
0.61537623 0.41293982 -0.43856707 -0.161553 0.14016789 0.049494334 0.23696937 -0.4834834
0.10995689 0.016683122 0.24893485 0.13173468 0.28353313 0.2281603 0.33652478 0.26913932
0.060809206 -0.43274665 -0.26431286 -0.2898599 -0.16973418 -0.82331795 0.29083863 0.23820662
-0.11991443 0.32537112 0.13254884 0.008263909 -0.20440812 0.3114735 0.15242353 0.13055585
0.17922422 0.38143438 0.092992984 -0.23181407 -0.15961476 0.2650414 0.06678557 0.34163317
0.13298029 0.22370791 -0.3505346 -0.056236606 0.2665407 -1.1544539 0.03761431 0.56545836
-0.07280451 0.14225467 -0.296238 0.28709307 0.06879728 -0.29452333 0.21140267 0.32103541
0.24812299 -0.3153922 0.18176249 0.093938746 -0.2058324 -0.11467527 -0.1972662 -0.4849184
0.17356186 0.23272601 0.16608846 -0.21888298 0.07202081 0.1216361 -0.053185906 -0.7287345
0.17287292 -0.21949719 0.24602248 0.105988435 0.18941997 0.32727274 0.2113424 0.24832936
-1.0946277 -0.6109895 -0.24453904 0.3511017 0.020754168 -0.80317515 0.48438728 0.32099372
-0.3019921 -0.008682375 0.2119987 0.06914401 -0.21825807 0.15645494 0.28176665 0.23982684
00000000: 5e21 913e 46ed 6ebe 954b 673e cc84 973e
00000010: 5d2d 9fbe a3e3 f83d a494 e43e bf76 803b
00000020: faf1 253e 157a 8e3e 5791 a6be 4782 22bf
00000030: 0004 543e 74d1 003f 3733 e0bd 73ee a23e
00000040: 754c 953e 7274 fa3d f01b a13e d187 403e
00000050: 1727 ad3d 5893 a9be 2ac4 15bf b4a8 8c3e
00000060: a6d9 363e ad86 3c3e 2687 693e 867f 393e
00000070: 80bc bebe e4e1 d9be 8e11 32be 8921 873e
00000080: 78f5 963e 4deb b03e b335 b5bc 0e35 dfbe
00000090: 128b 163e 6a09 233e 1a3f 093e 2503 b3be
000000a0: 0008 423e 277a 31be 0856 4d3e 0070 1d3e
000000b0: 0b8d 723e 4a9d 803e 0eb7 c33d 47db 543e
000000c0: 76b6 553d 7e6a 47bc efc0 3ebe 5854 823d
000000d0: 1f5e cabe 74bb 88bf f982 fa3e 54d8 7cbf
000000e0: 91fa 20bf a658 aa3d 202d a53d b3f5 0f3d
000000f0: e681 ddbe 4a5b 57bf f033 b53e b287 e23d
00000100: cdb9 7e3e 31b2 3b3e 27dd 7a3e efc1 063f
00000110: dd1b 85be e5ad e93d d8c7 ea3e 7afe d13d
00000120: c16c 0c3e c42d 153f da1c 9bbd 06b5 5cbf
00000130: 9662 003e 4ece 7dbe a95d 833d 5509 c13e
00000140: ab86 863e 1cf7 cfbc 3cdd a93e 140e 193e
00000150: dc51 553e 6c6a 0abe fc44 a4be 01ad 513e
00000160: 9482 5c3e d198 413d ff15 2e3e 234c 3f3e
00000170: 8c49 8abe f212 e3be 4de2 4dbe fc0e 873d
00000180: 8614 133f aa09 c23e 0698 973d 9335 8d3d
00000190: 3464 483e 147a 6b3e f356 053e 8bc4 ed3e
000001a0: 5a83 523e 9d59 7a3b 1975 9d3e e516 953e
000001b0: 6509 373e 1981 713e 110e 3b3e 2874 8b3e
000001c0: 98ff b23d 96dd 7a3d 81bd 42be 5b53 253e
000001d0: 7747 d8be 0765 943d f8ca 1e3f 879d c83e
000001e0: a78e adbd 207e cf3e 699d b2bd 74c5 b73c
000001f0: becc 65bc f435 7fbe 5ed2 863e c51e 3b3e
00000200: 9b03 843e 993e 04bf 99f8 0e3e ff95 803d
00000210: d86f 42be a7b4 b63d 6f7d b23e c7ab 953b
00000220: a7d5 7f3e 6b1c 5d3f 24e5 4d3d 5abf 683e
00000230: 79e5 103d cbdc 94bf 44a8 343e 5c63 833e
00000240: a676 573e c868 a03d 16e9 b63c 0ab6 7e3e
00000250: be75 8a3e 4830 f6bd f7d4 71bf 2168 983e
00000260: 672c 863e 3e04 edbd c9c2 8c3d 5fc8 733e
00000270: fbcf 8dbe 6a10 7ebe 0d9a 88be bf26 c5bd
00000280: 4c89 1d3f d96c d33e dd8b e0be 266e 25be
00000290: 2c88 0f3e 92ba 4a3d 19a8 723e 238b f7be
000002a0: 1431 e13d 0bab 883c c7e8 7e3e 75e5 063e
000002b0: 412b 913e dba2 693e fa4c ac3e a1cc 893e
000002c0: 1313 793d f890 ddbe 0454 87be 8468 94be
000002d0: ccce 2dbe f7c4 52bf cde8 943e 70ec 733e
000002e0: b295 f5bd 0b97 a63e e2ba 073e 5965 073c
000002f0: 5d50 51be 7479 9f3e ea14 1c3e 6fb0 053e
00000300: 8e86 373e 5e4b c33e 1b73 be3d ab60 6dbe
00000310: 0d72 23be 82b3 873e dfc6 883d 8bea ae3e
00000320: fc2b 083e b013 653e 4579 b3be 5b58 66bd
00000330: 0678 883e 25c5 93bf 7611 1a3d e1c1 103f
00000340: 881a 95bd 35ab 113e 82ac 97be ddfd 923e
00000350: 97e5 8c3d c3cb 96be f179 583e c15e a43e
00000360: f413 7e3e 167b a1be f21f 3a3e f562 c03d
00000370: bbc5 52be deda eabd 2700 4abe 3947 f8be
00000380: 33ba 313e ba4f 6e3e 1813 2a3e dc22 60be
00000390: a57f 933d 591c f93d 77d9 59bd 588e 3abf
000003a0: 9905 313e dfc3 60be 51ed 7b3e 7710 d93d
000003b0: 4ff7 413e 4b90 a73e 246a 583e 0d4a 7e3e
000003c0: c31c 8cbf cf69 1cbf 7168 7abe 9ac3 b33e
000003d0: a504 aa3c e39c 4dbf 9c01 f83e 4a59 a43e
000003e0: b59e 9abe 8540 0ebc 3016 593e 609b 8d3d
000003f0: 0b7f 5fbe b935 203e b843 903e 2b95 753e

fc_layers.2.bias f4 [4]
0.56377226 0.4919096 0.49338093 0.47642994
00000000: 6153 103f 93db fb3e 6d9c fc3e a0ee f33e
