param2_solved_1320.pth (torch, 29335 bytes, 6 tensors)

fc_layers.0.weight f4 [64, 37]
00000000: d950 403d f927 2a3e c9e6 f73d 973e 3c3e
00000010: caeb 673b cc6b 073e c554 233e 3a8b aa3d
00000020: 2e1f d33d 3326 66bd a196 af3d 8fb8 be3d
00000030: a4a6 d33d 52f9 0f3e 23ce c4bc 0266 f8bc
00000040: 3933 183e 658c f23d dd43 d13d 6de7 bc3d
00000050: 2de3 88bd 6953 07bd 0f15 a43b 9ddb 403d
00000060: 81d3 053e de4f a63e 394f 35bf 0939 24bf
00000070: 7745 7abf fe97 3bc0 a13f 2b3d a21f df3d
00000080: eadc ae3d 5660 243e 2dba 033e 2265 be3a
00000090: e9d9 a73b 8250 e23e da34 84be cbdf 56bd
000000a0: 63ba 0ebf 7511 c6bf 1c89 49bd 183c 913c
000000b0: 764b ae3d 6e03 5a3e 7e91 31be 5ed6 903d
000000c0: f18e e6ba 52e5 40be 4b7c a7be fa36 7dbe
000000d0: f799 71be f031 813c 1b83 273e ca49 153e
000000e0: edac a83d 10cc 41bd 85bb 8fbd 277d 433d
000000f0: 5dc6 cebb 8705 dfbd 7122 06be 1970 993b
00000100: da4e 39bd f18d b73d fdc1 99bd 4a37 f5bd
00000110: f928 96bd b3d0 b23c f362 0bbe 40c7 813d
00000120: d48c dabb 92d0 68bd 33c4 aeba f5e3 46bd
00000130: e619 bd3c 2084 2cbc 53ab 90bc ab0c 2d3f
00000140: 943a 71bf 0e4a 82bf f7e3 20bf a5cc eebf
00000150: 0dd5 ed3d 8640 2e3e 5aca e43d 319d eb3d
00000160: 3330 753d 7de3 153e 17b1 093e aa01 053e
00000170: 7bec 0c3e 0345 283d 50ba ac3d 07cc 963d
00000180: 715e 213e 5adb f83d d5ef 7a3d 75be be3c
00000190: b3c8 133d 6001 f93d d419 283d 1451 f53c
000001a0: 1178 253e e73a 93bd e9f2 8a3d 8f7e a23c
000001b0: 56ef 6fbe 7fd8 743d d856 703b da9b d53d
000001c0: 643f 9cbb 42a8 37be 15fb d7be fda4 c3be
000001d0: 4812 e8b9 1255 9cbe 0af1 363d 59bf b9be
000001e0: bede 02c0 097f 3bbe 0e7f 3f3e 65b1 bbbe
000001f0: 2777 febd c001 e3be 8fac f5bd 9093 83be
00000200: 2261 a93c 393e e9be 7472 d6be ae68 57bd
00000210: fe88 16be 158b 843e d42a 65be 7e9c 5cbf
00000220: 8baf 853d 9257 09bf 2b50 aebd 9376 c5bc
00000230: 0bb4 a6be 0706 f1bd 159a 79be e378 56bd
00000240: 37c7 1ebf 3105 e1bf 145e 38bd 5453 83bc
00000250: 27d4 e5be 5cfd c3bd 8b62 1ebd 6ffe 653e
00000260: e06d 9c3d 4786 a1bf 0913 ba3e c023 a73d
00000270: 7c4a a23e 56fb ba3e 8cc3 0a3e 112b aebe
00000280: 70ee e93d da8c 013c 479c e73d 97f6 00bf
00000290: defd a93e aa60 90be d40c 32be 9265 fd3d
000002a0: ea63 37be dbc2 14bd 0c99 df3c dcca 77be
000002b0: 5058 91be 8d03 8c3d fcbf e73d e921 f0be
000002c0: 3cc8 e1be 41c7 47be 29aa 67be 269a 413e
000002d0: 13a5 b63d 5960 c7be a92d 18bf 201e 823d
000002e0: fe53 c2bc 27e3 493c bfeb 443d 4bc2 453c
000002f0: fb46 733e 6a10 d63d d430 c33e d778 6fbd
00000300: b963 d8bd 228a 12bf 5ce9 b3bf 4e59 03bc
00000310: b7eb a53d 6a44 2939 4b39 e43d af55 f63d
00000320: 221c e3bc 76d0 103d 4abf fa3d dcb9 903d
00000330: 86ca 433e 6c13 f5bd 7e45 47bd 2b42 083d
00000340: 174e 0bbb 34ee 133e 8884 1f3e b242 82be
00000350: 95ef f0bc c741 943e d887 22be 666d 183e
00000360: 556e 283d db70 763e 4a47 a1bc 9625 3cbe
00000370: aca0 e8bd bf11 2cbd 7a39 4dbd 4b90 9cbe
00000380: f33f 84be a5aa 513d 1400 a4be 1214 c33d
00000390: b17f 73be 1d40 d1be 08a1 aabe 85c7 85bf
000003a0: b052 80be 0200 d9bb 3748 0d3e e84b c13d
000003b0: 6da9 c83c 3615 4abd 77d5 3ebe db6b a1be
000003c0: 3ebe 83be 0328 b4be 4ac8 78bc 1853 abbe
000003d0: f7ce 30be 13d6 fbbd 2463 fdbe c8c3 4a3c
000003e0: ce2e f8bc 5d54 c03c 2dbe 75be 5f1e 5dbf
000003f0: 3132 26be b80a 2ebe 8f8c 65bc f2f6 95be
0.046952102 0.16616811 0.12104566 0.18383251 0.0035388344 0.13224715 0.15950306 0.083273366
0.103086814 -0.056188773 0.08573652 0.093125455 0.103345186 0.14059952 -0.024024075 -0.030322079
0.1486329 0.118431844 0.10218022 0.092238285 -0.06683955 -0.03303853 0.005007393 0.04708444
0.13068964 0.3248281 -0.7082401 -0.6414953 -0.97762245 -2.9311519 0.041808728 0.10894705
0.0853823 0.16052374 0.12863989 0.001452599 0.0051224125 0.44202048 -0.25821573 -0.05245952
-0.55753154 -1.5474077 -0.049203023 0.01772885 0.08510487 0.21290371 -0.17340657 0.07072137
-0.0017590207 -0.18837479 -0.32712016 -0.24728003 -0.23593889 0.015770882 0.16358607 0.1457893
0.08236108 -0.04731375 -0.070181884 0.047726776 -0.006310268 -0.10889726 -0.13099076 0.0046825525
-0.045241214 0.0896262 -0.075077035 -0.11973436 -0.07332034 0.021828031 -0.13611965 0.06336832
-0.00666962 -0.056839533 -0.0013333618 -0.04855724 0.023083638 -0.010529548 -0.017659819 0.67597455
-0.9423001 -1.017885 -0.62847847 -1.8656203 0.11612902 0.17016801 0.11171408 0.11504591
0.05986042 0.14637561 0.1344646 0.12988916 0.13762085 0.04108144 0.08433974 0.07363134
0.15758683 0.12151213 0.061263878 0.023284176 0.036080074 0.121584654 0.041040257 0.029945888
0.16159083 -0.07188969 0.06784613 0.019835738 -0.23431143 0.05977678 0.0036672857 0.10430117
-0.004768299 -0.17935279 -0.42183748 -0.38211814 -0.0004426411 -0.30533653 0.044663467 -0.362788
-2.044845 -0.18310179 0.18700811 -0.3665878 -0.1242507 -0.44337273 -0.119958036 -0.2569852
0.0206762 -0.45555285 -0.41884196 -0.052590065 -0.14700696 0.2588736 -0.22379619 -0.8617629
0.06527623 -0.53649247 -0.085113846 -0.024104392 -0.32559237 -0.11768728 -0.24375184 -0.05236138
-0.6202273 -1.7579709 -0.045011595 -0.016030945 -0.44888422 -0.09569809 -0.038668197 0.2246034
0.076381445 -1.2619103 0.36342648 0.08161116 0.31697452 0.3651988 0.13551158 -0.34017232
0.114224315 0.007907117 0.113091044 -0.50376266 0.33201498 -0.2819875 -0.17387706 0.123728886
-0.17909208 -0.03631864 0.027294658 -0.24198478 -0.2838769 0.06836615 0.11315915 -0.4690087
-0.4409808 -0.19509603 -0.22623505 0.18906459 0.08918204 -0.38940695 -0.5944467 0.06353402
-0.023721691 0.012322224 0.048076387 0.012070249 0.23757546 0.104523495 0.3812319 -0.05846485
-0.105658956 -0.57242024 -1.4055591 -0.008016897 0.081016 0.00016142582 0.1114374 0.120280616
-0.027723376 0.035355054 0.12243517 0.070667 0.19120225 -0.11966595 -0.048650257 0.033266228
-0.0021256262 0.14446336 0.155779 -0.2544151 -0.029411117 0.28956434 -0.15872133 0.14885482
0.041120846 0.24066488 -0.019687314 -0.18373713 -0.11358771 -0.04200911 -0.050103642 -0.30578837
-0.2583004 0.05118813 -0.3203131 0.095253125 -0.23779179 -0.40869227 -0.33325982 -1.0451514
-0.25063086 -0.0066223154 0.13797079 0.09438306 0.024494851 -0.049336635 -0.18636118 -0.315276
-0.2573108 -0.35186777 -0.015184471 -0.33461833 -0.17266451 -0.12296691 -0.494897 0.012375779
-0.030295756 0.023477728 -0.23998328 -0.8637447 -0.16230084 -0.16996276 -0.014010563 -0.29289967

fc_layers.0.bias f4 [64]
00000000: 6a10 85bd b64c c4bd 6308 bd3e 52dd a0bd
00000010: cd39 44be 6d95 86bd 0379 19be 35b5 5ebe
00000020: 38b6 8dbe ef85 133e 0a99 acbe dcc8 b83d
00000030: bb01 99be 9275 80be 4ec7 9abe 318a 523c
00000040: a3d5 6abe 04dd 36be e142 b43e b839 0dbe
00000050: cebf 78bd ee93 6bbe 998a 653c 99e0 15be
00000060: 026b 4fbe 89be 6dbe 9061 13be aa21 19be
00000070: a108 823d 5bb2 20be de7d 9ebe 900d 933d
00000080: 9e5b 45be d23d a2be 443e 113d e326 0f3e
00000090: d30c 28be 81be 46bd 240c e23c d6d0 33be
000000a0: f9f7 cbbe 0861 0f3e 66fb bcbe bd96 553d
000000b0: 3559 29be 3844 4a3e 81c6 39be a603 1abe
000000c0: dfe2 32be a73f a33d f30c c5be 8704 3bbe
000000d0: 0d0a c5be de46 dcbd 485c a2bd 6667 58be
000000e0: 1c02 ea3d 34dd 81bc 1825 20be f83f 7dbd
000000f0: d7cf 9abd c2f5 14be d348 013e 466f 83be
-0.06497271 -0.09584944 0.3692046 -0.078547135 -0.19162674 -0.065714695 -0.14987569 -0.21748812
-0.27678084 0.1440656 -0.3371051 0.09022686 -0.29884133 -0.250897 -0.30230182 0.01285033
-0.22933058 -0.17857748 0.35207275 -0.13791549 -0.060729794 -0.2300565 0.014010095 -0.14636458
-0.20255664 -0.23217215 -0.14392686 -0.14954248 0.06349302 -0.15693037 -0.30955404 0.07180321
-0.1927323 -0.3168779 0.03545977 0.13979678 -0.16411142 -0.048521522 0.02759368 -0.17560133
-0.39837626 0.14001858 -0.36910552 0.05214571 -0.16537936 0.19752586 -0.1814213 -0.15040454
-0.17469357 0.07971125 -0.38486442 -0.18263446 -0.3848423 -0.10755704 -0.079277575 -0.21133193
0.114261836 -0.015852548 -0.1563915 -0.061828583 -0.075591736 -0.14546874 0.12625436 -0.25670832

fc_layers.1.weight f4 [64, 64]
00000000: ea4a 0a3e e87d 313e 742a c6bc a777 49be
00000010: 3f39 5fbd e48c 9bbc 7f6f 833e 12d1 12be
00000020: 2e0c 2fbe f42e c53c e485 9b3e d034 d8bc
00000030: ce81 5ebd d9fd c0be be79 1fbe 7b71 f73d
00000040: 86c7 cdbe b026 8f3b 1310 043e 6f25 cebd
00000050: 2146 b0bb 064e 43bc a46e d83c baa9 d1bd
00000060: b389 c8bd e771 523e 909d 24bd 0954 14be
00000070: 8013 9c3d daf5 9fbe d657 8abd a86f 4a3e
00000080: ba52 4cbd 021a cebe 337b 1e3e 1057 a7be
00000090: 3d75 1ebd 799c edbd 7717 eb3d 53af 36be
000000a0: c8b1 4bbe fb0e d43d 2a10 11be ee6c b63d
000000b0: d1cb bbbc b8f9 383e d541 a8bd 398a c0be
000000c0: da55 5dbe 19be b7bc 0b0a aa3e 0635 90bd
000000d0: 15fe a93a 983c 32bd 0257 b2bd 1e8e 18be
000000e0: fb57 4b3d b2fd 5bbd c16a c53d 826c a7be
000000f0: 1f58 a6be 7f97 2f3e ec97 b13e a46f 31be
00000100: 00d6 d8bd fd33 413e 715f 3cbd dea4 9b3e
00000110: 6af8 723d f174 3bbe 028f a93b a577 dabd
00000120: a26b 43be 411b 2c3e 8334 5dbe 0b79 3cbe
00000130: 3f28 8dbd 317b 2cbe 42a9 10be b01b bebe
00000140: 71be 86be 255c 6e3e df66 733d 4261 37bd
00000150: 315b 87bd 01ff 243d c945 86be ee06 efbd
00000160: b2e6 db3e 3d40 15bf c018 e439 7125 543e
00000170: 4afc aabd 83e8 a7bc 4f97 f33d 9335 85bd
00000180: 6caf 5a3d e839 173e 6b1d eb3d 8cd2 a0be
00000190: c8df 10be 9dd6 a33d e29c 053f 569b 563e
000001a0: db1f d8be 0f04 04bd 8257 b2be d822 8fbf
000001b0: e06f 84bd 3864 a1bd ca3d 033d 14bf 833d
000001c0: a980 cdbd 8087 7a3e f29b b8be f22a c3be
000001d0: fabc c3be 8104 053f 31b9 d13d 47ba 213e
000001e0: db11 9cbd 2262 c7bd ea93 05be f342 e53e
000001f0: 7f41 893d 71a9 26bf 18e4 4dbe 3a00 fbbd
00000200: fdbe 313e bf5b 683e 83e5 153e 9b17 83be
00000210: dba2 a7bd 4669 093d 6f87 243e eed9 8a3d
00000220: 935c 16bd d988 193d 6b40 733e 36a7 2f3e
00000230: 16ab 0fbe 7e0c dcbd 4ec3 083c 1ffa aebd
00000240: 62c8 89be f265 f2bd 514f bb3c a7dd 99be
00000250: 6324 b1bc d9d8 673d 53b8 3e3e a5bb d9bd
00000260: 2c34 4bbe daf0 313d c974 f6bd 59f8 e5bd
00000270: ac88 923b e9fc 90be 8b37 11be d111 c23d
00000280: b763 143d 52b8 94be 25c4 c93d 207e d9bd
00000290: f397 b73d dc84 c33d 237c 3d3e 4abb d1bd
000002a0: 6eae 0cbe a642 91bc b038 653d 7086 213e
000002b0: 6c70 cebd 4e5a 6d3e 33b0 93bd 43bb b3be
000002c0: 83bf 0cbe 8040 d2bc 8645 a33e 87eb 073c
000002d0: a6c0 d53d 3813 8ebd c2d1 99bd 07ac 3cbe
000002e0: bfa6 d13d baec de3a 79b5 133e 1be9 28bf
000002f0: 2a1b ddbe e07b 1e3c 1d0e f53d bae1 63bd
00000300: a10a 14be 5ad4 1e3d 62b0 06bd bc7c bb3d
00000310: a5b7 17bd 59f8 4abe 0404 833d e34c d13d
00000320: 5361 81be cc57 6d3e dee5 29be be08 a2bb
00000330: 9dc9 893d ba41 0a3d e217 013e 27a0 bf3c
00000340: 6bfc 8d3d df60 3e3c 02ef 043e 8d86 123e
00000350: 48a0 993d 1253 09be 8e1f f6bc 40cb 9ebe
00000360: b6c7 843d d668 c8bb 0452 babd dad9 1d3d
00000370: ec8c 963d e6c0 aa3d 54b2 323e ac7c 1ebe
00000380: 5c55 503e bc42 6fbb 28c9 8d3d 88c2 9fbd
00000390: eeac a2be cb72 4c3d 756f 96bc 740f afbd
000003a0: 8b87 30be c421 80be af93 16be 0791 dd3e
000003b0: e729 d33d 3434 25bd bea1 313e 3d29 5b3d
000003c0: 8dae 2b3e 1dd4 a6be 952e a6bd 5f08 01bc
000003d0: f4d1 5cbd 0c12 c6be 7caf b13d 6496 c4bd
000003e0: 585e 953e 3ff5 18bf 5dec 87bd e915 4f3d
000003f0: 8589 a7be d4ea b43e 1b30 22be 468d 6fbe
0.1350514 0.17333186 -0.024190165 -0.1967455 -0.054497954 -0.01898808 0.25671002 -0.14337566
-0.1709449 0.02407024 0.30375588 -0.02639237 -0.05432301 -0.3769367 -0.15573785 0.120821916
-0.40191287 0.0043686256 0.12896757 -0.10065734 -0.0053794538 -0.011920458 0.026419945 -0.10237451
-0.09791889 0.20551263 -0.040189326 -0.14485182 0.07620907 -0.31242257 -0.067550346 0.19769156
-0.04988358 -0.40254217 0.15476684 -0.3268361 -0.038686026 -0.116021104 0.11479085 -0.17840318
-0.19892037 0.1035442 -0.14166322 0.089074954 -0.022924336 0.1806401 -0.082156815 -0.37605456
-0.21614781 -0.022429513 0.33210787 -0.070413634 0.0012969399 -0.043514818 -0.08708002 -0.14897963
0.04964445 -0.05370874 0.09639502 -0.32699972 -0.32489106 0.17147635 0.3468622 -0.17327744
-0.10587692 0.18867488 -0.045989458 0.3039922 0.059318937 -0.18306328 0.0051745186 -0.10667352
-0.19084027 0.16807272 -0.21602063 -0.18405549 -0.06892442 -0.16843869 -0.14127067 -0.371305
-0.2631717 0.23277338 0.059424277 -0.044770487 -0.0660919 0.040282253 -0.26225117 -0.116712436
0.42949444 -0.58301145 0.0004350599 0.20717408 -0.083489016 -0.020496612 0.11894094 -0.06504359
0.05338995 0.14768183 0.114802204 -0.31410635 -0.14147866 0.079999186 0.5219251 0.20957693
-0.42211804 -0.032230433 -0.34832388 -1.1182508 -0.06466651 -0.07880443 0.03204135 0.0643293
-0.100343056 0.24465752 -0.36056477 -0.38118702 -0.38230115 0.5196 0.102404006 0.15793715
-0.07620593 -0.09735514 -0.13044706 0.4477764 0.067019455 -0.651023 -0.20106542 -0.122559026
0.17358012 0.22691248 0.14638333 -0.25603947 -0.08185359 0.033547662 0.16067289 0.06779848
-0.03670938 0.037484024 0.23755042 0.1715363 -0.14030108 -0.1074457 0.0083473455 -0.085438006
-0.26910692 -0.11835851 0.02286497 -0.3005192 -0.021623796 0.056603286 0.18625002 -0.106314935
-0.1984412 0.043442585 -0.12033994 -0.11229009 0.004471859 -0.28317955 -0.14181344 0.094760545
0.036227908 -0.29046875 0.09851865 -0.106197596 0.08964529 0.09546825 0.18504386 -0.10240801
-0.13738415 -0.017731976 0.055962265 0.1577394 -0.100800365 0.2317898 -0.07211342 -0.35103807
-0.13744931 -0.025665522 0.3188898 0.0082959 0.104371354 -0.069372594 -0.07510711 -0.18424998
0.102368824 0.0017007806 0.14424695 -0.6598069 -0.43184787 0.009673089 0.119655825 -0.05563519
-0.1445718 0.038776733 -0.032883056 0.091546506 -0.03704037 -0.198213 0.0639725 0.10219743
-0.25269565 0.23178023 -0.16591594 -0.00494489 0.06727908 0.033754088 0.12606767 0.023391796
0.069329105 0.011619776 0.12981799 0.1430914 0.07501274 -0.13410595 -0.030044343 -0.31014442
0.06483404 -0.006116013 -0.090976745 0.038537838 0.073510975 0.08337574 0.1745084 -0.15477246
0.20345062 -0.0036508283 0.06923133 -0.07800776 -0.3177256 0.049914163 -0.018363694 -0.08547869
-0.17239206 -0.2502576 -0.14704774 0.4327471 0.103107266 -0.040332988 0.17346856 0.053506125
0.16765805 -0.32583705 -0.081143536 -0.007875531 -0.053911164 -0.38685644 0.08676049 -0.09598997
0.2917354 -0.59749216 -0.066368796 0.050558005 -0.32722107 0.3533541 -0.15838663 -0.23393735

fc_layers.1.bias f4 [64]
00000000: 5ea5 003f b6fd 9b3d 3c93 dd3e 2206 6fbd
00000010: 7eb4 4dbe edf4 533e fe75 a0bd a90c a83c
00000020: 8295 bd3e e580 6dbd eade 32be 628e 893d
00000030: 07e3 abbb 0727 193e 461a 8fbc 7478 cebd
00000040: ae53 c2bd 848e 193e bffa 15be a7f4 393c
00000050: 2c24 11be fd3c 8ebe 37b8 93bd ea18 013f
00000060: d59b d63e c013 72bd 27cd 093e 60c7 d03e
00000070: 9dd8 69bd 560c 64be 90b6 75be 5eab d0bd
00000080: 8c8c 443c 899b 11bd dc65 18be 739f 20be
00000090: 9688 e63e 3b72 90bd 8537 e2bb 47be 913c
000000a0: eb2e 1c3e 6748 4fbe b389 74be 7e9b fe3e
000000b0: ad9a b73e b553 8d3d ba0c e93e e86b d4bc
000000c0: 04ed 593e 1b03 8e3d cace 67be 3cb1 06be
000000d0: 9bbd 25be c405 4a3c 1032 0cbd 24d7 e13c
000000e0: 0541 b7bd 1c1e 76bd 0210 6bbc 1e89 b23e
000000f0: f78b 713d 6f1a 61be 07e9 17be 7409 c7bd
0.5025233 0.07616751 0.43276393 -0.058355458 -0.20088384 0.206989 -0.07835005 0.02051385
0.37028128 -0.05798425 -0.17467847 0.067166105 -0.0052455696 0.14956294 -0.017468583 -0.10081568
-0.09488617 0.14995772 -0.14646433 0.011349834 -0.14173955 -0.27780905 -0.072128706 0.5042864
0.41915765 -0.059100866 0.13457166 0.4077711 -0.057091344 -0.22270331 -0.23995423 -0.10188936
0.0119964 -0.03554872 -0.14882606 -0.15685825 0.45026082 -0.07053038 -0.006903591 0.017790927
0.15252273 -0.20242463 -0.23880653 0.49728006 0.35860196 0.069007315 0.45517522 -0.02593036
0.2128182 0.06934186 -0.22637478 -0.13153547 -0.1618561 0.012330476 -0.03422743 0.027568407
-0.08947948 -0.06008731 -0.014347078 0.34870237 0.05897137 -0.2198274 -0.14834987 -0.097186

fc_layers.2.weight f4 [4, 64]
00000000: 7e36 313e f02a 313e 4d74 263e 438b 07be
00000010: 58cb b9be bffb ff3c a319 ea3d 45e9 863e
00000020: bd0e 4b3e 42fa 9dbf 8f36 0bbe dd58 bbbe
00000030: 0a61 adbe e030 843e 02fe c8bd 7081 babe
00000040: 1e8a 8dbd 4345 e33d 0cc4 1f3e 711c d03d
00000050: 86a4 563d 3b45 9e3c dd05 c53a 0087 2e3e
00000060: 5e8e 843d 9279 1c3e a5b9 1d3e 5825 ea3d
00000070: 36bc eebe 1ab0 84bd 539a 53be 5536 c0bd
00000080: f8ff 2dbe 68a1 d93c bb5c f3be b559 1cbf
00000090: 44b1 2e3e 5e01 183d 2661 e1bd 5209 ad3e
000000a0: 0569 ab3d 3f17 443e 3f87 99be 1e70 143e
000000b0: c3f2 273e 093e b6bc cd6e 1e3e 4b93 d8be
000000c0: 1a60 e03e 9e42 43be 7a5d 4abe adc9 ec3e
000000d0: 2e2c c5bd 68e0 cabe 64f7 f03e cbc5 6a3e
000000e0: 88cd d0be 2010 93bc 4f9a 26bf 125b f83e
000000f0: ad85 8d3e 278a 853e 381a 503d 975d 2dbf
00000100: b7a6 5f3e 5809 953e 745d ff3d 46b3 9e3c
00000110: 8c0b a0be a97a 053e 811d 87be 8ee5 c83e
00000120: 5591 1a3e 897c ea3d 6017 b0be 2643 5a3e
00000130: a885 f0bd ce4c 603e 3642 a03d 2e67 293e
00000140: 3b93 0d3d f8f4 203e b962 39bd af6d 873e
00000150: c1d9 373e f766 723c 2c7f e5bb d656 fb3d
00000160: b0b6 313e 5f44 e13d c3a0 533e 4f22 1b3e
00000170: cec1 133d d386 b5bc 47ef d0bd 7e22 00be
00000180: cef4 b5bd c08f 4ebe 9fe9 9abd 5dbb 8e3e
00000190: c7a4 c53d 04f2 bc3d 9b11 e93d 1704 0a3e
000001a0: b25b 513e 040e b73e e915 6abd b200 463e
000001b0: 756c 8a3d 7043 8ebd 878c 503e 667c 6d3d
000001c0: 8ee0 963e 1f92 bcbe 8c33 53be 969a 113e
000001d0: 98e0 433d 929c 9b3d fc70 693e 4691 0b3e
000001e0: 4e73 2d3d 427e 5bbd 4d3e ad3d ee10 da3e
000001f0: ff46 623e f603 3fbd 8420 163d 4488 6dbd
00000200: b629 4a3e 33e6 f53e bd77 0e3e 3ec1 b93e
00000210: 07c4 163f 1424 b03d 394f 873e c82b 40be
00000220: ecfc 70ba cbc4 65bd 7cd8 cf3e 8ad9 9cbc
00000230: 2c8b 8ebe cfab fdbd 4370 da3d 0728 9c3e
00000240: 59f4 0e3e 2def 1b3e 8e31 033f 7830 343d
00000250: ca43 973e cdd2 01bd 5366 76bd 5c2b 723e
00000260: f2f9 443e e859 a1bd 5557 b23d 91d3 183e
00000270: c354 42bf 4115 053e 778c 15bf f24e 8fbf
00000280: 5759 ed3d 7b80 d93e dc06 6abe dc5b 7abe
00000290: 59aa f63c 7b7e 01be c860 7c3e 3bb8 b93c
000002a0: 4d49 b1bd d5bd c23e d482 03bf ef04 263e
000002b0: db9c 5d3e 0b7d a83e 9c8a 243e fe18 823d
000002c0: f19d 033f 43ba 40bf dbea 4bbe a21a a03e
000002d0: 7030 27be 9af0 82be c0f1 1b3f dced 9ebe
000002e0: 035f 733e 88a5 e43c b672 093f 9875 863e
000002f0: 232c 553e 649a bc3e 8d86 983e 57f9 1fbd
00000300: 4c31 1f3e 1232 483e 6846 243e 3575 7e3e
00000310: f52d 483f 4833 c33e 3206 6dbe 1ac6 313f
00000320: c9b0 7a3d 5328 56be a542 cfbe 15cc a9bc
00000330: 39ec 53bd 11c2 e1be 6640 263d 579d c2bb
00000340: 2ce9 c7bd ede8 5d3d 81b0 65be 5ef6 743d
00000350: 3c78 4b3e eb5d 2ebf f214 543d 88e2 683e
00000360: 6007 c83d 94a2 913e 4e11 8b3e 02ff dc3d
00000370: c9df fcbe dc9b bc3e da9d e33e 3053 0bbe
00000380: e436 3f3e c82f 6ebf 34de 163e cbb6 e63e
00000390: 69b2 303e 8836 663d df40 58be ea34 c3be
000003a0: 226a ed3e 8055 16bf 7c4a 113d 4ab7 073e
000003b0: e7ca 983d b669 003c 164f 683e c708 263d
000003c0: 45b6 28bf f041 83be 2546 f0bd e2fe 1c3f
000003d0: a6c1 863d 9703 97be e4fb 663e 0181 c8be
000003e0: 0919 b43e 88b5 1b3d e353 e33e 961e 813e
000003f0: dd91 e43d 7b5c 15be ab3f ab3e f859 233f
0.17305943 0.17301536 0.16255303 -0.13236718 -0.3628795 0.031247972 0.11430671 0.26349846
0.19829841 -1.2341998 -0.13595031 -0.36591235 -0.33863097 0.2581854 -0.09814073 -0.36426878
-0.069111094 0.11097195 0.1560213 0.10161675 0.052402996 0.019320121 0.0015031655 0.17043686
0.06472467 0.1528075 0.15402849 0.11432904 -0.4662797 -0.06478901 -0.20664339 -0.09385363
-0.16992176 0.026566222 -0.47531685 -0.6107438 0.17059809 0.03711068 -0.11004858 0.33796173
0.0836964 0.19149493 -0.29985997 0.14495894 0.164012 -0.022246378 0.15471955 -0.42299876
0.4382332 -0.19068381 -0.19762221 0.46247616 -0.09627567 -0.39624333 0.47063744 0.22927015
-0.40781808 -0.017952025 -0.65079206 0.4850698 0.2764105 0.26081964 0.050806254 -0.6772093
0.2184094 0.2910869 0.12468997 0.019372594 -0.3125881 0.13035072 -0.26389697 0.39237636
0.15094502 0.114495344 -0.34392834 0.21314678 -0.11744243 0.21904299 0.07825129 0.16543266
0.034564238 0.15718448 -0.045260165 0.2645087 0.1795416 0.014795057 -0.0070036855 0.12272422
0.17354846 0.10999369 0.20666794 0.15149806 0.0360735 -0.022159016 -0.102018885 -0.12513158
-0.088845834 -0.20172024 -0.07564091 0.27877322 0.096505694 0.09225848 0.11380311 0.13478123
0.20445135 0.3575288 -0.0571498 0.19336203 0.06758968 -0.069464564 0.20366107 0.057979964
0.29468197 -0.36830232 -0.20625132 0.14219126 0.04782161 0.07598223 0.22797006 0.13629636
0.04234629 -0.053587206 0.084591486 0.4259104 0.22097395 -0.046634637 0.036652103 -0.05799128
0.19742474 0.4802719 0.13912864 0.36280245 0.58892864 0.08600631 0.2642763 -0.18766701
-0.0009192962 -0.05609588 0.40594852 -0.0191467 -0.27840555 -0.123862855 0.106659435 0.30499288
0.13960399 0.15227957 0.5124749 0.043991536 0.29543906 -0.031695176 -0.060156178 0.23649353
0.19235972 -0.078784764 0.087080635 0.14924456 -0.75910586 0.12996389 -0.5841746 -1.1195967
0.11589306 0.42480835 -0.22854179 -0.24449104 0.030110525 -0.12645905 0.24646294 0.022670856
-0.08656559 0.38035455 -0.513715 0.1621282 0.21641867 0.329079 0.160685 0.06352423
0.51412874 -0.7528421 -0.19913809 0.3127032 -0.16327071 -0.2557419 0.60915756 -0.31040847
0.23766713 0.027910963 0.5369066 0.26261592 0.20817618 0.3683654 0.29790154 -0.03905615
0.15546149 0.1955035 0.16042483 0.24849398 0.78195125 0.38125062 -0.23146895 0.69442904
0.06120375 -0.2091382 -0.40480533 -0.020727197 -0.05173895 -0.44093373 0.04058876 -0.0059391665
-0.09761271 0.054177213 -0.22430612 0.059805267 0.19870085 -0.6811206 0.051777788 0.22742665
0.09767032 0.2844435 0.2716164 0.107908264 -0.49389485 0.3683766 0.4445637 -0.13605952
0.18673283 -0.9304166 0.14733201 0.45061335 0.17255558 0.05620435 -0.21118496 -0.38126308
0.46370035 -0.5872421 0.035471424 0.13253513 0.074605756 0.007837703 0.22686419 0.040535714
-0.6590312 -0.25636244 -0.11732129 0.6132642 0.06579904 -0.29494926 0.22557026 -0.39160922
0.3517535 0.03801492 0.44399938 0.25218648 0.11160634 -0.1458606 0.33447012 0.63809156

fc_layers.2.bias f4 [4]
00000000: 4161 bc3e af08 9e3e 6239 ab3e d4f8 883e
0.3679295 0.30866 0.33442217 0.2675234
