param6_fully_trained.pth (torch, 2911 bytes, 4 tensors)

fc_layers.0.weight f4 [8, 37]
0	0x3e252013	0.16125517
1	0x3e97dc32	0.29660183
2	0x3e797d86	0.2436429
3	0x3e43519f	0.19074105
4	0xbede2417	-0.4338691
5	0xbde1309c	-0.109956
6	0x3e103695	0.14083321
7	0x3e522fd5	0.20526059
8	0xbe10089d	-0.14065786
9	0xbe229b78	-0.15879619
10	0x3e648dc3	0.22319703
11	0x3dd25d74	0.10271731
12	0x3e2d7e93	0.16942815
13	0x3e296450	0.16542172
14	0xbd861f24	-0.06548908
15	0xbe88548d	-0.26627007
16	0x3edb9eba	0.42894536
17	0x3e61ada2	0.22038892
18	0xbebc3f80	-0.36767197
19	0xbf8c5295	-1.0962702
20	0x3e1e6725	0.15469034
21	0x3db78ea3	0.08962753
22	0x3e0f53de	0.13996837
23	0x3d2eca42	0.042673357
24	0xbe6df62a	-0.23238435
25	0xbec68cba	-0.3877924
26	0x3ed17c91	0.4091535
27	0x3d97063f	0.07374238
28	0xbf309031	-0.6897002
29	0xbffb552d	-1.9635369
30	0x3d814778	0.0631246
31	0x3e84d24d	0.25941697
32	0x3e821052	0.25403076
33	0xbd10eeae	-0.035383873
34	0xbee96659	-0.45585898
35	0x3d079c28	0.033107907
36	0xbcf814ac	-0.030283295
37	0x3f03694e	0.5133256
38	0x3ebf1551	0.3732095
39	0x3ee2ab37	0.44271252
40	0x3ef874d5	0.48526636
41	0x3ce5dfa1	0.028060736
42	0x3edec017	0.43505928
43	0x3f0bfcbb	0.5468251
44	0x3f059ef6	0.5219568
45	0x3eef7b26	0.46773642
46	0x3d745ca3	0.059658658
47	0x3e94e711	0.2908254
48	0x3eb53de4	0.3539878
49	0x3ec9dcec	0.39426363
50	0x3ee4e650	0.44706964
51	0x3e4df8a7	0.20114385
52	0x3f0a6cf4	0.540725
53	0x3ed6ddda	0.41966134
54	0x3ec61c18	0.3869331
55	0x3ea3d43d	0.31997862
56	0xbe0d3c00	-0.1379242
57	0x3e386c70	0.18010116
58	0x3ef8f620	0.48625278
59	0x3efa3762	0.4887038
60	0x3ef2e7c3	0.47442445
61	0x3d9787f9	0.073989816
62	0x3f099234	0.53738713
63	0x3edec500	0.43509674
64	0x3ea5bc98	0.32370448
65	0x3e548519	0.20753898
66	0xbeb076a7	-0.34465525
67	0x3f0030a1	0.500742
68	0x3ea7d3fd	0.32778922
69	0x3e8aac39	0.2708452
70	0x3e258feb	0.16168182
71	0xbe919561	-0.2843428
72	0xbd125308	-0.035723716
73	0xbcdcc783	-0.026950603
74	0xbd2e2c1d	-0.04252254
75	0x3c3a03c9	0.0113534415
76	0x3bbcc29c	0.005760504
77	0xbccdac5d	-0.025106603
78	0xbd30402b	-0.043029945
79	0x3f30b69a	0.6902863
80	0xbf85c231	-1.0449888
81	0xbf821ce5	-1.0165068
82	0xbf70fb2e	-0.9413327
83	0xc035c7af	-2.8403127
84	0x3e2e45eb	0.17018859
85	0x3e033bd9	0.12815799
86	0x3e102cce	0.14079592
87	0x3dab2322	0.083563104
88	0xbd9ad8bd	-0.07560871
89	0x3d3129fc	0.04325293
90	0x3e04dabe	0.12974069
91	0x3e2c45e2	0.16823533
92	0x3e413aa6	0.18870029
93	0x3ddb6cb7	0.10714095
94	0x3c5ea841	0.01358992
95	0x3da0804a	0.07836969
96	0x3dace917	0.08442896
97	0x3d80aae6	0.06282596
98	0xbd6a9389	-0.057269607
99	0xbd7ed9f2	-0.062219568
100	0x3d8309f6	0.06398384
101	0x3df565bb	0.11982294
102	0x3e54fe17	0.20800053
103	0x3e4e16bd	0.20125861
104	0xbd5f5ef4	-0.054533914
105	0x3d5ee47c	0.05441712
106	0x3e022f51	0.12713362
107	0x3e877838	0.26458907
108	0x3e80b456	0.25137585
109	0x3b1bc38d	0.002376768
110	0x3bc3439e	0.0059589883
111	0x3eb737f6	0.35784882
112	0x3ebbc1ff	0.36671445
113	0x3eb2e295	0.34938493
114	0x3eab7d84	0.33494198
115	0x3cf1bfdf	0.029510437
116	0x3ecaf5fb	0.39640793
117	0x3e8eda94	0.27901137
118	0x3ea4fd37	0.32224438
119	0x3ea7889d	0.32721415
120	0x3d6c0653	0.05762322
121	0x3f0a4b63	0.5402128
122	0x3e8a3171	0.26990846
123	0x3e57af87	0.21063052
124	0x3e503dd0	0.2033608
125	0xbea55409	-0.32290676
126	0x3ec0394a	0.37543708
127	0x3eba14d4	0.36344016
128	0x3eae4bb5	0.34042135
129	0x3eaf19b2	0.3419929
130	0xbd9c3642	-0.07627536
131	0x3f8f769d	1.1208073
132	0x3d90d63c	0.07072112
133	0x3cd8e559	0.026476549
134	0x3d93b139	0.07211537
135	0xbc0a9e9e	-0.008460669
136	0x3eaee553	0.34159335
137	0x3eba0c6e	0.36337608
138	0x3e9952d3	0.29946002
139	0x3e8be3d9	0.2732227
140	0x3ca68a5c	0.020329647
141	0x3e089a40	0.13340092
142	0x3edc56d4	0.43034995
143	0x3eec916b	0.46204695
144	0x3f203390	0.6257868
145	0x3edeae84	0.4349252
146	0x3dcd695e	0.10029863
147	0x3d7a62cd	0.06112938
148	0xbc8c7756	-0.017146748
149	0xbc9af76d	-0.01891681
150	0xbd067e39	-0.03283522
151	0xbc87334c	-0.016503952
152	0x3d47606f	0.04867595
153	0xbdafc7f8	-0.08583063
154	0xbdcee9ad	-0.10103164
155	0xbd8217ef	-0.06352221
156	0xbce48c79	-0.027899014
157	0x3e1ea128	0.15491164
158	0xbcd4ed45	-0.025992045
159	0xbdb76b55	-0.08956019
160	0x3ba886da	0.0051430287
161	0x3d8d2917	0.06892603
162	0x3e1c58b7	0.15268217
163	0xbd7e3967	-0.062066462
164	0xbda9830d	-0.08276949
165	0xbde5fe0e	-0.11230098
166	0xbda7e33d	-0.08197639
167	0xbd885989	-0.066577025
168	0x3ea56d57	0.32309982
169	0xbf742b01	-0.9537812
170	0xbf2f733d	-0.68535215
171	0x3e0bee08	0.1366502
172	0x3fb7241f	1.4307898
173	0xbe08cca0	-0.13359308
174	0xbe082744	-0.13296229
175	0xbe04fa43	-0.12986092
176	0xbe2a6979	-0.16641797
177	0x3d02ec3f	0.031963583
178	0xbdde60b8	-0.108582914
179	0xbc853dec	-0.016264878
180	0x3bc6034d	0.006042874
181	0x3b580b4c	0.0032965718
182	0x3db56876	0.08857815
183	0xbcf5b890	-0.029995233
184	0xbc8be1f0	-0.017075509
185	0x3d60c893	0.054878782
186	0x3d5b6346	0.05356147
187	0x3d9bef69	0.07614023
188	0x3da2aa8c	0.079426855
189	0xbd0b219d	-0.033967603
190	0xbd4e27ba	-0.050330855
191	0x3d97d76f	0.074141376
192	0x3d7fada9	0.062421475
193	0x3d55b560	0.052174926
194	0x3d31ce94	0.0434099
195	0xbcda84fc	-0.02667474
196	0x3d82a938	0.06379932
197	0x3d91e20f	0.071231954
198	0x3dc266d8	0.09492272
199	0x3e10e796	0.14150843
200	0xbc0491fc	-0.008091446
201	0x3d333d19	0.04375944
202	0x3d556ec0	0.052107573
203	0x3dbaa3e4	0.09113291
204	0x3d4d8d4f	0.05018359
205	0xbe14ee01	-0.14543916
206	0xbca5adec	-0.020224534
207	0xbc13c3e3	-0.009018871
208	0x3cb8e599	0.022570418
209	0x3e118630	0.14211345
210	0x3d08582b	0.03328721
211	0x3d37ef24	0.044905797
212	0x3dd74c8f	0.10512649
213	0x3e491985	0.19638641
214	0x3e16cd94	0.1472686
215	0x3f0ca81d	0.5494402
216	0xbf0ed12f	-0.5578794
217	0xbf349272	-0.7053596
218	0xbf1597e3	-0.58434886
219	0xc0241357	-2.5636804
220	0xbbfedd88	-0.0077778734
221	0x3b6dc46f	0.0036280414
222	0xbd10363a	-0.035207964
223	0xbd3091af	-0.043107685
224	0xbbf698c0	-0.0075255334
225	0x3bbe7562	0.005812333
226	0x3d15c67d	0.036566246
227	0xbda1690a	-0.07881363
228	0xbd8a493b	-0.06752249
229	0x3c8b9856	0.017040413
230	0x3b8a9c5f	0.0042300667
231	0x3d37229d	0.044710744
232	0x3de6c412	0.11267866
233	0x3df3c75c	0.11903259
234	0x3e20a871	0.15689255
235	0x3e01d70a	0.12679687
236	0xbb8fcd0a	-0.0043884562
237	0xbd59800d	-0.053100634
238	0xbd027e19	-0.031858537
239	0xbdc55b3e	-0.09636544
240	0xbd027a35	-0.031854827
241	0x3d4b6fd1	0.049667183
242	0xbd120156	-0.035645805
243	0xbba7c2a7	-0.00511964
244	0xbc64ba4f	-0.013960435
245	0x3ca66356	0.020311039
246	0x3d5e3933	0.05425377
247	0x3ed3ff69	0.414058
248	0xbeb92630	-0.36161947
249	0xbf02463c	-0.5088842
250	0xbf00dd99	-0.5033813
251	0xc02936db	-2.643973
252	0xbdd518a4	-0.104050905
253	0xbd24da91	-0.040247504
254	0xbcfb2874	-0.030658938
255	0xbcb3c60c	-0.021945022

fc_layers.0.bias f4 [8]
0	0x3e5b7ce3	0.21434359
1	0x3f26b197	0.6511473
2	0x3e37b542	0.17940238
3	0x3f101a3c	0.5629003
4	0xbc2ff206	-0.010738855
5	0x3dae729e	0.08517955
6	0xbde24ed3	-0.11050191
7	0xbe152be0	-0.14567518

fc_layers.1.weight f4 [4, 8]
0	0xbeb48d24	-0.35263932
1	0x3f08d83c	0.5345495
2	0x3f2c1516	0.67219675
3	0x3e7e3e2b	0.24828403
4	0xbd98c4e4	-0.07459429
5	0x3e93cc26	0.2886669
6	0x3d337002	0.04380799
7	0x3e009229	0.12555756
8	0xbec420bf	-0.38306233
9	0x3f02cf98	0.5109801
10	0x3f185735	0.5950807
11	0x3e81ec8d	0.25375786
12	0xbdb1d127	-0.08682471
13	0x3e871685	0.2638437
14	0x3da0e275	0.07855693
15	0x3da5ac44	0.08089498
16	0xbe4c2761	-0.19936897
17	0x3e6d5df3	0.2318037
18	0xbd4c7f33	-0.049925994
19	0x3f1e02fe	0.61723316
20	0xbf5640cd	-0.8369263
21	0x3f5a49b8	0.85268736
22	0x3dc40456	0.095711395
23	0xbea41131	-0.32044366
24	0xbeae3c34	-0.34030306
25	0x3ef46d62	0.47739702
26	0x3d514fc0	0.051101446
27	0x3e7666b0	0.2406261
28	0xbde4f29e	-0.11179088
29	0x3d9a9456	0.07547824
30	0x3f92deec	1.147428
31	0xbe6fbd47	-0.23412047

fc_layers.1.bias f4 [4]
0	0x3ed8b4e9	0.42325523
1	0x3ee5f28c	0.4491161
2	0x3e17bd34	0.14818269
3	0x3f22ab28	0.63542414
