param6_ddqn_solved_741.pth (torch, 2911 bytes, 4 tensors)

fc_layers.0.weight f4 [8, 37]
00000000: 1872 cd3d 5a16 1b3e 75bb 253e 3f98 133e
00000010: 79c4 983c d588 fdbe 11bc 923e 608e 973e
00000020: e884 d2bd 19d9 92bf 9b8b 173d 2f08 2e3e
00000030: 52a5 3b3e b803 d4bd f8f7 ddbd 0d8b 26be
00000040: f5c3 293d b6ed 183e 1fa0 dcbd 4a00 25be
00000050: 5370 38be 4427 313e 8e02 4a3e fc09 1fbe
00000060: 7683 f5be 2e39 e0be 3957 093e 2330 f43d
00000070: 36bb d8be 3f94 2bbf cd6b 093d 9b0f 1c3e
00000080: 8aba 2c3e 4c96 9ebd d010 d9be 7e33 0d3d
00000090: 10e0 f83c bf82 933e 5e4f c23e a47a c43e
000000a0: 7bae a13e 53bd f9bc cab4 ca3e c2ef c73e
000000b0: 4f24 ab3e fb77 763e 2ad9 b5bd 80bf c13e
000000c0: a4b0 033e a716 733e 28d6 a33e 332e 9d3d
000000d0: d15b 873e 8c37 c63e ff9b c53e d721 923e
000000e0: bbbf cebc fe7b e93e a4cc 923e c7fb 313e
000000f0: fbdb 723e 214a 35be 1ed5 733e e257 d83e
00000100: e5e3 c43e 32ca 2f3e 5290 5bbd 08e9 423e
00000110: 3029 b93e d725 6a3e cb00 613e 83d6 003e
00000120: ef60 90bd 42ec d63c 48d4 20bd 4a5b 8dbd
00000130: a92f 9fbd d963 83bd f4d3 e6bc d175 cd3d
00000140: f580 193d 0d78 073e c12c d73d da8a f13c
00000150: 3d66 573d 8382 c83d d73c 2e3d 5ff7 0c3d
00000160: 2d55 38bd 407d 823d 3903 2eba 6709 823d
00000170: 5df7 ad3d d1c0 963d 1914 483d 99bc 8c3d
00000180: b639 37bd 4f29 f2bd 2868 88be edf7 7bbc
00000190: 6b32 55bc 7d14 b2bd c33b a7bd cfeb 7ebd
000001a0: cde3 aa3e a38f 24bf bb6b 06bf 02aa acbe
000001b0: 0aca 03c0 ea3a bf3d 40cf 043d 90de c53e
000001c0: 1cad 803e bda6 4d3e 584b 913e ffaf e7bc
000001d0: 7dd8 723e 6ce2 743e 0c8f 6c3e ed40 973e
000001e0: 933d b4bb b17c 073e 208d bc3e 7cb2 813e
000001f0: 1893 303e 3a60 91bd a042 e03e 2049 993e
00000200: ffe2 4c3e d043 683e 381f 36be d407 543e
00000210: ddce b83e cd5a cf3e 9ce9 763e a3f3 0e3c
00000220: 2cf3 e63e 60cf 1b3e 0ca0 363d 8b9d fc3d
00000230: e898 b0be 330d a73e add1 703e 8345 973e
00000240: 4ae0 9d3e 6552 03be 9015 e93d be19 ddbb
00000250: 299e 733d a222 763d aab6 52bc e19e bfbc
00000260: 8c09 fbbd 85ee eebd d6ae 54bd db0d 18bd
00000270: 9f9e 50bc 184e a33d 74c8 a73d 1e15 e63d
00000280: fc8f d53d 55a4 ce3d a2d9 413c 361d 1f3e
00000290: f1a4 b53c 2de6 9ebe f780 3dbe 7270 62bf
000002a0: 0eef f4bb 5172 5cbd d75f 13bb 24a0 093d
000002b0: 57ee 1c3e ed82 a33e 186c 21bf e3ad 23be
000002c0: 80ce 57be b03c babf 097b 023d ff36 cc3d
000002d0: cd42 703d 3c7e 243d 50d6 513c 83fa 9dbb
000002e0: ab40 f93c 0fc1 6f3d 2ead 123d 4b9b 0f3d
000002f0: 29bb 003c 0dda 6cbd 392d e2bd 8384 1d3e
00000300: 48ad cb3d 68b5 313e 200e 303e 220a 82bc
00000310: f621 0abd 6bc4 83bb f23a 9abc 35c7 5a3b
00000320: f607 723c 3e12 d53a 8f0c bb3c 9be4 9f3d
00000330: 199e 323d 225f 13be 8fc6 15be dff3 cebd
00000340: 398b 89bd 74e7 c03d 640d 9bbd 10c5 bfbd
00000350: 41ee 993d 2919 a53e 8c74 e23e 4cfe e43e
00000360: ceeb 39bf 7d9b 0abf 5c0b cfbe 4961 c9bf
00000370: 5167 2abc ca95 66bc a444 143d a2b9 b73c
00000380: 9f81 493d d93c 973d b67b 773d 6968 0a3f
00000390: 1ba6 8cbf 4821 2bbf 68f7 11bf 41d4 fdbf
000003a0: 05da 183e ad10 313e 098e 2b3e 2ac8 273e
000003b0: d2f3 91bc df51 18bd e5fc ebbc 2e7b 133c
000003c0: 981c a53d db27 fc3d dcbd b73c 5e38 cb3c
000003d0: 710e ca3c 0f5b 723d 5eec 553d 4e8e 113e
000003e0: 666c 4f3e 2c2a 043e 236e 663d e9a1 0ebe
000003f0: 2a35 d4bc 7687 78bd 5f1a 96bc 415d 973d
0.10031527 0.15145245 0.1618479 0.14413546 0.018648373 -0.49518457 0.28659108 0.2960081
-0.10279256 -1.1472503 0.036998373 0.1699531 0.18324783 -0.10352272 -0.10838312 -0.16263981
0.041446645 0.1493443 -0.10772728 -0.16113392 -0.18011598 0.17300135 0.19727537 -0.15531152
-0.4795186 -0.43793625 0.13412179 0.11923244 -0.4233033 -0.6702308 0.033550072 0.15240328
0.16868034 -0.077435106 -0.4239564 0.034472935 0.030380279 0.2881069 0.37951177 0.38374817
0.3157843 -0.030485785 0.39591056 0.39050108 0.3342614 0.24069206 -0.088793114 0.37841415
0.12860352 0.2373911 0.31999326 0.076748274 0.26437238 0.38714254 0.38595578 0.28541443
-0.025237909 0.4560241 0.28671753 0.17381202 0.23716728 -0.17704059 0.23811767 0.4225455
0.3845512 0.17166975 -0.05360443 0.19034207 0.36164236 0.22865997 0.21972959 0.1258183
-0.070497386 0.026235703 -0.039264947 -0.06902178 -0.07772762 -0.06415529 -0.028177239 0.10032237
0.0374765 0.1322939 0.10506583 0.029485155 0.052587736 0.09790518 0.04253849 0.0344156
-0.045003105 0.06371546 -0.00066380535 0.063494496 0.084944464 0.073609956 0.04884729 0.0687191
-0.04473277 -0.11824285 -0.26641965 -0.015378934 -0.013012509 -0.08695314 -0.081656955 -0.062236603
0.33376923 -0.6428167 -0.52508134 -0.33723456 -2.0592065 0.09337409 0.03242421 0.38646364
0.25132072 0.20083137 0.28377795 -0.028282164 0.23715396 0.23914498 0.23101443 0.29541722
-0.0055005043 0.1323116 0.3682642 0.25331485 0.17243612 -0.07098432 0.4380083 0.29938602
0.20008467 0.22682118 -0.17785347 0.20706111 0.36095324 0.40498963 0.24112552 0.00872508
0.451074 0.15215826 0.044586226 0.123347364 -0.34491658 0.32627258 0.23517485 0.2954522
0.3083518 -0.128244 0.11381066 -0.0067474535 0.059477005 0.060091622 -0.012860933 -0.023391189
-0.1225768 -0.11666588 -0.05192455 -0.03712259 -0.012733131 0.079738796 0.0819253 0.112344965
0.104278535 0.100899376 0.011831673 0.15538487 0.022173377 -0.31034985 -0.18506227 -0.8845283
-0.0074747866 -0.053819958 -0.0022487545 0.033599988 0.15325294 0.31935826 -0.6305556 -0.15984301
-0.21074867 -1.454977 0.031855617 0.09971427 0.058657456 0.04015945 0.012807444 -0.004821123
0.030426344 0.058533724 0.03580969 0.03506021 0.007857122 -0.057825137 -0.11043782 0.1538258
0.0994516 0.17354357 0.17192888 -0.015873972 -0.033723794 -0.0040212176 -0.018826935 0.0033382897
0.014772406 0.0016256047 0.022833137 0.07807275 0.043607805 -0.14391759 -0.14626525 -0.101051085
-0.06716008 0.09419146 -0.075709134 -0.093637586 0.075161465 0.32245758 0.44229543 0.44725263
-0.72625434 -0.54143506 -0.40438354 -1.5732814 -0.010400609 -0.014073798 0.036198273 0.022427384
0.049195882 0.07384653 0.060420714 0.5406557 -1.0988191 -0.6684766 -0.57018137 -1.98304
0.14926918 0.17291518 0.16753401 0.1638495 -0.017816458 -0.037187453 -0.028807113 0.009001536
0.080620944 0.12312289 0.0224294 0.024807151 0.02466509 0.05916887 0.05222737 0.14214441
0.20256194 0.12906712 0.05625738 -0.13928951 -0.025904257 -0.06067606 -0.018323122 0.07390834

fc_layers.0.bias f4 [8]
00000000: aedc cd3c 9399 013f 3c03 143d ea5a e43e
00000010: 048d d13d a112 9abc 6665 ab3d 1e87 14be
0.025129642 0.5062496 0.036135897 0.44600612 0.10231975 -0.018807711 0.083689496 -0.14504668

fc_layers.1.weight f4 [4, 8]
00000000: f94c 9abe 09bf b43e 717a 8d3d 80af 9f3e
00000010: 61ab 023e cdef 0e3f 0911 423f d1ca 063e
00000020: f155 5ebe b210 a23e be6c 093e 129a 873e
00000030: e5ce 183e 916e 0c3f ab81 393f 4b8a b83d
00000040: 5c26 55be dc4c d43e aa14 563f 29eb 453e
00000050: 3797 a33d 7db6 c43e dd94 fa3d 0ee7 a4be
00000060: 8b46 9cbe 4155 9f3e d0f7 d83d 82e1 a03e
00000070: e4a4 393f 8230 ce3d 03cb 3a3e 9201 6fbe
-0.3013685 0.35301998 0.069081195 0.31188583 0.12760688 0.55834657 0.75807244 0.13163306
-0.21712472 0.31653363 0.13420388 0.26484734 0.14922674 0.5485621 0.7246348 0.09010752
-0.20815414 0.4146489 0.8362528 0.19327988 0.07987826 0.38420478 0.12235425 -0.3220753
-0.3052257 0.3111973 0.105941415 0.3142205 0.7251723 0.10067846 0.18241505 -0.23340443

fc_layers.1.bias f4 [4]
00000000: 04be 833e 90fc b93e 5c8e 933e 3757 af3e
0.25730908 0.36325502 0.2881955 0.34246227
