param1_fully_trained.pth (torch, 29335 bytes, 6 tensors)

fc_layers.0.weight f4 [64, 37]
0	0x3e11f3b4	0.14253122
1	0x3e5c3468	0.21504366
2	0x3e429ce5	0.19005163
3	0x3e464056	0.1936048
4	0x3ce358e6	0.027752351
5	0x3d977663	0.07395627
6	0x3e270121	0.16309024
7	0x3def42d8	0.11682671
8	0x3eb22170	0.34791136
9	0x3e3315d4	0.17488796
10	0x3e15e800	0.14639282
11	0x3e3c8d55	0.18413289
12	0x3e337eb4	0.17528802
13	0x3e355010	0.17706323
14	0xbd92e204	-0.07172015
15	0x3d84543f	0.06461381
16	0x3e1e8a9c	0.15482563
17	0x3e01fff2	0.12695292
18	0x3e1543ec	0.14576691
19	0x3da9df3d	0.082945324
20	0x3d55ee41	0.05222917
21	0x3dc94979	0.09828467
22	0x3c9cd1a4	0.019142933
23	0x3dec12ea	0.11527045
24	0x3d7b43e9	0.06134406
25	0xbbbdbbce	-0.0057902103
26	0x3c76f572	0.015073167
27	0x3da63f45	0.081175365
28	0x3d954fca	0.07290609
29	0x3d402633	0.04691143
30	0x3ef26af1	0.47347215
31	0xbf197db2	-0.5995742
32	0xbf5e14f2	-0.8675071
33	0xbf79bcfd	-0.97554
34	0xc038fede	-2.8905559
35	0x3c898b63	0.016790098
36	0xbc095bfb	-0.008383746
37	0x3ed48ab6	0.41512078
38	0xbf350ec1	-0.7072564
39	0xbf241ddb	-0.64108056
40	0xbf5df0fb	-0.8669583
41	0xc03a6ff8	-2.913084
42	0x3d871927	0.06596594
43	0x3e4a66d0	0.19765782
44	0x3e3e534e	0.18586466
45	0x3e5bcc39	0.21464624
46	0x3dcbeac6	0.09956889
47	0x3d6225c1	0.055211786
48	0x3c2201ba	0.009888107
49	0x3b38f6c4	0.0028223256
50	0x3d3b38c7	0.045708444
51	0xbc8d9b17	-0.017285867
52	0x3d8e621b	0.06952306
53	0x3ce0923b	0.027413478
54	0x3d855b20	0.06511521
55	0x3e5efedc	0.21776909
56	0x3dcfde8f	0.101498716
57	0x3df73d35	0.12072221
58	0x3dbfcc3c	0.093651265
59	0x3db731d9	0.089450546
60	0x3d44936d	0.04799216
61	0x3c9afd54	0.018919624
62	0xbd291c5b	-0.041286808
63	0x3e1d5c06	0.15367135
64	0x3dc02b89	0.09383304
65	0x3e4b3f0e	0.19848272
66	0x3e51ad43	0.2047625
67	0xbd74cf6c	-0.059768125
68	0xbd058110	-0.032593787
69	0x3d50c2b3	0.05096693
70	0x3dbd03f0	0.09229267
71	0x3dee395b	0.116320334
72	0xbb1bdcf7	-0.0023782828
73	0x3c470fda	0.012149775
74	0xbd2a6242	-0.041597612
75	0xbe9810c3	-0.29700288
76	0xbdde44d3	-0.10852971
77	0xbf36d8f7	-0.7142481
78	0x3c2960cc	0.01033802
79	0x3ed495c4	0.41520512
80	0xbefaaf20	-0.48961735
81	0xbf86e7db	-1.0539507
82	0xbf0b0056	-0.5429739
83	0xbf6f7ca4	-0.9354956
84	0xbba9c1ed	-0.0051805885
85	0xbf38d54d	-0.7220047
86	0x3e1cd821	0.15316822
87	0xbeab4493	-0.33450755
88	0x3bcc39d2	0.0062324787
89	0xbe0931bf	-0.13397883
90	0xbe9e0748	-0.3086493
91	0x3e947901	0.2899857
92	0xbf225ad8	-0.63419867
93	0xbd759c7f	-0.0599637
94	0x3d51bf61	0.051207904
95	0xbf31049e	-0.6914767
96	0xbda1118d	-0.07864676
97	0xbee0ca64	-0.43904412
98	0xbe8fb45d	-0.28067294
99	0xbe59d03b	-0.2127084
100	0xbe6957e3	-0.22787432
101	0xbc8a3a9e	-0.016873654
102	0xbef4d28f	-0.47816893
103	0xbe93916d	-0.2882189
104	0x3da77c92	0.08178057
105	0xbf333a0a	-0.70010436
106	0xbf51a3c0	-0.8189049
107	0xbea16b07	-0.31526968
108	0xbebd850a	-0.37015563
109	0x3d58af1e	0.05290138
110	0xbe3c06a2	-0.18361905
111	0xbec8019e	-0.39063734
112	0xbe7e0493	-0.24806432
113	0xbd9aa572	-0.075510874
114	0xbd371a10	-0.04470259
115	0xbfb95a63	-1.4480709
116	0x3d45b3ef	0.0482673
117	0xbe8b7e3a	-0.2724474
118	0xbd054aea	-0.032542147
119	0xbe90c28e	-0.28273433
120	0xbf070550	-0.5274248
121	0xbcf1792f	-0.02947673
122	0xbeece154	-0.46265662
123	0xbf2623d0	-0.64898396
124	0xbeded364	-0.43520653
125	0xbdc6c61b	-0.09705754
126	0xbe5c5f3c	-0.21520704
127	0xbe93d8eb	-0.28876433
128	0x3e9662b8	0.2937219
129	0xbebf1a3c	-0.37324703
130	0xbf1e2640	-0.61777115
131	0x3e0ea294	0.13929206
132	0xbf1d838b	-0.61528844
133	0xbecaab4c	-0.39583814
134	0xbeadc564	-0.3393966
135	0xbf9bfd60	-1.2186699
136	0xbe0d9902	-0.13827899
137	0xbf17dbcb	-0.5931975
138	0xbdf49a8e	-0.119435415
139	0xbf1e0ccb	-0.6173827
140	0xbfeab35f	-1.833599
141	0xbc52cd97	-0.012866399
142	0xbe26738b	-0.16255014
143	0xbeef3cff	-0.46726224
144	0xbe3b995e	-0.18320224
145	0xbfadd9c9	-1.3582088
146	0xbd3f91bc	-0.046769843
147	0x3d178b31	0.036997978
148	0x3d7971ad	0.060899425
149	0xbdb80e88	-0.089871466
150	0x3e20464c	0.15651816
151	0x3e2d3fa0	0.16918802
152	0xbcb8acec	-0.022543393
153	0xbf138462	-0.57623875
154	0x3e400154	0.18750507
155	0x3e23dbc0	0.16001797
156	0x3e61d4a2	0.22053769
157	0x3ebd537f	0.36977765
158	0x3e2c11c6	0.16803655
159	0x3e15e937	0.14639746
160	0x3ddaf91f	0.10692047
161	0xbe1e0454	-0.15431339
162	0xbeb6c3c1	-0.35696223
163	0xbc3d043a	-0.011536652
164	0xbebacdef	-0.3648524
165	0x3d6ff7b9	0.058585856
166	0x3cf43a70	0.029813021
167	0xbde757b8	-0.11296028
168	0x3d1f9728	0.038962513
169	0x3dff2a32	0.1245922
170	0xbf0db05b	-0.5534722
171	0xbeda3599	-0.42619017
172	0x3e21578c	0.15756053
173	0xbde6f3b5	-0.11276952
174	0xbda8c0b2	-0.08239879
175	0x3cfaf41d	0.03063398
176	0xbe02aece	-0.12761995
177	0x3e4021d1	0.187629
178	0x3df95055	0.12173525
179	0x3d3eb8a9	0.046562824
180	0xbd818e91	-0.063260205
181	0xbe209992	-0.15683582
182	0xbf7e0eef	-0.99241537
183	0x3e073417	0.13203464
184	0xbb847a75	-0.0040429183
185	0x3deac4c8	0.11463314
186	0xbd085225	-0.033281464
187	0xbe2eccba	-0.17070284
188	0x3c1cf5c4	0.0095800795
189	0xbda6c357	-0.08142727
190	0xbf3e50ba	-0.7434193
191	0x3f0b1190	0.54323673
192	0x3ea6ea85	0.326008
193	0x3e96bff0	0.29443312
194	0xbe3926b1	-0.18081166
195	0x3e24e702	0.16103747
196	0xbe0ce355	-0.13758595
197	0xbe74dcd8	-0.2391237
198	0xbc64f7de	-0.013975112
199	0x3dcb6acd	0.0993248
200	0xbd40ac5f	-0.047039386
201	0xbc44271b	-0.011972214
202	0xbe883a16	-0.26606816
203	0x3dbc28f5	0.091874994
204	0x3dbecf9e	0.093169436
205	0xbcd40876	-0.02588294
206	0xbf2e8b78	-0.6818156
207	0xbef4bed5	-0.47801843
208	0x3e194f31	0.14971615
209	0xbf17ab8d	-0.5924614
210	0xbdf9c649	-0.12196023
211	0xbcca87c4	-0.024722941
212	0x3e74a83d	0.23892303
213	0x3e4436a1	0.19161464
214	0xbf0edea3	-0.55808467
215	0x3eca9029	0.3956311
216	0x3c62e724	0.0138490535
217	0xbed45181	-0.41468433
218	0xbf40deff	-0.75340265
219	0xbebfd280	-0.37465286
220	0x3d18f19a	0.037339784
221	0xbc9c18bf	-0.019054769
222	0xbda08a70	-0.07838905
223	0xbebb1d4d	-0.36545792
224	0xbd8f0125	-0.0698264
225	0x3d6c533d	0.05769657
226	0x3d8dd0eb	0.069246136
227	0x3c49bc48	0.012312956
228	0xbc4919cb	-0.012274216
229	0xbe3e7b9b	-0.18601839
230	0xbf4afd31	-0.7929259
231	0xbf1f1959	-0.6214805
232	0x3d1ac1bc	0.037782416
233	0x3e20ca53	0.1570218
234	0x3e8dca19	0.2769325
235	0xbf021b54	-0.5082295
236	0xbe56c50b	-0.20973603
237	0xbcd2975f	-0.025706945
238	0xbe4aec4d	-0.19816704
239	0xbdeb22d9	-0.11481256
240	0xbdcc10a8	-0.099641144
241	0xbe624a06	-0.2209855
242	0xbea23aac	-0.31685388
243	0x3e8d2190	0.2756467
244	0xbccf31a2	-0.025292221
245	0xbf22b542	-0.6355783
246	0xbf1ec67a	-0.620216
247	0xbe9b406c	-0.30322587
248	0x3ece516b	0.40296492
249	0x3e491ed1	0.19640662
250	0xbf23f4c6	-0.6404537
251	0x3df1417f	0.117800705
252	0xbd775606	-0.060384773
253	0x3ed24861	0.41070846
254	0xbe9ffa2c	-0.31245553
255	0xbf3d50bc	-0.73951316

fc_layers.0.bias f4 [64]
0	0xbd18c85e	-0.03730046
1	0x3d664182	0.056214817
2	0x3db99a66	0.09062652
3	0xbdbf6c0f	-0.093467824
4	0xbe994fff	-0.29943845
5	0xbe0c0a0c	-0.13675708
6	0x3e2bb7b2	0.16769293
7	0x3bf7cc14	0.00756217
8	0xbe876a64	-0.26448357
9	0xbe2b93f2	-0.16755655
10	0xbe8e9b95	-0.27853075
11	0x3bbbd87f	0.0057325955
12	0xbe8b7584	-0.27238095
13	0xbe653067	-0.22381745
14	0xbe889dde	-0.26682943
15	0xbe239bbf	-0.15977381
16	0xbe4c312d	-0.19940634
17	0x3d960c83	0.07326605
18	0x3ecf1222	0.40443522
19	0xbddb498c	-0.10707387
20	0x3d888667	0.0666626
21	0xbe842b45	-0.25814262
22	0xbd2574d1	-0.040394608
23	0xbd825c6f	-0.063652866
24	0x3cd47c03	0.02593804
25	0xbe1adf07	-0.1512414
26	0xbe8db246	-0.27675074
27	0xbf01a139	-0.5063663
28	0x3dd42444	0.103584796
29	0x3e309374	0.17243749
30	0xbe6f0301	-0.2334099
31	0xbe5dbb51	-0.21653487
32	0xbd74f9d1	-0.059808556
33	0x3d73eb9e	0.059550874
34	0xbd885eca	-0.066587046
35	0xbd4c3d85	-0.049863357
36	0x3c37b5cd	0.011212778
37	0xbe5941b5	-0.21216471
38	0x3e2c1ba5	0.1680742
39	0xbebc0842	-0.3672505
40	0xbe7bdeeb	-0.24596755
41	0x3e23c95b	0.1599478
42	0xbe44817a	-0.19190016
43	0xbcc77de0	-0.024352014
44	0xbd3369ea	-0.04380218
45	0xbe2c263c	-0.1681146
46	0xbea19e50	-0.31566095
47	0xbe04a1cc	-0.12952346
48	0x3e2fcd7a	0.17168227
49	0x3c8ccc54	0.017187275
50	0xbd9f62aa	-0.077824906
51	0xbd824610	-0.063610196
52	0x3d60f9db	0.05492578
53	0xbe4ba4b7	-0.19887052
54	0x3e48f9f3	0.19626598
55	0x3dd86d4d	0.105677225
56	0x3ba88629	0.0051429463
57	0xbdf07576	-0.11741154
58	0xbe931d9b	-0.28733525
59	0xbd80219e	-0.06256412
60	0x3deeba63	0.11656644
61	0xbd78bc9f	-0.060726758
62	0x3c702b03	0.014658692
63	0xbea65d91	-0.3249326

fc_layers.1.weight f4 [64, 64]
0	0x3dd121d6	0.10211532
1	0x3e1394be	0.1441221
2	0xbe13a32e	-0.14417717
3	0xbe1f746e	-0.15571758
4	0xbd90f80b	-0.070785604
5	0xbd9b3206	-0.075779006
6	0x3c836a00	0.016041756
7	0xbdd6735f	-0.10471224
8	0x3dbfbc74	0.093621165
9	0x3cb4f6c1	0.022090318
10	0x3dd12530	0.10212171
11	0xbdafd37f	-0.085852616
12	0xbc1f7d1c	-0.009734418
13	0xbe1f2dca	-0.15544811
14	0xbbd65821	-0.0065412675
15	0xbd1e59e5	-0.03865995
16	0x3d74d5e9	0.059774313
17	0xbd130cb7	-0.035900798
18	0x3e8657c5	0.26238838
19	0x3ca96a59	0.020680593
20	0x3e8565c1	0.26054195
21	0x3e1aafe7	0.15106164
22	0x3ba1f605	0.004942658
23	0x3d8fb3f3	0.070167445
24	0x3d532bf3	0.051555585
25	0x3d474ca4	0.048657075
26	0x3c989f39	0.01863061
27	0xbdc8501c	-0.09780905
28	0x3b1f3052	0.0024290276
29	0xbcc5df30	-0.024154276
30	0xbe459161	-0.19293739
31	0x3e25dede	0.16198298
32	0xb9f8252c	-0.0004732994
33	0xbe8e9d22	-0.27854258
34	0x3dc210ed	0.094758846
35	0xbc2b1584	-0.010442141
36	0xbd2258be	-0.039635412
37	0xbe0bd5b6	-0.13655743
38	0x3d880901	0.06642342
39	0xbe78485b	-0.24246351
40	0xbd1f7dec	-0.038938448
41	0x3e8a5918	0.27021098
42	0xbe1856de	-0.14876887
43	0x3d1d2b48	0.038371354
44	0x3d8dca20	0.06923318
45	0xbc2fbad4	-0.010725696
46	0x3c4482a2	0.011994036
47	0x3d045a40	0.03231263
48	0xbeb23680	-0.34807205
49	0x3df250f7	0.11831849
50	0x3d45ebbc	0.048320517
51	0x3d6a5dbe	0.057218306
52	0x3e278a06	0.16361246
53	0xbdc9e9a8	-0.098590195
54	0xbe3bbac2	-0.18332961
55	0xbe1d6c93	-0.15373449
56	0xbd0528be	-0.032509558
57	0xbdc2cf55	-0.09512202
58	0xbdcfba53	-0.101429604
59	0x3debfaa1	0.11522413
60	0x3d31e6a7	0.043432858
61	0xbd943461	-0.07236553
62	0xbe0075f8	-0.12545002
63	0xbc88c113	-0.016693627
64	0xbe4866d0	-0.1957047
65	0x3f26658d	0.64998704
66	0xbe3ac592	-0.1823943
67	0xbed78cf0	-0.42099714
68	0xbe1e4ef4	-0.15459806
69	0x3e87da25	0.2653362
70	0x3e011afc	0.1260795
71	0xbe2480e1	-0.16064788
72	0xbf3377be	-0.7010459
73	0xbecc17f4	-0.39862025
74	0xbf05bf1b	-0.5224473
75	0x3d954224	0.07288006
76	0xbe2f20e2	-0.17102388
77	0x38e12bb3	0.00010736976
78	0x3e5123d9	0.20423831
79	0x3e91be13	0.28465328
80	0xbe9180d8	-0.28418612
81	0xbe9fd5e5	-0.31217876
82	0xbdc2c30f	-0.09509861
83	0xbe75afdc	-0.23992866
84	0xbdc7642d	-0.09735904
85	0x3eac352c	0.33634317
86	0x3e0e0d98	0.13872373
87	0xbe6221ef	-0.22083257
88	0xbecce1ab	-0.4001592
89	0xbee223c4	-0.44167912
90	0xbe0165de	-0.12636515
91	0x3e99bf99	0.3002899
92	0x3e6120d0	0.21985173
93	0x3d94bd04	0.07262614
94	0xbf56dc98	-0.8393035
95	0xbe4883ca	-0.19581524
96	0xbea2b78e	-0.31780666
97	0xbe9b925d	-0.30385104
98	0xbe313960	-0.17307043
99	0xbdf23ac5	-0.11827616
100	0xbf138102	-0.57618725
101	0xbcd8e3bb	-0.026475778
102	0x3cd06285	0.025437603
103	0xbdafbad8	-0.085805595
104	0x3dd1b788	0.10240084
105	0xbdc47541	-0.09592677
106	0x3dd61701	0.104536064
107	0x3ed93d1d	0.42429438
108	0xbeae673b	-0.34063134
109	0xbf4132f5	-0.7546838
110	0xbef407ca	-0.47662193
111	0xbe83d62f	-0.25749347
112	0xbe8f0baa	-0.27938586
113	0xbf287800	-0.65808105
114	0x3e5320be	0.20617959
115	0xbf39327b	-0.7234265
116	0x3e055459	0.13020457
117	0xbe2a8153	-0.16650896
118	0xbedb2baf	-0.42806765
119	0xbee5dbbe	-0.44894212
120	0xbf05f688	-0.523293
121	0xbdcd75f3	-0.10032263
122	0xbef89979	-0.4855459
123	0x3d8509be	0.06495999
124	0xbf963c2e	-1.1737115
125	0x3ee0e5bf	0.43925282
126	0xbf0738cb	-0.52821034
127	0xbd5962a7	-0.053072598
128	0xbeb0c1e0	-0.34522915
129	0x3e02e848	0.12783921
130	0x3e69be06	0.22826394
131	0xbe361c96	-0.17784342
132	0xbda8bc77	-0.08239072
133	0xbeb6f593	-0.35734233
134	0xbd88922f	-0.06668507
135	0x3f5955b5	0.84896404
136	0x3e17c596	0.14821467
137	0x3e462d7b	0.19353287
138	0xbe800ad2	-0.25008255
139	0x3eb005fe	0.34379572
140	0xbd96ff96	-0.07372968
141	0x3df19d8d	0.117976286
142	0x3f124b6d	0.5714634
143	0x3dab46a2	0.083630815
144	0x3e86f891	0.26361516
145	0xbf052467	-0.5200867
146	0xbddba164	-0.10724142
147	0xbc8ab35c	-0.016931228
148	0x3ed27721	0.41106513
149	0x3dae4454	0.08509126
150	0xbcd6b30a	-0.02620842
151	0xbddb0006	-0.10693364
152	0xbdee71f3	-0.11642828
153	0x3d8bf623	0.06834056
154	0xbddb541e	-0.107094035
155	0x3e2fb401	0.1715851
156	0x3eed02ee	0.46291298
157	0x3df28f58	0.11843747
158	0xbe41b868	-0.18918002
159	0x3ea795f4	0.32731593
160	0x3e253f4a	0.16137424
161	0x3e961024	0.2930919
162	0x3e24b818	0.16085851
163	0x3e50cad1	0.20389868
164	0x3e8a871e	0.2705621
165	0x3d90b7c5	0.07066301
166	0x3db8d93c	0.09025809
167	0xbe01e0fb	-0.1268348
168	0xbdb2fed0	-0.08740008
169	0xbdccda15	-0.10002533
170	0x3e3a9cc7	0.18223868
171	0x3ed19c86	0.4093973
172	0xbe233883	-0.15939526
173	0xb986ac3a	-0.0002568679
174	0x3c454ecf	0.012042715
175	0x3e6bc17d	0.23023029
176	0xbc904ba9	-0.017614203
177	0xbd1d7b30	-0.03844756
178	0xbd2b6a43	-0.041849386
179	0x3e2bd2e4	0.16779667
180	0x3ed8bf84	0.42333615
181	0xbe2463fc	-0.16053766
182	0xbed9723d	-0.4246997
183	0xbec4b511	-0.38419393
184	0x3ebf030d	0.37307015
185	0xbcfd4b5d	-0.030919725
186	0x3d15d85b	0.036583286
187	0xbf02fd63	-0.5116789
188	0x3e0b298f	0.13590072
189	0x3c5b7d65	0.013396596
190	0x3e981b80	0.2970848
191	0x3e448b6b	0.19193809
192	0xbe55292a	-0.20816484
193	0xbed34a40	-0.41267586
194	0xbfc57633	-1.5426697
195	0x3d565898	0.052330583
196	0xbf2b6910	-0.6695719
197	0xbe9e9bd0	-0.3097825
198	0xbf55fb38	-0.83586454
199	0xbe358423	-0.17726187
200	0x3e741d19	0.23839225
201	0xbf51a4de	-0.8189219
202	0xbf725d41	-0.94673544
203	0xbf92a217	-1.1455716
204	0x3da4f6eb	0.08054908
205	0xbeb3a5ff	-0.35087582
206	0xbef222f2	-0.47292286
207	0xbd6ac2d7	-0.05731472
208	0xbed2f2db	-0.4120091
209	0xbf154140	-0.5830269
210	0x3d1363cc	0.035983846
211	0xbf080203	-0.5312807
212	0xbf424395	-0.7588437
213	0xbf567122	-0.83766377
214	0xbf99de36	-1.2020938
215	0x3c9de2c4	0.01927317
216	0x3e2fc017	0.1716312
217	0xbe027306	-0.1273919
218	0xbf3d4bb7	-0.73943657
219	0xbea06613	-0.31327876
220	0xbe0cd57f	-0.13753317
221	0xbe59cdd4	-0.21269923
222	0x3e32e869	0.1747147
223	0xbf86e70f	-1.0539263
224	0x3ca46848	0.020069256
225	0xbf89212e	-1.0713251
226	0xbf1e750c	-0.6189735
227	0xbee6e23b	-0.45094475
228	0xbf5f4ae3	-0.87223643
229	0xbf124912	-0.57142746
230	0x3e792cc3	0.24333481
231	0xbede080b	-0.4336551
232	0xbebcaeb8	-0.3685205
233	0x3d863967	0.065539174
234	0x3f192b88	0.5983205
235	0x3eebe9b3	0.46076736
236	0xbf90af95	-1.1303583
237	0xbf269d26	-0.6508354
238	0xbfb6c911	-1.4280111
239	0x3ecb90e5	0.39758983
240	0xbf1deab1	-0.61686236
241	0xbe4bc8aa	-0.19900766
242	0xbf03ee34	-0.51535344
243	0xbf5be0d0	-0.8588991
244	0xbd289da7	-0.041165974
245	0xbf3ee6cb	-0.7457091
246	0xbd653f09	-0.055968318
247	0xbecbaa70	-0.3977847
248	0xbe1aa9f4	-0.15103894
249	0x3c21081e	0.009828595
250	0xbea1b0e6	-0.31580275
251	0xbf4acbad	-0.79217035
252	0xbdf54cb5	-0.11977521
253	0xbe8e2cb4	-0.2776848
254	0xbe8abbdb	-0.27096447
255	0x3e2a7b39	0.16648568

fc_layers.1.bias f4 [64]
0	0x3f6ee7fd	0.93322736
1	0xbeab4c6b	-0.3345674
2	0x3ead3841	0.3383198
3	0xbe6fa311	-0.23402049
4	0xbe2c3168	-0.16815722
5	0x3dada1b0	0.08478105
6	0x3e80359c	0.250409
7	0x3de0235c	0.10944244
8	0x3e8750f5	0.26428953
9	0x3c95bc06	0.018278133
10	0x3e05d2f0	0.13068748
11	0xbe7226f3	-0.2364767
12	0x3b09d3a8	0.0021030698
13	0xbd31e052	-0.04342682
14	0xbe8323c4	-0.25613225
15	0xbe194a05	-0.14969642
16	0xbe66bc74	-0.22532827
17	0x3f070b05	0.5275119
18	0xbe37330d	-0.17890568
19	0x3e9c8f6a	0.30578166
20	0xbe2513fa	-0.16120902
21	0xbe816cff	-0.2527847
22	0xbe13b029	-0.14422669
23	0x3f718a24	0.9435141
24	0x3f60df8a	0.87841094
25	0xbdb3d7d3	-0.087813996
26	0x3e2b89f2	0.1675184
27	0x3de367e3	0.11103799
28	0xbeb2ec1d	-0.34945765
29	0xbe7ab2fc	-0.2448234
30	0xbc332c29	-0.010935822
31	0xbdff5e59	-0.12469167
32	0xbc225eae	-0.009910269
33	0x3e8aa7a8	0.27081037
34	0xbe0ca265	-0.13733824
35	0xbe27e5b1	-0.16396214
36	0x3f1e355a	0.6180016
37	0x3dffc04f	0.12487852
38	0x3d42666d	0.047460962
39	0xbd75b671	-0.059988443
40	0x3f20280b	0.625611
41	0x3d60ee7a	0.05491493
42	0xbcb73ad5	-0.02236692
43	0x3f4ddc4b	0.80414265
44	0x3f42afb2	0.7604934
45	0x3e879757	0.2648265
46	0x3eb8fe18	0.36131358
47	0x3f2d1c6a	0.6762148
48	0x3c849e8b	0.01618888
49	0x3e45bbbd	0.19309898
50	0xbe6e54f1	-0.2327459
51	0x3e0d43d2	0.13795403
52	0xbe81bd21	-0.25339606
53	0xbdab9efb	-0.083799325
54	0x3ef79215	0.4835364
55	0xbe85564e	-0.26042408
56	0x3ea436d1	0.32073072
57	0x3e3553df	0.17707776
58	0x3df7251f	0.12067627
59	0xbdbeae5f	-0.093106024
60	0x3edc34e3	0.430091
61	0xbec42466	-0.3830902
62	0x3f2d2924	0.676409
63	0x3d900897	0.070328884

fc_layers.2.weight f4 [4, 64]
0	0x3ea34d60	0.3189497
1	0xbd9207a1	-0.07130361
2	0x3e544bf0	0.20732093
3	0xbe458507	-0.19289027
4	0xbe4e70d9	-0.20160235
5	0x3d808d23	0.0627692
6	0x3e344c1f	0.17607163
7	0xbcbaa8bd	-0.022785539
8	0x3e003018	0.12518346
9	0x3e3952e7	0.18098031
10	0xbdc2fc3a	-0.09520765
11	0xbe07508c	-0.1321432
12	0xbf4bd19b	-0.7961671
13	0x3e24f1f9	0.1610793
14	0xbd50d2d9	-0.05098233
15	0x3ebc1468	0.3673432
16	0xbe2e135a	-0.1699957
17	0x3ea006f2	0.312553
18	0x3e4db295	0.20087655
19	0x3dbef7bc	0.09324595
20	0xbd46cffb	-0.04853819
21	0xbe94ef08	-0.29088616
22	0xbd967e70	-0.07348335
23	0x3ea1f3c5	0.31631294
24	0x3e8b2613	0.27177486
25	0x3e21c448	0.15797532
26	0x3dca16e3	0.098676465
27	0x3d322693	0.04349382
28	0xbe2e003d	-0.16992278
29	0xbe622cb6	-0.22087368
30	0xbeca4420	-0.395051
31	0x3d4ee32e	0.050509624
32	0xbdc19828	-0.094528496
33	0x3dd808ba	0.105485395
34	0xbeab5f1e	-0.33471006
35	0xbe4936ec	-0.19649857
36	0x3e72102b	0.2363898
37	0x3e2638e3	0.16232638
38	0x3e093366	0.13398513
39	0xbe67abdd	-0.22624154
40	0x3e6ff54e	0.2343342
41	0x3d944b54	0.0724093
42	0x3e6f03f9	0.23341359
43	0x3e85ac5f	0.2610807
44	0x3e8a1839	0.26971605
45	0x3d6f33b0	0.058398902
46	0x3e6bb140	0.23016834
47	0x3e65fb69	0.22459187
48	0x3ea2523c	0.31703365
49	0x3eb165cd	0.3464798
50	0xbec13db0	-0.37742376
51	0x3de28216	0.11059968
52	0xbe35e12c	-0.17761678
53	0xbed5fee1	-0.4179602
54	0x3ec1c665	0.37846676
55	0xbe8aaa85	-0.2708322
56	0x3e8e6b02	0.27816015
57	0x3e66b4ee	0.22529957
58	0x3e97841e	0.29592985
59	0x3d64a7a7	0.05582395
60	0x3dc4bb70	0.09606063
61	0xbde165c4	-0.110057384
62	0x3e284d43	0.16435723
63	0x3d9f8e85	0.07790855
64	0x3e9d4ca0	0.30722523
65	0x3d3c5a66	0.04598465
66	0x3d57689e	0.052590005
67	0x3e2c3e2f	0.16820596
68	0x3e0cb47a	0.13740721
69	0xbd4fbd9e	-0.050717942
70	0x3e801a4a	0.25020057
71	0x3e4b4b7d	0.19853015
72	0x3def44f7	0.11683076
73	0x3db856ca	0.09000929
74	0x3c8aaeb4	0.016929008
75	0xbe7edfbb	-0.24890034
76	0x3e080831	0.13284375
77	0x3d8fbe34	0.070187
78	0xbe7f029a	-0.24903336
79	0x3ec1a657	0.3782222
80	0xbe01407d	-0.12622257
81	0x3ebe07d8	0.3711536
82	0xbe42e4b3	-0.19032554
83	0x3e40c50b	0.18825166
84	0x3d808eb4	0.062772185
85	0xbe91030e	-0.28322643
86	0x3db180c1	0.08667136
87	0x3e82b8b3	0.2553154
88	0x3e8331da	0.2562397
89	0xbcd1a84c	-0.025592946
90	0x3dae4c91	0.08510698
91	0x3d061596	0.03273543
92	0xbe5a458c	-0.21315593
93	0xbdacf476	-0.08445065
94	0x3d6ad053	0.05732758
95	0x3e825832	0.25457913
96	0x3e14462a	0.1447989
97	0x3d06dc31	0.032924835
98	0xbe88747c	-0.2665137
99	0x3e031430	0.1280067
100	0x3edc4800	0.43023682
101	0x3e2fcf9c	0.1716904
102	0x3ea05633	0.31315765
103	0xbe2cef05	-0.16888054
104	0x3e0ee66a	0.13955083
105	0xbd4ad63b	-0.049520712
106	0x3e301f05	0.17199333
107	0x3e94989a	0.29022676
108	0x3e4e173b	0.20126049
109	0x3e84f013	0.25964412
110	0x3e2fd4fb	0.1717109
111	0x3ea250a3	0.31702146
112	0x3ecb7ffb	0.3974608
113	0x3d799d5b	0.06094108
114	0xbe5e599f	-0.21713875
115	0x3dc6be79	0.097042985
116	0xbdd8de66	-0.10589294
117	0x3ebb3f42	0.365717
118	0x3dfd820c	0.1237832
119	0xbd9cff91	-0.07665933
120	0x3ebee17f	0.37281415
121	0x3ec10e93	0.37706432
122	0x3edb7ee2	0.4287024
123	0x3cc04252	0.023469124
124	0x3d98fa61	0.07469631
125	0xbc9ce534	-0.019152261
126	0x3e8f6f39	0.28014544
127	0x3e14bef6	0.14525971
128	0x3e9c0a11	0.3047643
129	0xbdcab54e	-0.098978624
130	0x3dfa6fd4	0.12228361
131	0xbebbf3a8	-0.36709332
132	0xbca30353	-0.019899046
133	0xbe7a34d2	-0.24434212
134	0x3e80b5fe	0.2513885
135	0x3e55597d	0.20834918
136	0xbca72968	-0.020405486
137	0x3ecf72af	0.40517184
138	0x3e7175f8	0.23580158
139	0xbdc43540	-0.09580469
140	0xbee2ee24	-0.44322312
141	0xbe8357ba	-0.25652868
142	0xbe0662ab	-0.13123576
143	0x3dbc602d	0.091980316
144	0x3e7f69da	0.24942723
145	0x3e46d6c7	0.19417869
146	0x3e16b74f	0.14718364
147	0x3ddbd281	0.1073351
148	0x3e7c22e7	0.24622689
149	0xbe2d0918	-0.16898
150	0x3e9c1a13	0.30488643
151	0x3ea9669c	0.33086097
152	0x3e69e245	0.22840221
153	0x3e06d927	0.13168775
154	0x3e7254ab	0.23665111
155	0x3e271fb7	0.16320692
156	0xbebfb0e3	-0.3743964
157	0xbed94df0	-0.42442274
158	0xbeae394a	-0.34028083
159	0xbe030f8a	-0.12798896
160	0x3eb846a6	0.359914
161	0x3e68c8cb	0.22732846
162	0xbe9da007	-0.30786154
163	0xbe0f3ca9	-0.13987984
164	0x3e56059a	0.20900574
165	0xbe4500cd	-0.19238587
166	0x3e9542f6	0.2915265
167	0x3d16d9cb	0.036828797
168	0x3de0bcfc	0.10973546
169	0x3dd54463	0.10413434
170	0x3e2839ef	0.1642835
171	0x3e635f5c	0.22204345
172	0x3e9591f8	0.29212928
173	0x3e36dc1e	0.17857406
174	0x3e18ec78	0.14933956
175	0x3ed2057e	0.41019815
176	0x3f3bf766	0.73424375
177	0xbda54a57	-0.0807082
178	0xbd1771e1	-0.036973838
179	0xbe39db2a	-0.1815001
180	0x3e296fff	0.1654663
181	0xbf040a32	-0.51578057
182	0x3db64d51	0.08901466
183	0xbe540b38	-0.20707405
184	0x3daac2a0	0.08337903
185	0x3d6294b5	0.0553176
186	0x3eb5be12	0.35496575
187	0x3d5197c7	0.051170137
188	0x3e2d11f7	0.16901384
189	0x3dc08d25	0.09401921
190	0x3e84b7da	0.25921518
191	0x3d3844e9	0.044987593
192	0x3e849600	0.2589569
193	0xbe6ad582	-0.2293301
194	0xbe07b7da	-0.13253728
195	0xbea0db3e	-0.3141727
196	0x3e8408ca	0.25787956
197	0xbe428320	-0.18995333
198	0x3c2ecb29	0.010668554
199	0x3e58c743	0.21169762
200	0x3e7625fb	0.24037926
201	0xbcef93fb	-0.029245367
202	0x3e7334e0	0.23750639
203	0xbe66466e	-0.22487804
204	0x3e3b189f	0.18271111
205	0xbea080c5	-0.31348243
206	0xbe894da1	-0.2681704
207	0x3f3d041f	0.73834413
208	0xbd542428	-0.051792294
209	0x3e421899	0.18954696
210	0xbef22b79	-0.47298792
211	0x3e86eb76	0.26351517
212	0x3e6b438c	0.22974986
213	0xbe3e4590	-0.18581223
214	0x3f0575c2	0.5213281
215	0x3eafce14	0.34336913
216	0x3e84c909	0.25934628
217	0x3e6d104e	0.23150751
218	0x3c1c5d8a	0.009543786
219	0x3e94291e	0.2893762
220	0x3b83278a	0.004002516
221	0x3dde2bd4	0.10848203
222	0xbee3d1f1	-0.4449611
223	0xbf01c1d4	-0.50686383
224	0x3ef69644	0.4816152
225	0xbe0634fc	-0.1310615
226	0xbebcda6f	-0.36885402
227	0x3e1f9bed	0.15586825
228	0x3e7ceebc	0.24700445
229	0xbddabb1d	-0.1068022
230	0xbe32901c	-0.17437786
231	0xbe9b0149	-0.30274418
232	0x3e829492	0.25503975
233	0xbee739b1	-0.45161203
234	0x3f0e3142	0.5554391
235	0x3e8efc11	0.27926686
236	0x3e845830	0.25848532
237	0x3e56633e	0.20936295
238	0x3e780de6	0.24224052
239	0x3e8854a8	0.26627088
240	0xbe8efc52	-0.2792688
241	0x3e21bf0a	0.15795532
242	0xbe0cd69c	-0.13753742
243	0x3e5cf934	0.21579438
244	0x3d94bac8	0.07262188
245	0xbf2f2000	-0.68408203
246	0x3eaa4563	0.33256063
247	0xbe20bf03	-0.15697865
248	0x3ccf1028	0.025276259
249	0x3e0f615e	0.14001986
250	0x3e822676	0.25419968
251	0x3d51f823	0.051262032
252	0x3ddadcca	0.106866434
253	0xbdeebded	-0.11657319
254	0x3e8003b5	0.25002828
255	0x3e8d0ca3	0.27548704

fc_layers.2.bias f4 [4]
0	0x3f262604	0.6490176
1	0x3f09186e	0.535529
2	0x3f1ed120	0.6203785
3	0x3f0ea9a1	0.55727583
